best_model.pt (torch, 723579 bytes, 11 tensors)

embedding.weight f4 [27, 100]
0.9577193 -0.7692324 -1.8448904 -0.08112572 0.33167332 -0.513297 -1.3523122 -1.8207258
0.24783345 -0.008809362 -1.3205289 0.46716627 1.3048412 0.9544155 -0.427402 -1.3898817
-1.111161 -0.4369686 0.6635181 -0.7294839 1.5460104 1.3720815 -0.6927633 1.0618936
0.029011508 0.2853461 0.9628353 0.24969658 0.4037308 -0.28902423 -0.57564807 -1.0369902
-0.78080714 -0.57393646 0.2436089 -1.7884246 2.957049 0.3389525 -0.5867955 -0.79860896
0.32053646 0.18118082 -1.5977936 -1.119058 0.5460096 1.113387 0.8812117 -1.9682269
-1.055213 1.4824103 0.060243595 -0.42913458 1.2797388 -0.41768032 -0.8046426 0.34414697
0.0691757 -1.5709321 -0.21057393 0.78241986 0.12657297 -0.51612616 1.7384291 0.087618224
-0.371843 -1.0260383 1.0298603 0.26294053 -0.19581601 -0.90982723 0.010969831 1.6106863
-1.488826 1.8866984 0.6690331 -0.37353364 0.10978426 1.4142095 0.12782508 -2.1414888
0.7216701 -0.29269832 -0.82428426 -1.034339 -0.38651973 0.5864845 -1.7083025 -0.06453592
-0.34789374 1.955011 1.2832036 0.8372765 0.94060546 -0.46893442 0.12284493 0.69148314
-0.73443574 -0.69403356 -1.1232074 0.38994753 -0.39542365 -1.2992951 -0.6569724 -0.13359371
-0.31916875 1.2912271 0.5720082 0.03208354 -1.5590985 0.109891176 -0.40296823 -0.6034473
-0.13490778 -0.59888506 1.2909943 -0.83603007 -0.7413944 -1.2997795 -0.28932232 -1.6023264
-1.2956324 -0.13569549 -0.2415541 -1.0532349 -0.933156 0.2693582 -1.779728 -1.1736706
-0.40343907 1.4998355 -0.47816873 -1.0881317 -2.457328 0.608594 -0.12620045 -0.875916
-1.066647 -0.69163305 -1.1747259 -1.726505 -0.18583176 1.3019903 0.24362603 0.47436395
-0.37472826 -1.1472117 1.3336896 0.22767101 1.409126 0.86210126 -0.68089473 0.17472243
0.37636608 -1.7103437 -1.1329784 0.8554152 2.2987883 -0.6209991 0.9982989 -1.198428
1.4598213 1.2513067 0.76329565 0.7572754 -0.91632515 0.19666983 0.46628448 0.03917424
-2.3952997 0.29282615 -1.7188371 1.6745149 -0.8541886 0.65720797 1.4012827 -0.68722373
0.721427 -0.36908028 -1.0929734 -0.56053764 -0.29335237 0.49455458 0.9697166 -1.2502815
0.16743843 0.3280121 0.85499966 0.19602212 -0.1529906 0.20463601 1.2313789 0.66402876
-0.48311278 -0.10914325 1.1491677 -0.39875084 -2.503848 -0.57434386 -1.381954 0.38119426
0.01843704 1.0091289 -0.9522122 0.042276092 -0.25416923 1.7133346 0.2566536 -1.0893168
0.06492906 -0.52114004 -1.1084008 1.4429133 0.08363426 -0.6977139 0.72332 0.6753131
-1.291645 0.92129004 1.4212115 0.92298096 0.7893406 -0.6671473 -0.57467794 -0.28143212
0.21919528 2.037889 -0.12134024 -1.5481865 0.9118874 -1.0748265 -0.14324665 -0.68513024
0.66346353 0.15673034 2.1582017 -0.87801 -0.6914269 -0.09172948 -1.8761432 -0.842424
-1.6419957 -1.3426118 -0.64228374 -1.1416157 -0.4604823 0.035020474 -0.21392481 0.5297895
-1.3882133 0.60052097 -0.8284541 -0.9278164 -0.12041466 0.20031786 0.14704819 1.7912356
00000000: 182d 753f 6aec 44bf 5e25 ecbf 3e25 a6bd
00000010: 16d1 a93e 6f67 03bf 9118 adbf 8b0d e9bf
00000020: 0dc8 7d3e 2455 10bc 1707 a9bf 6b30 ef3e
00000030: 0905 a73f 9354 743f 6fd4 dabe a5e7 b1bf
00000040: 863a 8ebf 59ba dfbe 52dc 293f 75bf 3abf
00000050: abe3 c53f 5ea0 af3f f058 31bf 21ec 873f
00000060: 8ba9 ed3c e218 923e 607c 763f 76b0 7f3e
00000070: ceb5 ce3e fcfa 93be ac5d 13bf 18bc 84bf
00000080: fae2 47bf 80ed 12bf 9d74 793e 19eb e4bf
00000090: 4a40 3d40 2f8b ad3e 3b38 16bf a371 4cbf
000000a0: 5b1d a43e 7787 393e 8084 ccbf 4b3d 8fbf
000000b0: 49c7 0b3f 7783 8e3f 1797 613f dcee fbbf
000000c0: 3811 87bf 9fbf bd3f fdc1 763d 87b7 dbbe
000000d0: 7bce a33f 32da d5be 0ffd 4dbf 0834 b03e
000000e0: fdab 8d3d 4e14 c9bf b1a0 57be ab4c 483f
000000f0: 589c 013e d820 04bf d884 de3f 2f71 b33d
00000100: 3562 bebe 3955 83bf 76d2 833f 24a0 863e
00000110: fe83 48be 70ea 68bf ceba 333c f82a ce3f
00000120: da91 bebf 557f f13f c145 2b3f cd3f bfbe
00000130: 92d6 e03d d104 b53f 94e4 023e 270e 09c0
00000140: 5fbf 383f 8edc 95be 4b04 53bf 3865 84bf
00000150: eae5 c5be d923 163f a8a9 dabf 692b 84bd
00000160: 211f b2be cd3d fa3f 0440 a43f c157 563f
00000170: 85cb 703f 2c18 f0be 1f96 fb3d 0a05 313f
00000180: fb03 3cbf 2fac 31bf 43c5 8fbf 34a7 c73e
00000190: f874 cabe 4d4f a6bf 582f 28bf cacc 08be
000001a0: 166a a3be ee46 a53f 216f 123f 086a 033d
000001b0: 8a90 c7bf a00e e13d da51 cebe 867b 1abf
000001c0: 4425 0abe 8850 19bf 4d3f a53f 1106 56bf
000001d0: 06cc 3dbf 2d5f a6bf 0e22 94be 0819 cdbf
000001e0: 48d7 a5bf c2f3 0abe f559 77be 67d0 86bf
000001f0: 50e3 6ebf 51e9 893e 21ce e3bf d73a 96bf
00000200: 918f cebe 9cfa bf3f 88d2 f4be e647 8bbf
00000210: dd44 1dc0 d1cc 1b3f b13a 01be 083c 60bf
00000220: e487 88bf dd0e 31bf 6b5d 96bf 1efe dcbf
00000230: ae4a 3ebe 9ea7 a63f 1a79 793e d5df f23e
00000240: 62dc bfbe d5d7 92bf 57b6 aa3f 9722 693e
00000250: 3e5e b43f abb2 5c3f 1e4f 2ebf 70ea 323e
00000260: 0eb3 c03e 8bec dabf 7005 91bf 7efc 5a3f
00000270: 591f 1340 ccf9 1ebf 8490 7f3f 1766 99bf
00000280: 6ddb ba3f d12a a03f 5867 433f cddc 413f
00000290: 4994 6abf d163 493e d7bc ee3e 2b75 203d
000002a0: 974c 19c0 4fed 953e db02 dcbf 8156 d63f
000002b0: 1bac 5abf c83e 283f 3b5d b33f e5ed 2fbf
000002c0: 71af 383f 17f8 bcbe 8de6 8bbf 657f 0fbf
000002d0: 4832 96be 4236 fd3e 593f 783f 3909 a0bf
000002e0: fb74 2b3e 34f1 a73e 42e1 5a3f 06ba 483e
000002f0: 91a9 1cbe 1a8c 513e d39d 9d3f cafd 293f
00000300: 8f5a f7be 7f86 dfbd ed17 933f 1229 ccbe
00000310: 0c3f 20c0 3308 13bf dee3 b0bf e52b c33e
00000320: 4609 973c 232b 813f 2ec4 73bf b229 2d3d
00000330: 7822 82be 8c4e db3f 1a68 833e bc6e 8bbf
00000340: 87f9 843d 6f69 05bf 14e0 8dbf 62b1 b83f
00000350: 7048 ab3d 619d 32bf 802b 393f 52e1 2c3f
00000360: a054 a5bf aad9 6b3f 42ea b53f 7b48 6c3f
00000370: 3a12 4a3f 2aca 2abf 181e 13bf df17 90be
00000380: ba74 603e c66c 0240 3b81 f8bd fa2a c6bf
00000390: 7471 693f ea93 89bf 40af 12be b264 2fbf
000003a0: bfd8 293f eb7d 203e fa1f 0a40 43c5 60bf
000003b0: 5a01 31bf aadc bbbd 7625 f0bf 19a9 57bf
000003c0: ea2c d2bf b4da abbf b56c 24bf 7720 92bf
000003d0: 56c4 ebbe a171 0f3d 1b0f 5bbe 49a0 073f
000003e0: f9b0 b1bf bebb 193f 9115 54bf 6085 6dbf
000003f0: f69b f6bd 2020 4d3e cd93 163e 3547 e53f

gru.weight_ih_l0 f4 [384, 100]
-0.080775075 -0.048036695 -0.038160183 -0.07059401 -0.06470938 0.035630286 -0.06431582 0.10455436
-0.06583241 0.030830039 0.07848785 0.027675776 -0.084700465 -0.093082465 -0.062217858 0.079843946
0.067806914 0.07214816 -0.025347028 0.014867448 0.039534282 0.041312244 0.006150179 -0.03319637
-0.042457793 -0.06886742 0.07153909 -0.056783333 -0.0011736479 -0.038091082 0.057230223 0.09837062
0.033170097 0.074159585 -0.059927415 0.020471886 -0.06256589 -0.09027734 0.033335526 -0.023099398
-0.047196716 -0.060415145 -0.009654982 0.0631691 0.013671672 -0.09536819 0.03399928 -0.050835952
0.05655556 -0.099482715 -0.05446453 -0.034947082 -0.047001295 0.06371117 -0.040965732 0.005076892
0.009684741 0.091990925 0.050116308 0.04742448 -0.09245209 -0.048604727 -0.10279905 -0.08864787
-0.023254197 0.10762338 -0.056941234 -0.10629722 -0.06521524 0.09946109 -0.06605866 -0.08539841
0.0491899 0.054476142 0.018875828 -0.007300681 0.04671399 0.00908184 -0.047332864 -0.01230293
-0.06553853 0.0021952176 -0.05966775 0.1061816 -0.05499789 -0.06562522 0.022579702 0.0586452
0.05904424 -0.074155614 -0.09649732 -0.0004627746 0.015851762 0.0875776 0.0066482145 0.057457708
0.029701155 0.035581503 -0.05669109 0.0040279613 -0.07671435 0.016029596 0.007222024 -0.04168307
-0.03332183 -0.0008950011 -0.010974736 0.047467057 -0.08995127 5.8978843e-05 0.063229606 -0.03923747
-0.11053948 -0.0036364628 0.06700665 0.0532125 0.011280112 -0.017599875 -0.017224493 0.10994673
-0.06539554 -0.053374458 0.089575306 -0.080321 0.035525348 -0.0024980363 -0.037880752 -0.059238676
0.046525784 0.055963375 0.094884396 0.030957764 0.03184317 -0.033248793 0.0032517412 0.014146034
0.06215474 -0.10002444 0.039286435 -0.01051554 0.046975575 0.008673924 0.02579356 -0.06823537
-0.06585391 -0.004807075 0.05062474 0.1062227 -0.009328606 -0.051564336 -0.06274686 -0.045763575
-0.0083698 0.07494375 -0.042702533 0.035971195 -0.06470528 0.02513457 -0.015822493 -0.042447478
0.050634585 -0.05518799 0.0531842 -0.08983135 0.050009288 0.008935774 0.048645124 0.05083051
-0.029241526 0.042257924 0.06576177 0.022759527 0.010624852 -0.06496426 -0.03451626 0.042226803
-0.011154919 -0.088093095 -0.06597066 -0.0728493 0.021177223 -0.029019417 0.1002197 0.05462059
0.06683324 0.034383 0.09542156 0.09468473 0.01637359 0.047611676 -0.041965544 0.02838312
0.071459234 0.07351642 0.019859118 -0.015884362 0.035685357 0.015505228 0.027946478 -0.024532687
0.043256722 0.012144273 -0.029423246 -0.08387561 0.09207703 -0.07488969 -0.0094979415 0.07951369
-0.02496371 0.092538446 -0.030905722 -0.086377196 -0.015363099 0.064189605 -0.018838443 0.023052653
-0.052792266 -0.018923225 0.03347079 -0.01175343 -0.0077123838 -0.038724102 -0.053628046 -0.012888606
0.031254333 0.009664946 -0.050081715 -0.07561859 -0.09272045 0.024337366 0.10260908 -0.006734823
0.0716788 -0.020932555 -0.039752524 -0.010665978 0.035038996 -0.09000077 0.0970015 0.030549543
0.03038998 -0.07386675 -0.036056723 0.045889955 0.017390447 -0.080599494 -0.0048356797 0.038840383
0.07728648 0.043004774 -0.01026439 -0.034411017 -0.061310317 -0.04116141 -0.054438654 -0.038795613
00000000: 676d a5bd 20c2 44bd da4d 1cbd 9893 90bd
00000010: 5a86 84bd 10f1 113d 03b8 83bd 9920 d63d
00000020: 24d3 86bd 478f fc3c 3dbe a03d 4fb8 e23c
00000030: 7077 adbd 05a2 bebd 27d8 7ebd 3985 a33d
00000040: 5ade 8a3d 6ac2 933d 92a4 cfbc 9996 733c
00000050: b3ee 213d 0737 293d 7187 c93b ebf8 07bd
00000060: 39e8 2dbd 5d0a 8dbd 1683 923d a495 68bd
00000070: 17d5 99ba 6505 1cbd 3d6a 6a3d 8976 c93d
00000080: 5edd 073d fbe0 973d 7376 75bd a8b4 a73c
00000090: 8c22 80bd 53e3 b8bd d58a 083d f33a bdbc
000000a0: 5851 41bd df75 77bd ee2f 1ebc cd5e 813d
000000b0: 26ff 5f3c 6650 c3bd d442 0b3d 5c39 50bd
000000c0: cea6 673d 98bd cbbd 3316 5fbd ac24 0fbd
000000d0: 6e84 40bd 007b 823d afcb 27bd 0f5c a63b
000000e0: bfac 1e3c bd65 bc3d c246 4d3d 2c40 423d
000000f0: 8557 bdbd c015 47bd 4f88 d2bd 048d b5bd
00000100: 967f bebc a669 dc3d 363b 69bd 5bb2 d9bd
00000110: 918f 85bd 42b2 cb3d c349 87bd 5de5 aebd
00000120: 597b 493d 6022 5f3d 7ba1 9a3c 8d3a efbb
00000130: 2b57 3f3d ffcb 143c 1be0 41bd 3a92 49bc
00000140: 1139 86bd a4dd 0f3b 2c66 74bd bd75 d93d
00000150: 7845 61bd 8466 86bd 11f9 b83c f335 703d
00000160: 5fd8 713d e6de 97bd 63a0 c5bd 8ea0 f2b9
00000170: 8edb 813c e25b b33d 44d9 d93b c658 6b3d
00000180: d64f f33c e9bd 113d eb34 68bd fdfc 833b
00000190: 6a1c 9dbd 8050 833c baa6 ec3b debb 2abd
000001a0: 797c 08bd 829e 6aba 61cf 33bc d16c 423d
000001b0: 5f38 b8bd 0d60 7738 867e 813d 78b7 20bd
000001c0: 8662 e2bd b951 6ebb c83a 893d 5af5 593d
000001d0: 38d0 383c 9d2d 90bc 611a 8dbc c02b e13d
000001e0: 19ee 85bd 2d9f 5abd 4273 b73d 567f a4bd
000001f0: 0783 113d 18b6 23bb d928 1bbd 41a4 72bd
00000200: d291 3e3d da39 653d c052 c23d 239b fd3c
00000210: fc6d 023d e32f 08bd 2a1b 553b c4c4 673c
00000220: f895 7e3d 9dd9 ccbd d0ea 203d 5f49 2cbc
00000230: 7669 403d 131d 0e3c 044d d33c fcbe 8bbd
00000240: 6ade 86bd ab84 9dbb e35b 4f3d 498b d93d
00000250: 02d7 18bc 2035 53bd 6d81 80bd 9672 3bbd
00000260: 7c21 09bc 1c7c 993d dae8 2ebd 8856 133d
00000270: 3484 84bd 04e7 cd3c 2c9e 81bc 68dd 2dbd
00000280: 3666 4f3d cd0c 62bd add7 593d 80f9 b7bd
00000290: 8ad6 4c3d 5a67 123c 1c40 473d a733 503d
000002a0: ed8b efbc a516 2d3d 1bae 863d 3072 ba3c
000002b0: dc13 2e3c fb0b 85bd ec60 0dbd 03f6 2c3d
000002c0: 1fc3 36bc 276a b4bd a01b 87bd 0432 95bd
000002d0: db7b ad3c 21ba edbc fc3f cd3d d7b9 5f3d
000002e0: dedf 883d 30d5 0c3d 616c c33d 11ea c13d
000002f0: e821 863c 7604 433d 10e4 2bbd b883 e83c
00000300: 3859 923d c78f 963d 97af a23c ec1f 82bc
00000310: cf2a 123d a409 7e3c 03f0 e43c c6f8 c8bc
00000320: f62d 313d c6f8 463c 0509 f1bc fac6 abbd
00000330: e292 bc3d c45f 99bd 419d 1bbc 13d8 a23d
00000340: b280 ccbc cc84 bd3d ff2d fdbc 87e6 b0bd
00000350: 82b5 7bbc d775 833d 1453 9abc ebd8 bc3c
00000360: b43c 58bd e104 9bbc ab18 093d 7591 40bc
00000370: 2ab8 fcbb 2a9d 1ebd 15a9 5bbd bb2a 53bc
00000380: 8b04 003d b959 1e3c 7c22 4dbd ebdd 9abd
00000390: 38e4 bdbd 285f c73c b624 d23d caaf dcbb
000003a0: 56cc 923d c07a abbc 8bd3 22bd 5bc0 2ebc
000003b0: 0d85 0f3d 5352 b8bd b9a8 c63d 0943 fa3c
000003c0: 68f4 f83c 7347 97bd 37b0 13bd 1bf7 3b3d
000003d0: 6976 8e3c 5911 a5bd 9f74 9ebb 1817 1f3d
000003e0: 6048 9e3d c625 303d f92b 28bc 91f2 0cbd
000003f0: 8720 7bbd de98 28bd 11fb 5ebd 26e8 1ebd

gru.weight_hh_l0 f4 [384, 128]
0.035782345 0.038619887 -0.0018898742 -0.052926045 0.005859414 0.055394713 -0.01828032 0.07602755
0.028849866 0.04576124 -0.057189967 0.06778301 0.0669656 0.05347199 0.0612938 0.023846934
0.016568655 0.068404466 -0.045142412 0.03303297 0.040878437 -0.035024084 0.009050433 0.028266838
-0.035273746 0.050369512 0.05251041 -0.08263693 -0.034361977 -0.044017885 0.06865833 0.024617707
-0.023544788 -0.05666286 -0.003655899 -0.024986984 0.05834508 -0.0682105 0.01771389 -0.08876972
0.047567468 0.08448847 -0.03792007 0.0447052 -0.030455755 0.005551814 0.04372369 0.032139134
-0.07255215 0.06130833 -0.07245309 0.044049557 -0.07153865 0.047288172 -0.024844613 -0.021993114
0.0090947 -0.033104423 0.0687131 -0.06331063 0.049656454 -0.043717984 -0.0134913055 0.07704856
-0.007726012 0.042119067 -0.037961714 0.020975264 0.06508478 -0.07435027 0.02727962 0.050517987
-0.04918208 -0.00083235424 -0.027464075 0.075789675 0.06676556 0.061299026 -0.023659019 -0.008688704
-0.0022509776 -0.038417622 0.09872707 0.030477235 0.042789243 0.009215889 -0.027500905 0.08723061
-0.03030542 0.05198924 -0.048362073 0.068811886 0.01584642 0.03822001 0.0065318015 0.084552266
-0.07511342 -0.047398552 -0.048008334 0.011307422 0.06616306 -0.0657636 0.0617264 -0.024751717
0.030942189 -0.014650157 0.059298996 0.002087474 0.06940764 -0.0065604597 -0.10599052 -0.050853375
0.02803784 -0.03150436 -0.034562565 -0.010282811 -0.028857544 0.006566429 0.066215165 0.05377371
0.08049419 -0.047383327 0.07103871 0.062995076 -0.043180726 -0.116028935 -0.023331648 0.05672927
-0.0107057635 -0.06680364 -0.0544064 -0.024463033 0.070145875 -0.016551014 0.0116557805 -0.025744198
-0.05365653 0.025616515 0.051690035 0.010750264 0.038453735 0.015451161 -0.020832289 0.05178119
-0.026980117 -0.04240419 0.029186673 0.0763878 -0.08948785 -0.024780065 -0.013491878 0.058449525
-0.013265702 -0.037872873 0.06835711 -0.06669327 0.066325456 0.04591379 -0.04340135 0.067302905
-0.0453562 0.018421946 0.06381903 -0.0010344889 0.014100774 0.003538425 -0.060322963 0.023911206
0.06643188 0.0025301264 -0.023734694 0.024268316 0.061244536 -0.04420263 -0.017856088 -0.016787792
0.067025796 -0.0786291 -0.009596947 -0.014463832 0.0255845 0.046652183 -0.0070228195 0.0521265
-0.0407788 0.07926527 0.0097974995 -0.04869633 -0.02604732 -0.03765039 0.009134726 0.057440385
-0.07543891 -0.06792216 -0.06529584 -0.0066628973 -0.057585925 0.029647978 -0.07535906 -0.049156804
0.043520767 0.050054703 -0.080988735 0.020391313 0.02106716 0.06330355 0.10759897 0.08218586
-0.055924248 -0.08498843 -0.008366786 0.0017690272 0.021850958 -0.029297946 -0.038982842 0.023810148
-0.05412783 0.030285586 -0.07621309 -0.032264307 -0.05086537 0.040253136 0.029306047 0.10082851
-0.07170405 -0.023440115 0.002459048 0.03742209 -0.0552261 0.013410885 0.026159987 -0.028560152
-0.03884973 0.056332063 -0.04852482 -0.030904906 0.04479062 0.025468834 -0.091337144 0.0536938
0.07950559 0.077343844 0.033809606 0.022561787 0.031745512 -0.03532208 -0.0103844805 0.02151694
0.021549053 0.0075761033 -0.045688484 -0.039892584 -0.039068766 0.044155274 0.06406796 0.021808414
00000000: 8290 123d e32f 1e3d a8b5 f7ba fbc8 58bd
00000010: 5400 c03b 91e5 623d 9cc0 95bc 55b4 9b3d
00000020: 8e56 ec3c 2370 3b3d 0740 6abd d2d1 8a3d
00000030: 4325 893d 7205 5b3d 350f 7b3d a55a c33c
00000040: fdba 873c a417 8c3d 40e7 38bd 944d 073d
00000050: 2670 273d 6a75 0fbd 4448 143c db8f e73c
00000060: 347b 10bd 4350 4e3d 2815 573d 8d3d a9bd
00000070: 25bf 0cbd 194c 34bd bd9c 8c3d 13ab c93c
00000080: 00e1 c0bc 5117 68bd cf97 6fbb 81b1 ccbc
00000090: 40fb 6e3d f2b1 8bbd b81c 913c e6cc b5bd
000000a0: 1bd6 423d 4a08 ad3d 1352 1bbd cd1c 373d
000000b0: 597e f9bc feeb b53b 9d17 333d 53a4 033d
000000c0: 3996 94bd 721e 7b3d 4962 94bd 4f6d 343d
000000d0: db82 92bd 3eb1 413d ee86 cbbc e72a b4bc
000000e0: f001 153c 8198 07bd 74b9 8c3d 01a9 81bd
000000f0: 9164 4b3d a111 33bd a30a 5dbc a3cb 9d3d
00000100: 7c2a fdbb 0b85 2c3d be7d 1bbd 51d4 ab3c
00000110: 2b4b 853d f444 98bd 8279 df3c f3eb 4e3d
00000120: 2673 49bd 5932 5aba 57fc e0bc 9e37 9b3d
00000130: 62bc 883d b014 7b3d 8fd0 c1bc 115b 0ebc
00000140: 2385 13bb cc5b 1dbd 6b31 ca3d 65ab f93c
00000150: c643 2f3d 3dfe 163c 9449 e1bc f6a5 b23d
00000160: 1243 f8bc abf2 543d 4f17 46bd 3fed 8c3d
00000170: 5ad0 813c 968c 1c3d b908 d63b bd29 ad3d
00000180: 11d5 99bd fc24 42bd 63a4 44bd c442 393c
00000190: 8080 873d 11af 86bd d2d4 7c3d 1dc4 cabc
000001a0: 797a fd3c 3607 70bc 81e3 723d 01ce 083b
000001b0: 9825 8e3d 20f9 d6bb 8f11 d9bd a14b 50bd
000001c0: 9daf e53c b70a 01bd 7a91 0dbd 3c79 28bc
000001d0: a866 ecbc 332b d73b d19b 873d d241 5c3d
000001e0: 23da a43d 0515 42bd be7c 913d 9003 813d
000001f0: 46de 30bd 94a0 edbd 0322 bfbc f35c 683d
00000200: 3a67 2fbc 59d0 88bd 3fd9 5ebd b366 c8bc
00000210: a4a8 8f3d fe95 87bc e3f7 3e3c 7fe5 d2bc
00000220: f3c6 5bbd bad9 d13c eeb8 533d e021 303c
00000230: aa81 1d3d de26 7d3c 7aa8 aabc 8318 543d
00000240: 6805 ddbc 04b0 2dbd e418 ef3c 3571 9c3d
00000250: 6845 b7bd 90ff cabc 0a0d 5dbc c568 6f3d
00000260: 6358 59bc 9620 1bbd d0fe 8b3d 7b96 88bd
00000270: a4d5 873d 1910 3c3d 9dc5 31bd 1bd6 893d
00000280: 6cc7 39bd 9fe9 963c 8db3 823d b097 87ba
00000290: ef06 673c ece4 673b 3615 77bd 6fe1 c33c
000002a0: 700d 883d 7ad0 253b 436f c2bc 59ce c63c
000002b0: 8ddb 7a3d d10d 35bd ee46 92bc 8d86 89bc
000002c0: d244 893d 4b08 a1bd 833c 1dbc b5f9 6cbc
000002d0: 9696 d13c 5c16 3f3d ae1f e6bb 9982 553d
000002e0: ac07 27bd d455 a23d b185 203c ce75 47bd
000002f0: 3061 d5bc 4c37 1abd d1a9 153c 9c46 6b3d
00000300: b77f 9abd c61a 8bbd d3b9 85bd 6f54 dabb
00000310: 38df 6bbd 51e0 f23c da55 9abd a558 49bd
00000320: d542 323d 2906 4d3d 6cdd a5bd af0b a73c
00000330: 0995 ac3c 4ba5 813d d95c dc3d 0f51 a83d
00000340: d310 65bd 6a0e aebd d814 09bc b4de e73a
00000350: c800 b33c 3f02 f0bc 79ac 1fbd 800d c33c
00000360: 25b5 5dbd 7a19 f83c 9c15 9cbd 9427 04bd
00000370: 3558 50bd 79e0 243d 3c13 f03c 2e7f ce3d
00000380: 93d9 92bd 7c05 c0bc fb27 213b e847 193d
00000390: c334 62bd 54b9 5b3c 784d d63c fbf6 e9bc
000003a0: e520 1fbd 73bc 663d f6c1 46bd 492c fdbc
000003b0: 5f76 373d 04a4 d03c f80e bbbd 08ee 5b3d
000003c0: d4d3 a23d 7366 9e3d f17b 0a3d 7fd3 b83c
000003d0: 9507 023d e3ad 10bd ab23 2abc 4b44 b03c
000003e0: a487 b03c f640 f83b d923 3bbd 6866 23bd
000003f0: 9206 20bd 29dc 343d 1036 833d 8fa7 b23c

gru.bias_ih_l0 f4 [384]
0.01671646 -0.03400366 -0.094710626 0.077260174 0.055868644 0.03617279 0.056006096 -0.036393065
0.03986508 0.03687146 0.044036783 0.09224184 -0.08483714 -0.08494328 0.08779494 -0.03979052
-0.032548565 0.00165163 0.07693023 0.032074694 -0.017268287 0.030957425 0.058012526 0.025124209
-0.011513849 -0.08381724 0.044943348 -0.075156294 0.036872596 0.028140243 -0.06863073 -0.0504002
0.059045527 -0.021130456 0.09107291 0.043220233 -0.024009492 0.0626401 -0.0698252 -0.057263695
0.0011641574 -0.05348334 -0.031551197 -0.07805305 -0.073537834 -0.042933468 -0.10407179 -0.09029989
-0.06384013 -0.045565374 0.012667279 -0.023430916 -0.016928058 -0.06783005 -0.054256298 0.018742662
0.08071701 -0.021745501 -0.076096624 0.051014647 0.008413274 -0.058406822 -0.08354786 0.077721626
0.072218984 -0.057511568 -0.031411666 -0.06481931 0.079618484 -0.091674626 -0.073292255 0.07733788
-0.07393168 0.017839992 0.0030647628 0.052127734 0.028112393 0.007909998 -0.07049906 -0.05318611
-0.0693119 -0.07684521 0.09386507 -0.05447126 -0.014852526 -0.023873389 0.04785525 0.005142561
0.06292413 -0.07642218 0.029824896 0.058866885 0.056202453 -0.03299511 -0.038246606 -0.05102549
0.03427341 -0.093196385 -0.021383548 0.085210934 0.0059112036 0.058843162 0.0024191136 0.027903613
-0.08464748 -0.06896824 0.06584476 -0.04210149 -0.08872694 -0.065810956 -0.048413925 0.01155367
0.023126677 -0.042192522 0.03885229 0.03496653 -0.09384917 0.041799173 0.04094867 0.031489752
0.076157376 -0.052021183 0.05887269 -0.06078075 -0.011456467 0.019305892 0.070403524 -0.09049588
-0.0029207626 0.050890904 -0.011853843 0.011533327 0.008429375 -0.00083072396 0.023699988 -0.07010379
-0.052777942 0.046678625 -0.014723144 0.021281019 0.01903052 0.027435143 -0.04385434 -0.057860855
-0.038092643 0.025239306 -0.042821355 -0.0751794 -0.06782925 -0.0075330716 -0.008693065 0.018932484
-0.052541547 -0.07532763 -0.08978625 0.067880526 0.01272159 0.06532386 -0.05841372 0.0647537
-0.032730322 0.08086853 0.015282452 -0.058870845 0.089768425 -0.05170109 0.090511575 0.03242772
-0.07391765 -0.051555656 -0.009571726 0.07173256 -0.12561814 0.072824344 0.07939836 0.09583878
0.039806437 -0.06946655 0.0765195 0.069750376 -0.044758186 -0.06617727 -0.06994913 -0.05379999
-0.028903497 -0.029562142 -0.02045239 0.030847222 0.071817674 -0.05495523 0.037802953 0.0367477
-0.07852021 -0.031158408 -0.016689472 0.060059518 0.0014963011 -0.009270423 0.06441476 0.029304858
-0.036601175 0.025762355 0.05151186 0.011854338 0.09003897 -0.041567206 -0.037022043 -0.032217976
-0.07071123 0.043062575 -0.001163635 0.05837511 -0.07593381 0.07717973 -0.041392792 -0.03778447
-0.019892763 -0.060086127 -0.029339295 0.06323961 0.0017984471 -0.029226553 -0.023554895 0.06494086
-0.07683414 0.047704104 0.008441925 -0.08253094 -0.07461673 0.066648796 -0.0037028578 0.05471348
-0.037681255 0.019503843 0.052617297 -0.031403136 0.020366931 0.034319464 0.0049243122 -0.035854466
0.08702517 -0.04742326 0.09285596 0.025184963 -0.033827227 0.013837726 0.0020204068 0.027357684
0.03930212 -0.032850146 0.07781076 -0.004428425 0.0818977 0.0294478 -0.05722682 0.08420798
00000000: f5f0 883c 6c47 0bbd a5f7 c1bd 953a 9e3d
00000010: 85d6 643d eb29 143d a666 653d e510 15bd
00000020: 9149 233d 8706 173d ea5f 343d 4ae9 bc3d
00000030: 18bf adbd bef6 adbd d5cd b33d 62fb 22bd
00000040: a551 05bd 827b d83a 998d 9d3d c160 033d
00000050: 3976 8dbc 6d9a fd3c 8b9e 6d3d 49d1 cd3c
00000060: 95a4 3cbc 60a8 abbd 8416 383d 8beb 99bd
00000070: b807 173d 5e86 e63c 458e 8cbd 7170 4ebd
00000080: b9d9 713d c719 adbc 6f84 ba3d b307 313d
00000090: 8eaf c4bc 7449 803d 8400 8fbd 568d 6abd
000000a0: a496 983a 5911 5bbd d43b 01bd 47da 9fbd
000000b0: 019b 96bd 01db 2fbd 9723 d5bd 26ef b8bd
000000c0: 9dbe 82bd c2a2 3abd 6b8a 4f3c 31f2 bfbc
000000d0: b6ac 8abc 7bea 8abd da3b 5ebd 368a 993c
000000e0: f64e a53d 9f23 b2bc 8cd8 9bbd bcf4 503d
000000f0: d4d7 093c fe3b 6fbd 241b abbd 842c 9f3d
00000100: 8ce7 933d 4091 6bbd 85a9 00bd fdbf 84bd
00000110: 040f a33d e8bf bbbd 401a 96bd 5363 9e3d
00000120: 7e69 97bd 2d25 923c 30da 483b e483 553d
00000130: f64b e63c f098 013c d061 90bd aed9 59bd
00000140: 66f3 8dbd 0561 9dbd 543c c03d 421d 5fbd
00000150: 0258 73bc 2092 c3bc de03 443d ee82 a83b
00000160: 5ede 803d 3b83 9cbd 5753 f43c 671e 713d
00000170: 8b34 663d e125 07bd 79a8 1cbd 1b00 51bd
00000180: 4662 0c3d bfdd bebd 8d2c afbc 1283 ae3d
00000190: c5b2 c13b 8705 713d fe89 1e3b 1e96 e43c
000001a0: a85b adbd 383f 8dbd 9ed9 863d 9d72 2cbd
000001b0: 78b6 b5bd e5c7 86bd ae4d 46bd 9b4b 3d3c
000001c0: 2874 bd3c 11d2 2cbd 9423 1f3d 1039 0f3d
000001d0: fe33 c0bd 9c35 2b3d cbb9 273d 66fb 003d
000001e0: 66f8 9b3d 2a14 55bd 7d24 713d 3cf5 78bd
000001f0: e8b3 3bbc 6427 9e3c b92f 903d e755 b9bd
00000200: 446a 3fbb fb72 503d 9f36 42bc 48f6 3c3c
00000210: 5c1b 0a3c f1c4 59ba 7a26 c23c 9392 8fbd
00000220: af2d 58bd 1632 3f3d 5739 71bc 8855 ae3c
00000230: e5e5 9b3c aabf e03c 9ca0 33bd 81ff 6cbd
00000240: 0807 1cbd a9c2 ce3c 7265 2fbd a8f7 99bd
00000250: 10ea 8abd fcd7 f6bb 5b6d 0ebc 4c18 9b3c
00000260: ce35 57bd 5f45 9abd dae1 b7bd f204 8b3d
00000270: 376e 503c 84c8 853d 3a43 6fbd 969d 843d
00000280: 3b10 06bd 669e a53d 4063 7a3c 8e22 71bd
00000290: 82d8 b73d 86c4 53bd 225e b93d eed2 043d
000002a0: 2362 97bd 062c 53bd bbd2 1cbc 85e8 923d
000002b0: 0ba2 00be ee24 953d 9b9b a23d 1f47 c43d
000002c0: 130c 233d 7b44 8ebd 41b6 9c3d 49d9 8e3d
000002d0: 5c54 37bd f387 87bd 7d41 8fbd 615d 5cbd
000002e0: 07c7 ecbc 4e2c f2bc c58b a7bc 50b3 fc3c
000002f0: 2515 933d bc18 61bd 45d7 1a3d c284 163d
00000300: 34cf a0bd eb3f ffbc 5cb8 88bc f800 763d
00000310: 891f c43a f9e2 17bc e3eb 833d be10 f03c
00000320: 1deb 15bd 930b d33c 1afe 523d b338 423c
00000330: 5a66 b83d 6042 2abd 6da4 17bd fff6 03bd
00000340: 0dd1 90bd 6262 303d 1d85 98ba bd1a 6f3d
00000350: 2f83 9bbd 6810 9e3d 7d8b 29bd e3c3 1abd
00000360: 26f6 a2bc df1c 76bd f658 f0bc c583 813d
00000370: dfb9 eb3a 866c efbc 32f6 c0bc b7ff 843d
00000380: 385b 9dbd 6165 433d 0050 0a3c fb05 a9bd
00000390: a8d0 98bd 2a7f 883d a5ab 72bb 3e1b 603d
000003a0: a957 1abd 86c6 9f3c 3c85 573d 93a0 00bd
000003b0: 8dd8 a63c 9192 0c3d 205c a13b 22dc 12bd
000003c0: 413a b23d e43e 42bd 442b be3d b250 ce3c
000003d0: 6b8e 0abd a1b7 623c cd68 043b 391d e03c
000003e0: 43fb 203d e08d 06bd 3f5b 9f3d 521c 91bb
000003f0: fbb9 a73d 833c f13c ac66 6abd 3c75 ac3d

gru.bias_hh_l0 f4 [384]
-0.00022245289 -0.04489854 0.048248444 0.0161758 -0.036030766 -0.04087693 -0.011225429 0.079742484
0.015917199 -0.07013201 0.019916568 -0.025655841 0.078725636 -0.07893031 -0.077717304 -0.007014168
0.0728869 0.007887587 -0.0042622588 0.054578137 -0.089389995 0.020668933 -0.07806 0.06017092
0.0104945125 -0.06215253 0.075784296 0.034012835 -0.06459812 0.06290356 0.089569494 0.023171881
0.061930683 -0.061898697 0.026127579 0.023043022 0.042141374 -0.073870085 0.07107629 -0.065974176
0.014346495 -0.050008263 0.022483073 -0.07327954 -0.052545093 -0.02495841 0.0070289867 0.047774646
0.02408594 0.025372274 -0.057417396 0.010430496 0.043625865 0.0013106012 -0.004676721 -0.061308384
-0.04374889 -0.03133513 -0.009408786 -0.010048932 0.0075467248 0.03367616 -0.04560048 0.0048576375
-0.07758917 0.06725278 -0.027861482 -0.0027175418 -0.077179596 0.06955901 -0.02952426 0.015422023
0.08202692 0.06542782 -0.06970168 -0.11013908 0.031280756 -0.026875915 0.04491693 -0.045347065
-0.072411254 -0.03770875 -0.046162482 0.04164503 -0.034980506 0.0100357635 -0.062033042 -0.09040464
-0.07442169 -0.020446721 -0.043953307 0.034791626 0.07547719 -0.0002396659 -0.01727808 -0.06713872
0.028298112 0.0191081 0.02374815 0.0091570215 -0.039077777 -0.06030162 0.012029775 -0.000267788
0.034699775 0.04306888 0.06454103 -0.040542386 -0.044622358 -9.364399e-05 -0.021115469 -0.053488746
0.04022328 0.043413308 -0.051423036 0.0729045 -0.070220366 0.09290498 -0.033535775 0.053198807
-0.028279005 0.06720624 -0.056745514 -0.05707408 -0.04301948 0.053540573 0.035757292 0.033872664
-0.079138726 0.08382659 0.04982109 0.017944597 -0.08127183 0.061204314 0.0433613 -0.030822733
-0.030019587 -0.043038096 -0.05110241 0.0510292 -0.052440185 -0.07919131 0.05757858 0.048145838
-0.046444852 0.06962778 0.062520154 0.024934014 -0.0802316 0.024778211 0.0068802903 -0.0068072444
-0.0053656586 -0.011484516 -0.037632924 0.045871213 0.0301928 -0.017762817 -0.037115593 -0.05153472
0.024630105 0.06664104 -0.022860281 0.0026223597 -0.0031380064 0.024781726 -0.009778072 0.06846954
-0.010143378 0.057206653 0.0015843428 0.057738356 0.014302425 -0.027062178 0.004713065 -0.002712212
0.010941401 0.013487709 -0.005843684 -0.035313863 -0.059119318 0.00015640332 0.0663239 -0.009293224
-0.029456483 -0.063122876 -0.037855502 -0.008812455 0.06493549 0.06944008 0.059729006 0.0038805527
0.054029293 -0.031717498 -0.028133327 0.035027098 -0.0060353274 0.061185114 -0.09464512 -0.02312764
-0.023644056 0.04494031 0.008836041 -0.07772914 0.081850156 -0.013002714 0.053331964 -0.046819925
-0.040701143 -0.02603333 -0.098683275 0.015282728 0.04664714 -0.034669116 0.037707657 0.08876536
0.039657813 -0.016906573 0.026372992 0.063951224 -0.069441564 0.015012691 0.10476933 0.019759139
0.053062793 -0.017706925 0.0016470136 -0.031040639 -0.077671826 0.036292568 0.013101738 -0.004256809
0.049831107 -0.008873527 -0.055443347 -0.057645917 -0.04566239 -0.0026543601 -0.023905922 0.03604837
0.06246832 0.03954021 0.022466298 0.046188936 0.031525582 0.05858301 -0.017710747 0.011781954
0.046796434 -0.06459686 -0.05613935 -0.077934325 -0.047721915 -0.030469567 0.100845635 -0.07473871
00000000: 3e42 69b9 88e7 37bd 29a0 453d 1c83 843c
00000010: ff94 13bd 916e 27bd ddea 37bc 0750 a33d
00000020: c964 823c 5fa1 8fbd 1228 a33c 332c d2bc
00000030: e83a a13d 37a6 a1bd 402a 9fbd 1bd7 e5bb
00000040: ba45 953d f03a 013c 6baa 8bbb 538d 5f3d
00000050: 1a12 b7bd e551 a93c ecdd 9fbd c875 763d
00000060: 2df1 2b3c a793 7ebd cc34 9b3d 0b51 0b3d
00000070: 054c 84bd 95d3 803d 3670 b73d f5d2 bd3c
00000080: 07ab 7d3d 7d89 7dbd 8109 d63c b8c4 bc3c
00000090: 6f9c 2c3d 3349 97bd 7290 913d 781d 87bd
000000a0: 900d 6b3c 77d5 4cbd 6c2e b83c 9513 96bd
000000b0: 8639 57bd 9475 ccbc 6a53 e63b 59af 433d
000000c0: e14f c53c 84d9 cf3c 812e 6bbd ace4 2a3c
000000d0: 09b1 323d 7bc8 ab3a 2e3f 99bb 801e 7bbd
000000e0: 0932 33bd 4459 00bd 4f27 1abc 47a4 24bc
000000f0: 844a f73b 03f0 093d 92c7 3abd d12c 9f3b
00000100: 12e7 9ebd d3bb 893d c33d e4bc c918 32bb
00000110: 5610 9ebd f474 8e3d dcdc f1bc a7ac 7c3c
00000120: bbfd a73d 05ff 853d c1bf 8ebd 9990 e1bd
00000130: 4020 003d e12a dcbc d1fa 373d d8bd 39bd
00000140: 5a4c 94bd 7e74 1abd df14 3dbd fb93 2a3d
00000150: b847 0fbd 0b6d 243c 5c16 7ebd 1126 b9bd
00000160: 666a 98bd e27f a7bc 6208 34bd aa81 0e3d
00000170: c993 9a3d d34e 7bb9 c38a 8dbc 0680 89bd
00000180: 71d1 e73c 9788 9c3c 7b8b c23c 5507 163c
00000190: 0510 20bd d5fe 76bd 8918 453c e665 8cb9
000001a0: 5a21 0e3d fe68 303d 162e 843d c60f 26bd
000001b0: efc5 36bd bc62 c4b8 59fa acbc 0417 5bbd
000001c0: 2bc1 243d 27d2 313d f6a0 52bd f44e 953d
000001d0: b2cf 8fbd f744 be3d cf5c 09bd fee6 593d
000001e0: 5fa9 e7bc 6da3 893d fc6d 68bd 83c6 69bd
000001f0: 3235 30bd 5c4d 5b3d 3d76 123d 10be 0a3d
00000200: 7c13 a2bd 46ad ab3d 3311 4c3d 8c00 933c
00000210: d871 a6bd 60b1 7a3d 9e9b 313d f57f fcbc
00000220: a3eb f5bc b748 30bd c350 51bd ff03 513d
00000230: 85cb 56bd 0e2f a2bd 84d7 6b3d 9234 453d
00000240: f53c 3ebd 0299 8e3d 910a 803d 6b42 cc3c
00000250: 7750 a4bd adfb ca3c 0f74 e13b 4e0f dfbb
00000260: 68d2 afbb 8d29 3cbc fb24 1abd 74e3 3b3d
00000270: e456 f73c 5483 91bc 8506 18bd 1216 53bd
00000280: 13c5 c93c 197b 883d 7c45 bbbc e5db 2b3b
00000290: 03a7 4dbb 0c03 cb3c 3534 20bc c239 8c3d
000002a0: 6930 26bc 8651 6a3d b9a9 cf3a 0e7f 6c3d
000002b0: b854 6a3c 80b1 ddbc 0e70 9a3b 5ebf 31bb
000002c0: 9043 333c 8dfb 5c3c 607c bfbb 45a5 10bd
000002d0: 1927 72bd 3200 2439 d3d4 873d 9b42 18bc
000002e0: b94e f1bc 9146 81bd 5f0e 1bbd 1e62 10bc
000002f0: e6fc 843d 9a36 8e3d 67a6 743d df50 7e3b
00000300: d24d 5d3d 35ea 01bd dd77 e6bc 9378 0f3d
00000310: ffc3 c5bb 3e9d 7a3d 4dd5 c1bd 2d76 bdbc
00000320: 2eb1 c1bc 5513 383d 0bc5 103c 7530 9fbd
00000330: 0ea1 a73d 5609 55bc 9e72 5a3d 40c6 3fbd
00000340: 3eb6 26bd da43 d5bc 751a cabd 6864 7a3c
00000350: 1211 3f3d 3401 0ebd 5873 1a3d 9dca b53d
00000360: 3b70 223d a77f 8abc 2c0c d83c dcf8 823d
00000370: 6137 8ebd caf7 753c 4d91 d63d ebdd a13c
00000380: 5f58 593d 1d0e 91bc 9be0 d73a f048 febc
00000390: 6812 9fbd 84a7 143d aca8 563c b47c 8bbb
000003a0: b41b 4c3d 4562 11bc 9018 63bd 201e 6cbd
000003b0: 7c08 3bbd c6f4 2dbb 5ad6 c3bc 75a7 133d
000003c0: c8de 7f3d eaf4 213d 3e0b b83c 9c30 3d3d
000003d0: f820 013d bdf4 6f3d 2116 91bc 1909 413c
000003e0: 9ead 3f3d 5c4b 84bd 60f2 65bd 089c 9fbd
000003f0: 0e78 43bd 509b f9bc 2888 ce3d 9c10 99bd

gru.weight_ih_l0_reverse f4 [384, 100]
-0.03700068 0.024196502 -0.032919306 0.08735109 0.0736311 0.066238776 -0.072181374 -0.050784748
0.08579358 -0.06257692 0.0013976533 0.068341725 -0.048987765 0.009898895 0.010088724 -0.06990791
-0.06846174 -0.07315771 -0.083927594 -0.04062233 0.032043375 -0.030809231 -0.016141107 0.023951558
0.08121588 -0.06425542 -0.021520477 0.06261932 0.019257803 0.023221206 0.017173143 0.07649646
0.053140856 0.0074710483 -0.07278138 -0.007437653 -0.05767184 -0.07013759 0.023724757 0.041044667
-0.06814474 -0.014646085 0.0029823952 0.08005838 -0.039710417 0.067982964 0.019521384 -0.0064763357
-0.07775395 0.008591278 0.062492557 -0.018827664 0.054783076 -0.053808168 0.06795448 -0.07846103
-0.08040119 -0.013561376 -0.041565623 -0.01598342 0.0132870665 -0.0027146733 0.07417374 0.07297191
0.08022612 0.07519514 -0.052453794 0.03129079 -0.051737927 -0.014114505 0.06922856 0.02650005
-0.0030388802 -0.06555824 0.0678541 0.032927755 -0.0050814464 0.045146756 0.087251 -0.06886643
-0.048212267 0.056579333 0.058324926 0.086281925 0.037038956 -0.0012901502 0.042882327 0.08758518
0.06540995 -0.07429123 -0.06888973 -0.06643806 -0.019470112 -0.07158408 0.07431166 -0.02467637
0.0151651725 0.031090742 -0.01584805 -0.058860395 -0.06021534 -0.012458094 -0.04228868 -0.03874164
0.025361976 -0.01764953 -0.04884893 0.007610003 -0.05282389 0.01771423 0.078807384 -0.0032717236
-0.031241542 -0.026060726 0.020071164 0.0875585 -0.022821106 0.04511173 -0.05405953 0.067675985
-0.06745631 0.003991134 -0.047955316 -0.11781266 -0.056582425 0.033169255 0.057012957 0.035122495
-0.03446387 -0.020859724 -0.01764689 -0.0724554 -0.010049685 0.07585922 -0.055128578 0.09125283
-0.11062307 -0.06953606 0.0705445 0.018793957 -0.0029405707 -0.00042663974 -0.0066852225 0.03341094
-0.05820403 -0.1123981 0.027113682 -0.036274683 0.09410787 -0.097074114 0.04276599 0.10392053
0.021390554 -0.02202361 0.019220255 -0.048845265 0.07691818 -0.02131792 0.10183798 0.03986868
0.006770292 0.079627216 0.037070487 -0.053354062 -0.04341899 -0.0071258405 -0.07045887 0.010202154
0.079323895 -0.0061278413 -0.10231822 -0.052139655 -0.006135169 -0.08811741 0.06557937 -0.021374522
-0.081158444 -0.1128703 -0.08510364 0.012799912 0.013032456 -0.054598443 -0.013530219 0.044277776
0.09727088 -0.08900722 0.0556501 0.049830437 0.1213865 0.00595922 -0.093927816 -0.08540342
0.061233956 -0.003924344 -0.047173627 0.007768177 0.040202644 0.07243977 -0.070154995 -0.05590636
0.0010705654 -0.06874215 -0.04198375 0.03233451 0.0681204 0.01661771 0.03763072 0.026037585
0.03691239 -0.08634578 0.047139466 0.06870577 0.08004812 0.08031979 -0.06177219 -0.077492535
0.041168045 0.05375169 -0.000389147 0.08063983 0.060991902 -0.032558504 0.040638022 0.0059200097
-0.068748794 0.03043321 -0.04580681 -0.08526688 -0.059450004 0.0356514 0.05085184 -0.025438808
-0.0608397 0.011336599 0.06432532 -0.06361959 -0.052036177 -0.039554376 -0.058264013 0.046476077
0.027012408 -0.034524564 -0.05169026 -0.034215756 0.08512187 0.019770863 -0.067121185 -0.018969359
-0.044172432 0.0036732045 -0.08260365 0.009638984 0.044907607 0.016425015 0.029786354 0.072452076
00000000: 068e 17bd be37 c63c 65d6 06bd 21e5 b23d
00000010: e7cb 963d 32a8 873d d4d3 93bd ab03 50bd
00000020: 8bb4 af3d 5428 80bd 7631 b73a bff6 8b3d
00000030: 65a7 48bd fa2e 223c 2d4b 253c e12b 8fbd
00000040: ab35 8cbd b6d3 95bd 3be2 abbd 9a63 26bd
00000050: ea3f 033d a463 fcbc 5b3a 84bc 0f36 c43c
00000060: 8354 a63d 5898 83bd b64b b0bc 8f3e 803d
00000070: 8ac2 9d3c 663a be3c b1ae 8c3c 2daa 9c3d
00000080: 3aaa 593d b2cf f43b 670e 95bd 8eb7 f3bb
00000090: 4f39 6cbd 4ca4 8fbd 6c5a c23c 741e 283d
000000a0: 788f 8bbd 22f6 6fbc 4a74 433b a6f5 a33d
000000b0: 64a7 22bd a73a 8b3d 4feb 9f3c 7137 d4bb
000000c0: 773d 9fbd 6fc2 0c3c 32f8 7f3d 793c 9abc
000000d0: 3864 603d f465 5cbd b82b 8b3d 2db0 a0bd
000000e0: 61a9 a4bd 8930 5ebc b740 2abd a9ef 82bc
000000f0: ffb1 593c a9e8 31bb 67e8 973d 4c72 953d
00000100: 984d a43d e9ff 993d cad9 56bd c52a 003d
00000110: 26eb 53bd 8640 67bc b4c7 8d3d a216 d93c
00000120: f327 47bb 6643 86bd 17f7 8a3d 41df 063d
00000130: 4382 a6bb ceeb 383d a7b0 b23d d809 8dbd
00000140: 3a7a 45bd bbbf 673d 1ee6 6e3d 94b4 b03d
00000150: 29b6 173d 421a a9ba 61a5 2f3d dc5f b33d
00000160: a7f5 853d 0026 98bd 0f16 8dbd ad10 88bd
00000170: c97f 9fbc ad9a 92bd b630 983d 1926 cabc
00000180: 5877 783c 03b2 fe3c c5d3 81bc 9917 71bd
00000190: 5ca4 76bd 091d 4cbc e536 2dbd 8eaf 1ebd
000001a0: ebc3 cf3c bf95 90bc d115 48bd 555d f93b
000001b0: dd5d 58bd 6f1d 913c c465 a13d 6a6a 56bb
000001c0: 43ee ffbc 4e7d d5bc 486c a43c df51 b33d
000001d0: 54f3 babc 14c7 383d 876d 5dbd b599 8a3d
000001e0: 8926 8abd 0fc8 823b cb6c 44bd c447 f1bd
000001f0: f9c2 67bd 7cdc 073d 6b86 693d 9bdc 0f3d
00000200: fd29 0dbd 03e2 aabc 3690 90bc 7f63 94bd
00000210: 6fa7 24bc 145c 9b3d 81ce 61bd c4e2 ba3d
00000220: 598e e2bd ec68 8ebd a379 903d c9f5 993c
00000230: 97b6 40bb 9eae dfb9 b60f dbbb e9d9 083d
00000240: 5967 6ebd fa30 e6bd 831d de3c c394 14bd
00000250: a0bb c03d cbce c6bd 642b 2f3d 49d4 d43d
00000260: 3e3b af3c dc6a b4bc cc73 9d3c f911 48bd
00000270: 4787 9d3d eba2 aebc 6e90 d03d 574d 233d
00000280: 53d9 dd3b 9813 a33d 39d7 173d ca89 5abd
00000290: 1cd8 31bd e27f e9bb bd4c 90bd ef26 273c
000002a0: 9174 a23d 0fcc c8bb 378c d1bd 6490 55bd
000002b0: 8709 c9bb e776 b4bd 7a4e 863d 9f19 afbc
000002c0: 6636 a6bd 8b28 e7bd d14a aebd b9b6 513c
000002d0: 1586 553c 9ea2 5fbd daad 5dbc 9d5c 353d
000002e0: f535 c73d 6b49 b6bd 5cf1 633d 001b 4c3d
000002f0: 7c99 f83d 9045 c33b 3a5d c0bd fde7 aebd
00000300: 75d0 7a3d c997 80bb 2239 41bd 318c fe3b
00000310: 87ab 243d 4d5b 943d 6cad 8fbd 11fe 64bd
00000320: 3752 8c3a afc8 8cbd 27f7 2bbd 3171 043d
00000330: b582 8b3d dd21 883c ab22 1a3d c64c d53c
00000340: 7231 173d 0ed6 b0bd 5015 413d 9cb5 8c3d
00000350: 45f0 a33d b47e a43d d604 7dbd 68b4 9ebd
00000360: d39f 283d bb2a 5c3d 6d06 ccb9 7f26 a53d
00000370: a5d2 793d 115c 05bd 0e74 263d a4fc c13b
00000380: 2bcc 8cbd 114f f93c ec9f 3bbd 67a0 aebd
00000390: d981 73bd 3407 123d 054a 503d 0c65 d0bc
000003a0: 0d33 79bd 24bd 393c febc 833d fd4a 82bd
000003b0: e323 55bd c503 22bd 3fa6 6ebd b35d 3e3d
000003c0: 2049 dd3c a169 0dbd 2bb9 53bd d225 0cbd
000003d0: 6054 ae3d 81f6 a13c d576 89bd a165 9bbc
000003e0: 27ee 34bd 25ba 703b 1a2c a9bd d4ec 1d3c
000003f0: 0af1 373d c18d 863c 8302 f43c c161 943d

gru.weight_hh_l0_reverse f4 [384, 128]
-0.031037463 0.053809397 -0.082615614 -0.08827527 0.034103233 -0.0306508 -0.038529955 -0.057831183
0.028053036 -0.07992821 0.049729325 0.05535067 -0.08626923 -0.0192353 -0.09240022 -0.039792616
-0.014384802 -0.056697812 0.04064422 0.0078119524 0.08206865 0.033698227 0.04452835 -0.0082109915
-0.037750408 -0.023089541 -0.03592312 0.08321898 0.065801315 0.095463 -0.07249664 0.008637361
0.09739953 0.03935031 -0.040072154 -0.015578535 0.06119053 0.057622176 -0.030866541 0.04571871
-0.0663465 0.08524676 0.007508528 -0.05062955 0.024611538 0.027064761 -0.05744578 -0.044050258
0.0015521214 -0.019680822 0.048907492 0.07497206 -0.06626631 0.07496466 -0.054911956 -0.061601944
-0.06730774 0.0058713676 -0.058150433 0.10416252 0.04191255 0.0058817556 -0.0044977358 -0.046221014
-0.036724653 -0.07459318 0.0073589548 0.03487753 0.021752352 -0.011220732 -0.07791551 -0.004550061
0.034494027 -0.039095774 -0.049413793 0.013732732 -0.058931153 0.009672349 0.025038583 0.011320631
-0.029089836 -0.02496362 0.05587698 0.024597004 -0.06087143 -0.0013711781 -0.08834736 -0.05860217
0.0275914 0.07903715 0.06846907 -0.01727737 0.02532432 0.010812174 0.04748726 -0.057084925
-0.01774561 0.054953493 -0.015314856 -0.045377526 0.023920186 -0.026448593 -0.06811623 -0.06588905
0.0649222 0.024566144 -0.035083126 0.0175429 -0.08444987 -0.006243417 -0.04828734 0.059794154
0.042968586 0.03258118 -0.053890944 0.031085555 0.06060426 0.07910514 -0.0097456565 0.0030789399
0.07169487 0.08891313 -0.06594371 0.016122697 0.07005901 -0.0737413 -0.052593883 -0.0675756
0.033329632 -0.003988009 0.070319355 -0.01119838 -0.05220286 -0.051538058 0.053695872 0.04694856
-0.07346562 0.043241914 -0.05453067 0.017876511 0.00542431 0.04767035 -0.055934515 -0.12198339
0.0029351285 0.035730585 0.07965669 -0.010646991 0.06023423 0.0063697933 -0.008298457 -0.056031268
-0.032974415 0.11649665 0.064340666 0.0131655205 0.095479235 -0.108931415 -0.052677322 0.071346894
-0.049327694 0.041002978 -0.05262095 -0.053861964 -0.023891082 0.05991558 -0.11402695 -0.014055143
0.015145428 -0.042860374 -0.12280774 0.09401673 -0.11139407 -0.015014527 -0.021180565 -0.07417926
0.02934338 0.023269478 0.059961848 -0.022149093 0.0013487748 -0.031014442 -0.036890354 0.01189517
-0.10765884 -0.008053848 0.09506347 0.024818545 0.08505821 0.11710432 -0.08008881 0.037500806
0.012517489 0.114544906 -0.09392292 0.05452585 0.10470189 0.06015995 -0.09833238 -0.035805166
-0.033741396 0.034822643 0.00019573818 -0.0342958 -0.08529256 -0.0027334876 0.00980743 -0.06487689
0.09795359 0.01850929 -0.123761505 0.021385603 0.061102886 0.06044621 -0.024990266 -0.014468532
0.10575871 0.039119463 0.06448429 0.06483861 -0.02664309 -0.051255826 -0.00032632108 0.08524471
-0.10826556 0.07701999 0.09294984 0.0036136373 0.058032736 -0.066241786 0.051641375 0.08115288
0.049591668 -0.02975908 0.03828316 -0.04014532 0.0009151773 0.015087821 0.03997439 -0.04778689
0.07598735 0.012833657 0.02964726 0.023090808 -0.050923306 0.031799357 -0.05521286 0.05221773
0.018737813 -0.019017821 0.010679207 0.0151066175 -0.028597936 -0.022873491 -0.034601092 -0.055335447
00000000: 4742 febc 3e67 5c3d 6032 a9bd aac9 b4bd
00000010: d5af 0b3d 6317 fbbc 96d1 1dbd 64e0 6cbd
00000020: 7bcf e53c 67b1 a3bd fab0 4b3d 62b7 623d
00000030: ecad b0bd 5993 9dbc 543c bdbd 95fd 22bd
00000040: 3cae 6bbc f73b 68bd 8e7a 263d 68fb ff3b
00000050: 9c13 a83d 2707 0a3d 5c63 363d 6587 06bc
00000060: 2ca0 1abd 4726 bdbc 1f24 13bd b66e aa3d
00000070: d7c2 863d 1b82 c33d 1e79 94bd b883 0d3c
00000080: 6879 c73d ca2d 213d b322 24bd 1d3d 7fbc
00000090: eca2 7a3d 3b05 6c3d d4db fcbc 8b43 3b3d
000000a0: ace0 87bd da95 ae3d 190a f63b ee60 4fbd
000000b0: 239e c93c ebb6 dd3c 444c 6bbd 0b6e 34bd
000000c0: 8d70 cb3a ad39 a1bc 3953 483d f48a 993d
000000d0: a2b6 87bd 1287 993d 5ceb 60bd 5252 7cbd
000000e0: a4d8 89bd 9a64 c03b 262f 6ebd 2953 d53d
000000f0: 7eac 2b3d bebb c03b be61 93bb 3f52 3dbd
00000100: 976c 16bd 4fc4 98bd 6323 f13b bedb 0e3d
00000110: fd31 b23c 29d7 37bc 2b92 9fbd ae18 95bb
00000120: 9c49 0d3d e422 20bd 1e66 4abd 41ff 603c
00000130: cb61 71bd c678 1e3c b71d cd3c 2b7a 393c
00000140: cf4d eebc 8180 ccbc 43df 643d a87f c93c
00000150: 5254 79bd 1ab9 b3ba 76ef b4bd d408 70bd
00000160: 5c07 e23c 3bde a13d 8339 8c3d 4589 8dbc
00000170: f374 cf3c 8b25 313c 0082 423d e2d1 69bd
00000180: 3e5f 91bc ea16 613d 29eb 7abc c9dd 39bd
00000190: 44f4 c33c b8aa d8bc 8680 8bbd d7f0 86bd
000001a0: eef5 843d f03e c93c 53b3 0fbd 21b6 8f3c
000001b0: 0ef4 acbd 9495 ccbb f2c8 45bd b7ea 743d
000001c0: d4ff 2f3d d873 053d c0bc 5cbd 22a7 fe3c
000001d0: 2c3c 783d e001 a23d 3fac 1fbc 0ac8 493b
000001e0: c3d4 923d 1618 b63d 7f0d 87bd bf13 843c
000001f0: 197b 8f3d ae05 97bd af6c 57bd 1465 8abd
00000200: a784 083d d8ad 82bb 9803 903d 6979 37bc
00000210: abd2 55bd 9219 53bd 34f0 5b3d 224d 403d
00000220: 2575 96bd 6f1e 313d 8d5b 5fbd c371 923c
00000230: 69be b13b fc41 433d 971b 65bd 6dd2 f9bd
00000240: 495b 403b 3c5a 123d 0c23 a33d b870 2ebc
00000250: 2bb8 763d b3b9 d03b 40f6 07bc 0b81 65bd
00000260: 2e10 07bd cc95 ee3d 0ac5 833d 32b4 573c
00000270: 9e8a c33d 6f17 dfbd 2dc4 57bd 521e 923d
00000280: d60b 4abd bdf2 273d 1189 57bd 5d9e 5cbd
00000290: 3bb7 c3bc 0a6a 753d f686 e9bd 8b47 66bc
000002a0: 8724 783c 5c8e 2fbd a082 fbbd d88b c03d
000002b0: 9322 e4bd 7eff 75bc dd82 adbc 4ceb 97bd
000002c0: 8761 f03c a29f be3c 8e9a 753d 0472 b5bc
000002d0: 5fc9 b03a 0012 febc 571a 17bd f6e3 423c
000002e0: 3d7c dcbd 49f4 03bc a3b0 c23d 4350 cb3c
000002f0: 0033 ae3d 64d4 ef3d 9a05 a4bd 729a 193d
00000300: 2716 4d3c 8596 ea3d a95a c0bd 7f56 5f3d
00000310: f26d d63d 486a 763d 7d62 c9bd 70a8 12bd
00000320: 6b34 0abd 30a2 0e3d 113f 4d39 c179 0cbd
00000330: dead aebd 5024 33bb 58af 203c 2dde 84bd
00000340: e49b c83d cba0 973c ac76 fdbd dc30 af3c
00000350: 0547 7a3d 7296 773d 63b8 ccbc 6c0d 6dbc
00000360: 0698 d83d bb3b 203d 5710 843d 1bca 843d
00000370: 9c42 dabc a1f1 51bd 1316 abb9 c794 ae3d
00000380: 55ba ddbd a8bc 9d3d 7c5c be3d c6d2 6c3b
00000390: bcb3 6d3d c6a9 87bd e885 533d 7b33 a63d
000003a0: a220 4b3d 50c9 f3bc cece 1c3d 6b6f 24bd
000003b0: 82e8 6f3a e832 773c 30bc 233d 30bc 43bd
000003c0: 419f 9b3d 4244 523c d0de f23c ef28 bd3c
000003d0: f594 50bd 0b40 023d e126 62bd 42e2 553d
000003e0: 0b80 993c 43cb 9bbc d7f7 2e3c bf81 773c
000003f0: 3846 eabc 3061 bbbc e0b9 0dbd 6ca7 62bd
