BiGRU_best_model.pt (torch, 723639 bytes, 11 tensors)

embedding.weight f4 [27, 100]
000000 87 52 04 3f aa f3 31 be 6c 9d 08 c0 cf a0 a8 be
       0.51688427 -0.17378107 -2.1346083 -0.32935187
000010 c4 46 02 bd 74 d4 fb bd 3e d5 78 b9 9e ca 41 bf
       -0.03180577 -0.122963816 -0.00023730562 -0.75699794
000020 7b 68 ba be e6 a7 c0 3f 29 c5 2a bf 31 23 31 3f
       -0.36407837 1.5051239 -0.6670709 0.6919432
000030 28 fa f3 be e3 d4 6d 3f 5f cb c9 be f8 ed e8 ba
       -0.47651792 0.92902964 -0.39412972 -0.0017771116
000040 8e 15 38 3e 38 fa e6 be 78 35 c8 be 5f 32 4b 3f
       0.17976972 -0.45112777 -0.39103293 0.79373735
000050 52 66 6b 3f c0 53 05 3f 53 da 86 bf 96 78 52 3e
       0.91953003 0.5208092 -1.0535377 0.20553812
000060 af dd 16 3f 4e ff 3b bf 82 5d 79 3e b2 3d a0 3d
       0.5893201 -0.7343644 0.24352077 0.078242674
000070 6a 32 c7 3f 7b a6 ac bf 3a 12 a9 bf c1 79 c1 be
       1.556226 -1.3488306 -1.3208687 -0.37788203
000080 9e 6e 66 bf cf db 7d be be 5f d4 bf 02 31 ad 3f
       -0.9001254 -0.24790882 -1.6591718 1.3530581
000090 18 3e 23 bf 84 33 36 bf 8a 43 d3 be a1 8d 36 c0
       -0.6376662 -0.71172357 -0.41262466 -2.8523943
0000a0 e0 00 72 be 45 29 b6 bf bb 58 c7 bd e3 0f d1 bf
       -0.23633146 -1.4231344 -0.09733721 -1.6332973
0000b0 87 4c 89 3f 37 e8 4a bf e8 c1 7a bf 92 53 2b c0
       1.0726479 -0.7926058 -0.9795213 -2.6769757
0000c0 6a 93 da bc 0e c4 c3 3f 7b 3c 99 3f 2d 58 97 3f
       -0.02668162 1.5294206 1.1971582 1.1823784
0000d0 53 90 9b bf 90 89 2c 3f f1 41 d4 bf 80 c1 da bb
       -1.2153419 0.67397404 -1.6582624 -0.006675899
0000e0 8e be 1e 40 d6 3e 3b bf c1 8f 8a bf d1 d9 99 bd
       2.4803805 -0.73142755 -1.082512 -0.07512248
0000f0 88 91 26 3c 95 0e b3 3f 54 3b 2e 3f 89 49 e3 3f
       0.010166533 1.3988825 0.6805928 1.7756816
000100 d4 7b f5 bf 13 d9 66 3e 92 ff 0a c0 6f b8 47 bd
       -1.9178414 0.22543745 -2.1718488 -0.048759874
000110 81 7d 88 3f e9 b5 fb 3e 5b ab 8b be af 20 87 bf
       1.0663301 0.49162224 -0.2727917 -1.0556849
000120 ea 11 9c 3e 8c 68 ea bd 2d c6 b6 bf 22 bd dc bd
       0.30482417 -0.11445722 -1.4279228 -0.10778262
000130 58 65 b6 3f a9 95 90 3e 06 3c 23 40 83 7c 43 3f
       1.4249678 0.28239182 2.5505385 0.76361865
000140 58 b6 08 3f 91 22 5f 3c bc 67 52 3f 1b ee a3 bf
       0.53403234 0.013619081 0.82189536 -1.2807039
000150 a7 d8 f2 bf a5 b9 62 3f 17 d5 12 bf a7 ac 4d bf
       -1.8972367 0.8856452 -0.573564 -0.8034157
000160 ef fe 8c 3f 9f 2b 85 bf 55 4f 9d 3f 32 af 2b 3e
       1.10153 -1.0403937 1.2289835 0.1676605
000170 bf 4f c4 bb 9f b7 47 bf ed e2 86 3f f2 b8 1e 3f
       -0.005990952 -0.7801456 1.0538002 0.62000954
000180 90 13 9a 3f 0d 1c 82 bc 78 f7 ed 3e 5a 46 38 bf
       1.203722 -0.015882516 0.46477866 -0.7198235
000190 14 aa 52 be 2f ef 04 bf b7 70 52 be b7 90 26 c0
       -0.20572692 -0.51927465 -0.2055081 -2.6025827
0001a0 12 28 51 bf 82 40 ba bb c8 45 99 bd d9 b6 2f 3f
       -0.8170177 -0.0056839595 -0.07484013 0.6863838
0001b0 d7 3c 9b 3e 0f df 1b 3f 61 89 63 3f c9 5d 05 3f
       0.30319855 0.60887235 0.888815 0.5209623
0001c0 06 36 b3 3f 03 d9 46 bf f3 f5 2e 3f df ee c8 3f
       1.4000862 -0.77674884 0.6834404 1.5697898
0001d0 e6 56 fe 3f 6c cc 9e bf 84 7b 39 be 10 d3 a9 bf
       1.9870269 -1.2406135 -0.18113524 -1.3267536
0001e0 6a 9b 83 bf ca fc aa 3f cb 32 bc 3e 22 6d bb bf
       -1.0281804 1.3358395 0.36757502 -1.464268
0001f0 d4 e3 c1 3e f6 77 0f c0 85 e3 c8 3e df be c9 3d
       0.37869132 -2.2416968 0.39236084 0.09850859
000200 8e b5 64 bf e6 94 06 3f 84 3f 50 bd 66 cc 1a 3f
       -0.8933953 0.5257095 -0.050841823 0.6046814
000210 3b 06 5a bf 58 9d 5b 3f 21 d7 aa bf 35 b8 2e c0
       -0.85165757 0.8578696 -1.3346902 -2.729993
000220 e9 db 9d 3f 25 7b 29 3e f5 c0 06 bf 34 2f 1c bf
       1.2332736 0.16550882 -0.5263818 -0.61009526
000230 8d e5 25 3f 77 b2 db be 38 3e 0f c0 6d ec 12 3f
       0.6480339 -0.42909595 -2.2381725 0.5739201
000240 9d 20 4c 3f 57 d1 28 bf 7b 53 a6 bf a0 02 e9 be
       0.79737264 -0.6594443 -1.2994226 -0.45509815
000250 90 c4 45 bf e3 94 3e 3e 02 25 b8 bd 55 b4 c1 bf
       -0.77253056 0.18611483 -0.08991434 -1.5133158
000260 bc 25 b9 3f 9a 84 7d bf e8 3d 7f be 4f e3 46 bf
       1.4464641 -0.9903046 -0.24925959 -0.77690595
000270 1a 5e ad 3e 98 c2 a7 3f 92 84 27 40 c5 99 4c 3f
       0.33860856 1.310626 2.6174664 0.79922134
000280 a6 41 27 bf 3a fc e7 bc d3 a9 0b 3f ca 30 77 3f
       -0.65334547 -0.028318513 0.54556006 0.9655882
000290 d3 ff 01 c0 ae 88 0d 3f ee 8f ae bd b9 7f d9 3e
       -2.0312393 0.5528668 -0.08523546 0.42480257
0002a0 9a 74 72 3f 6e 8c 68 3f 8a 1f 4a 3f 8c c6 dc be
       0.9470917 0.9083928 0.78954375 -0.4312023
0002b0 7e 56 85 bf 8b d3 35 3e 26 cb 2c 3e 4e 53 09 40
       -1.041702 0.17756478 0.1687437 2.1457095
0002c0 11 40 18 40 d6 fd c0 be 91 94 c5 bf f4 a4 10 bf
       2.3789103 -0.3769366 -1.5435964 -0.565017
0002d0 0d 7b 9a bf 27 03 c7 bf ce 87 08 3f 6e b2 0a bf
       -1.2068802 -1.5547837 0.5333222 -0.5417851
0002e0 bb 30 a4 3f 35 22 f7 bf b5 11 41 3f 38 d4 88 be
       1.2827371 -1.9307314 0.75417644 -0.2672441
0002f0 b9 30 bf be 83 25 6c 3f 19 3b 13 3f ae b0 47 c0
       -0.3734186 0.9224474 0.5751205 -3.1201587
000300 43 ae eb 3e 7b 0e 92 be 4b 20 31 bf e2 72 98 bf
       0.4603139 -0.28526673 -0.691899 -1.191006
000310 64 48 6d bf b3 8c 9f 3f a2 c6 00 c0 d5 c2 34 3f
       -0.92688584 1.2464813 -2.0121236 0.7060979
000320 d8 d7 b9 3f ff f0 10 c0 bb 93 ed 3d ed 20 73 3f
       1.4518995 -2.2647092 0.11600443 0.94972116
000330 fa 27 8d 3f 70 c3 62 bf 1d 5e b2 be e6 0f 20 3f
       1.1027825 -0.88579464 -0.34837428 0.6252426
000340 89 38 b6 be ac 7f 6c bf e7 fb a4 bf d1 12 7c 3f
       -0.35590008 -0.9238231 -1.2889374 0.9846621
000350 8e 29 0a 3f 91 ed 3f 3f 79 54 34 bf 9a fc 22 bf
       0.5396966 0.7497187 -0.70441395 -0.6366669
000360 a8 7d aa 3e 08 da af 3f 24 a7 2d 3f 43 90 dd be
       0.33298993 1.3738413 0.6783316 -0.43274125
000370 50 7b ac 3d 76 46 c0 be 24 57 18 bd ea 49 c3 be
       0.084219575 -0.37553757 -0.03719248 -0.3814233
000380 37 1b e7 3e e0 30 c7 be f6 46 c2 3f b8 88 01 3f
       0.4513795 -0.38904476 1.5177906 0.5059924
000390 89 bc 76 3f bf d1 8f 3f 4b f2 01 3d 75 2f 9c 3f
       0.9638143 1.1235884 0.03172521 1.2201983
0003a0 ea 19 31 bf 57 c4 c6 be 43 44 f3 bc fa d4 bd be
       -0.69180167 -0.3882167 -0.029695636 -0.3707655
0003b0 36 b4 57 bf 7d 0e 8a 3e c4 a4 ad bf 29 f6 87 bd
       -0.84259355 0.2696418 -1.3565907 -0.06638748
0003c0 22 08 33 3e 5f d5 12 3f e2 46 10 3f 2c 4e 79 3f
       0.17483571 0.5735683 0.5635816 0.97384906
0003d0 52 60 98 3f d3 6b f2 3f 7a 8b c1 bf ce 5c a8 bf
       1.1904395 1.8939155 -1.512069 -1.3153322
0003e0 66 18 88 3f 1a 0b cd 3e b7 09 b3 3f 72 3f cb 3f
       1.0632446 0.40047532 1.398734 1.5878737
0003f0 d0 f7 06 3f f3 e1 8b 3f 5c a6 7f be 2e b4 2e 3f
       0.5272188 1.0928329 -0.24965805 0.6824368

gru.weight_ih_l0 f4 [384, 100]
000000 a5 5a 82 bd d1 fe 36 bd 85 21 62 3d 38 e6 3f bc
       -0.06364945 -0.044676606 0.055207748 -0.011712603
000010 a5 f2 8c 3b 74 f2 a1 bc 05 46 b7 3d 1b 65 0b 3d
       0.0043013864 -0.019768931 0.08948902 0.03403197
000020 c0 5f ad 3d 7a 75 b3 3b 3e 6f 7c 3d 12 db 55 3d
       0.084655285 0.005476651 0.061629526 0.052210875
000030 c2 11 6b 3d 94 2a d4 3c 8f 56 22 bd 65 18 56 3d
       0.057389982 0.02589921 -0.03963333 0.05226936
000040 16 1b 2c 3c b6 33 db 3d fe 8b ce 3c 57 c3 05 3d
       0.010504505 0.107032225 0.025213238 0.032656994
000050 2b d2 4e bd ea 9e 0f bd f5 03 36 bd f2 64 4b bd
       -0.0504934 -0.03506366 -0.044437367 -0.049656816
000060 20 78 a1 bd 5c 23 e1 3d 39 13 5d bd 25 cb e7 bc
       -0.0788424 0.109930724 -0.05397341 -0.028295109
000070 01 2c 09 3d dd 52 5d 3d 34 7a 00 3d 62 2d c1 3b
       0.03348923 0.054034103 0.031366542 0.0058953026
000080 c6 f5 6b 3d 84 ed 73 bd 25 bc 5f bd e1 76 e6 bc
       0.057607435 -0.059552684 -0.054622788 -0.028132858
000090 ab e3 52 3b 8a ab 85 bd 0f b1 54 3d f0 02 18 3b
       0.0032179158 -0.06526859 0.05192667 0.002319511
0000a0 8f 62 3f 3d ca cd 71 bd 13 15 0b 3d d6 eb 98 3d
       0.046724852 -0.059034146 0.033955645 0.07466857
0000b0 14 de dc bd b1 55 79 3d 11 1b af 3d be 6d c4 3c
       -0.107845455 0.060872737 0.085500844 0.02397811
0000c0 73 82 2e bd 03 e6 cb bd 90 4f 4b bd 2a 2c 47 3d
       -0.042604875 -0.09955981 -0.049636424 0.048626103
0000d0 c2 c8 26 3d 76 9d 1b 3d 06 1a 60 3d a2 f0 97 3c
       0.0407188 0.037991963 0.054712318 0.01854736
0000e0 a1 f1 a8 bd a5 20 42 3d 3e 21 84 3d 1c af 67 bd
       -0.08249212 0.047394414 0.06451653 -0.05656348
0000f0 23 a1 c5 3d b5 a2 bb bd f8 82 8f bc 79 99 68 3c
       0.09649875 -0.09161893 -0.017518505 0.014196747
000100 dd 11 8a 3d de 1a 08 3d ae b1 dc 3d 41 73 25 bd
       0.067416884 0.033228748 0.10776077 -0.040393118
000110 40 ef aa bc 27 74 c0 bd 87 09 58 bc 8b 58 a4 3d
       -0.020866036 -0.09397154 -0.013185865 0.08024701
000120 23 03 e9 bd 8b 9e 36 39 00 85 9e bc ad 56 9b 3c
       -0.113775514 0.00017415934 -0.019350529 0.018962229
000130 59 f5 1d bd 68 c0 76 bc 9f fd 60 3d 44 c6 8d bd
       -0.03856406 -0.015060522 0.054929372 -0.06922582
000140 bc a0 2d 3d 17 41 cb 3c 1c db 7e bd a9 e6 e8 3d
       0.042389616 0.02481131 -0.062220678 0.1137212
000150 81 97 87 3d 0c c6 e5 3c 9c 5d cd 3d f2 23 88 3c
       0.06620694 0.028048538 0.1002762 0.016618703
000160 1f 25 32 bc c8 40 3b bd cc 86 84 bd 1c 15 70 bd
       -0.010873108 -0.045716077 -0.06471023 -0.05861388
000170 d5 73 e7 bb 9c 6d a7 3d d1 e2 86 bd 19 52 6a bd
       -0.007063369 0.08175203 -0.065862305 -0.0572072
000180 87 af 45 bd 27 7d 39 bd 85 0c 36 3d 8f c6 1b bd
       -0.0482631 -0.04528537 0.044445533 -0.038031157
000190 89 b1 cf 3c c2 54 4e 3c c3 e9 76 bd ba 36 ca bb
       0.02535321 0.01259345 -0.060281526 -0.0061710747
0001a0 39 e6 9b 3d 55 e1 3a 3d 76 31 88 3d ec e3 e6 3d
       0.07612271 0.04562505 0.06650059 0.112739414
0001b0 42 52 88 bd ea 66 48 bd 7e 1f 38 3d ca 79 89 bb
       -0.066563144 -0.04892627 0.04495191 -0.0041954266
0001c0 d4 83 30 bc 45 83 17 bd 9e 79 7a 3d df cf b0 bc
       -0.010773618 -0.036990423 0.06115114 -0.021583496
0001d0 93 fd 22 3c d8 33 9d ba c2 28 6b bd 73 53 79 bd
       0.009948152 -0.00119936 -0.057411917 -0.0608706
0001e0 74 f5 3d bc fd 56 12 3d e9 c9 5a 3d 73 3e 89 3d
       -0.011594165 0.03572749 0.053415213 0.06701364
0001f0 2f 83 3b 3d e0 95 5f bd 53 95 a6 3c 23 02 a2 3c
       0.045779403 -0.05458629 0.020334875 0.01977641
000200 4e 71 9a 3b c8 67 d4 3d 63 32 56 bd c1 09 4e bd
       0.004713214 0.10371357 -0.052294146 -0.05030227
000210 7a 07 27 bb d9 d7 bc bc 02 46 a1 3d 6d 11 67 bd
       -0.0025486634 -0.023052143 0.07874681 -0.056413103
000220 b3 28 04 3d ac de a2 3d 5f 2c 93 3d e7 f4 bc bb
       0.032265376 0.079526275 0.071861975 -0.0057664993
000230 bd df 85 bc 3a 02 c7 3c 70 6c 41 3c eb f0 6e bd
       -0.016342038 0.024293054 0.011805639 -0.058335226
000240 b7 54 8c bd fe 51 6c bd 53 fc 34 3b 84 94 a1 3c
       -0.068520956 -0.05769538 0.0027616217 0.019724138
000250 50 aa 9a bd ca 64 82 bd 73 03 54 3d 5f 79 e6 3c
       -0.07552016 -0.0636688 0.051761102 0.028134046
000260 1a 61 29 3d 13 4a fe 3c e7 43 24 ba a4 38 44 3d
       0.04135237 0.03104118 -0.0006266222 0.04790558
000270 1d 31 1b bc 43 ac 6c bc 55 9e bb 3d 79 57 07 3b
       -0.009472159 -0.014445367 0.09161059 0.0020651503
000280 3e 3c af 3d 51 6b 8c bd cf 77 5f 39 72 be 62 bd
       0.08556412 -0.068564065 0.0002131157 -0.055357404
000290 7c 95 b1 3d 70 59 8b 3c ea 8c 0f bd 14 d9 9d bb
       0.0867109 0.01701042 -0.035046495 -0.0048171375
0002a0 45 56 8d bd 23 55 d0 bd 00 a0 9f 3d 7f 10 b5 3d
       -0.0690122 -0.101724885 0.077941895 0.08841037
0002b0 d0 1a 35 bd e8 fd f8 bc 2c 66 ba 3d 9f fa 8c bd
       -0.044215024 -0.03039451 0.09101519 -0.0688374
0002c0 61 55 1b 3c 7c 33 73 3d 30 c1 1c 3d d2 f5 d5 bd
       0.009480805 0.05937527 0.038270175 -0.10447277
0002d0 8d f9 62 3d 96 28 81 bc 62 d3 60 3c 23 e3 9e bc
       0.05541377 -0.015766423 0.013722273 -0.019395417
0002e0 1b b9 dc 3c 95 b1 4d 3d 8f 5d 7a 3d 01 66 c7 bc
       0.026943734 0.050218184 0.06112438 -0.024340631
0002f0 9d 34 b5 3a e2 ed d2 3d e2 97 ac 3b 93 8b 5f bd
       0.0013824884 0.10299279 0.0052671293 -0.054576468
000300 9b 47 9b bd 5f da 9d bc 26 a5 64 bc ca af aa bd
       -0.07582017 -0.019269167 -0.01395539 -0.0833431
000310 0e 12 3a bd e2 69 bf 3c bd a1 ae bc 0d a1 47 3d
       -0.045427375 0.023365919 -0.021317357 0.048737574
000320 a9 06 0d bd 87 94 16 bd 69 c1 63 bd bb cb 9f bd
       -0.03443018 -0.03676274 -0.055604372 -0.078025304
000330 60 22 aa 3c 0c 6a a5 bd ac b0 94 bd 88 f1 1c bd
       0.020768344 -0.080768675 -0.0726026 -0.03831628
000340 40 3d 79 3d 43 cb 84 3d 19 92 bb 3d 0d 1c 65 3d
       0.06084943 0.064840816 0.09158725 0.055934954
000350 8f 1a 87 3d 0c a6 b1 3d e1 96 8c 3d 04 1d b9 bc
       0.065968625 0.08674249 0.06864715 -0.022596844
000360 c8 e2 37 3d ed ea 27 ba 53 06 c3 3c be 36 b4 bd
       0.04489401 -0.0006405551 0.023806727 -0.08799504
000370 9b dd 24 3d 86 34 48 bd 7b 9e 54 bd 54 9d 80 bd
       0.040250402 -0.048878215 -0.05190895 -0.06280008
000380 3e c1 3f 3d 7c 4b 15 3d fa e1 d6 3c 0f 82 94 3d
       0.04681515 0.03644894 0.0262308 0.07251369
000390 7c dc 71 bd 05 78 3d bd 94 50 41 bd 9e a1 21 bb
       -0.05904816 -0.046257038 -0.047195986 -0.0024662982
0003a0 38 dc b3 3d 74 ea 66 3c 3c ea 8a bd 01 e0 e8 3b
       0.08782238 0.014093984 -0.06782958 0.0071067815
0003b0 aa 4a 53 3c fd c5 76 bd 13 57 91 3c 4d 3d 0d bd
       0.012896219 -0.06024741 0.017741716 -0.03448229
0003c0 0b c3 00 3d f9 c1 b0 bd 24 26 05 3c 86 10 7a bd
       0.031436007 -0.08630747 0.008126769 -0.061050914
0003d0 c0 fe 96 38 16 88 a9 3d 25 ff 8d 3c db d0 b0 3d
       7.200008e-05 0.082779095 0.017333576 0.08633586
0003e0 2f 46 ab bc 4c a0 1a bc cc a9 0f 3b b6 5a bf 3c
       -0.02090749 -0.009437632 0.0021921275 0.023358684
0003f0 7a 7a e1 3b 18 90 8f 3c d0 fb 13 bb 31 9e 1c bb
       0.0068810554 0.017524764 -0.0022580512 -0.0023898

gru.weight_hh_l0 f4 [384, 128]
000000 d6 d0 fa 3d fe 39 87 bc 8f bf 85 bd d1 a1 b8 bc
       0.122468635 -0.016507145 -0.065306775 -0.022538098
000010 c7 4f 85 3b 4c 69 8e bd 29 0c 52 3c 4f e1 c1 bd
       0.004068348 -0.069536775 0.012820282 -0.09466802
000020 83 14 d3 3c f6 26 95 bc 38 1b 5c bd d7 c6 e0 bc
       0.025766617 -0.018207055 -0.053736895 -0.027438564
000030 f8 b9 a7 3d 59 de 2b 3d 68 a5 d9 bc 1a cc d1 bc
       0.081897676 0.041960094 -0.02656813 -0.025610019
000040 0c 31 cc 3c 5d 76 dc bd 35 53 28 3d 32 10 c4 3c
       0.024925731 -0.107647635 0.041094977 0.023933504
000050 a3 66 7c bd 79 8a 5c bd 60 62 92 bd 2c 8b 77 3c
       -0.06162132 -0.053842995 -0.0714767 0.015108865
000060 1c 26 49 bd 3e 56 a3 bd 39 17 35 3d f3 93 0e ba
       -0.04910861 -0.07975434 0.0442116 -0.0005438916
000070 d9 bf ab bd 98 fd 4a b9 b0 c8 b9 3c 7b 62 3d bd
       -0.083862014 -0.00019358692 0.022678703 -0.046236496
000080 85 f3 6b 3d 9e 46 ca 3d 62 38 64 3d d6 ff c4 3c
       0.057605285 0.098767504 0.055717833 0.024047773
000090 02 11 e2 3c c3 c3 a7 bd 2d 62 b1 bb 60 33 79 3d
       0.027596 -0.081916355 -0.005413315 0.06084001
0000a0 9d a6 20 bd f5 e8 a7 bd 38 43 37 3c ca 26 61 bd
       -0.039221395 -0.0819873 0.01118546 -0.054968633
0000b0 da 60 a4 3c 0b de 73 3d ae 54 c5 bd 56 7b a6 3c
       0.020065714 0.05953793 -0.09635292 0.020322483
0000c0 c0 0f 12 bd bf 51 81 bd 97 16 b4 bd 9e 90 9a 3d
       -0.03565955 -0.0631442 -0.08793371 0.07547115
0000d0 59 62 9c 3d b0 46 76 3d c7 84 54 bc 6c 56 50 b9
       0.07635946 0.060126007 -0.01297111 -0.0001986862
0000e0 23 56 11 bd 8b 4a bc 3d de 7f 2f bd 1b ed 1b 3d
       -0.035482537 0.091939054 -0.042846553 0.03806792
0000f0 f2 78 aa 3d 65 a4 25 bd e7 49 92 ba 30 18 ca bd
       0.0832385 -0.040439982 -0.0011160941 -0.09867895
000100 29 93 86 bd 97 66 3a bd ce 4e f5 3c bf 3e a1 bc
       -0.06571037 -0.045507994 0.029944804 -0.01968324
000110 55 26 76 3d 6e 54 92 3b c4 30 47 3d fb c6 20 3d
       0.06009515 0.004465631 0.04863049 0.039252263
000120 1f bc 88 bc 6f 42 57 bd dd 72 97 ba bb b0 e8 3c
       -0.016691266 -0.05255359 -0.0011554618 0.028404584
000130 37 61 52 3d 4c f9 66 bc 1a aa 5a 3d 68 f1 75 3c
       0.051362243 -0.014097523 0.053384878 0.015011169
000140 9d e1 c6 3c a6 5c c5 bd fd 4a 64 bd 48 ab 2a 3b
       0.024277503 -0.09636812 -0.055735577 0.0026042033
000150 d0 9a 28 3c 2e e5 dd 3d d3 2a 89 bd b8 3f c0 3c
       0.010290816 0.10834728 -0.06697621 0.023467883
000160 42 a3 9d bd 76 fa b2 bc e5 37 33 bd a8 dd 23 3d
       -0.076971546 -0.021847945 -0.043754477 0.04000631
000170 8c 08 c3 bc c2 07 b8 bd 1e ac 34 bd 5a 7e d9 bb
       -0.023807786 -0.08985855 -0.044109456 -0.0066373767
000180 4a 1c dd bc 90 20 44 bc 7c 05 e0 bb 24 a3 1c bc
       -0.026991028 -0.011970654 -0.0068365913 -0.00956038
000190 bc 4f 8a 3d ec b4 5a 3d 0d 36 66 bd 36 6f 8c bd
       0.067534894 0.053395197 -0.05620389 -0.06857149
0001a0 2c 47 87 bd 76 c0 c0 bc e2 66 d5 bc 6a cf 1e 3d
       -0.06605372 -0.023529273 -0.026050035 0.038772024
0001b0 c8 87 77 3c 5c e0 74 bd b1 35 61 3c 68 d7 30 3d
       0.015108056 -0.05978428 0.013745711 0.043174177
0001c0 3a 4b b3 3d 3d 16 12 bd 24 ec 26 bd 5a 47 a2 bb
       0.08754583 -0.03566574 -0.040752545 -0.0049523534
0001d0 2e 03 9e 3d 3d 2d c4 bb ae f0 8a 3a d2 76 a2 3b
       0.0771545 -0.005986838 0.0010600293 0.004958012
0001e0 36 78 a7 3b 19 2a 9d bc aa f6 3d 3d 3e a9 a5 3d
       0.005110766 -0.019185113 0.046377815 0.08088921
0001f0 db ad d4 bc 4e f4 a4 bd b0 a2 a7 bd 98 0d ba bb
       -0.025961807 -0.0805441 -0.08185327 -0.00567789
000200 a0 2c 89 bc dc 46 9a 3d ce e7 bb 3c 6f 35 20 3d
       -0.016744912 0.075330466 0.022937682 0.03911346
000210 37 3e 7a 3d 07 78 a9 3d 70 84 44 3d c9 5d 12 3b
       0.06109449 0.082748465 0.047977865 0.0022333732
000220 dc 27 30 39 0f c8 b5 3b 75 d9 d1 3c ea 07 d8 3c
       0.00016799517 0.0055475305 0.025616387 0.026370961
000230 de 1c 2b bd d3 21 9a bd a6 7d 94 3d ab 5f c4 3c
       -0.041775577 -0.07525983 0.07250528 0.0239714
000240 ac 4f 7a bc 42 c8 98 bd e9 53 10 bd b8 b7 ce 3d
       -0.015277784 -0.07460071 -0.035236273 0.10093635
000250 56 3e 2e bd f9 b1 24 3d 74 10 6a 3d e1 b9 3a 3c
       -0.042539917 0.04020879 0.057144597 0.011396856
000260 10 df 97 3c 9b 00 8e 3d 70 99 e1 3c c6 5a d1 bd
       0.018538982 0.06933709 0.027538985 -0.10222392
000270 9b 3a e4 bd 2a fe 1b 3d 62 10 17 bd 89 85 5e bd
       -0.111439906 0.038084187 -0.03688086 -0.054326568
000280 4d 2c 8d 3d 4a ac 14 3d ee d5 15 3c 00 e2 12 3d
       0.06893215 0.03629712 0.009145243 0.03586006
000290 5a f9 ef bc 79 b2 4b bd f7 0d 65 3b c3 96 90 3c
       -0.029293705 -0.04973075 0.003495095 0.017650014
0002a0 0f 1b 16 3d 32 1f 94 bd 03 ec 33 3d 26 fd b3 bc
       0.0366469 -0.072325125 0.04392625 -0.021971297
0002b0 82 8e 89 3c 88 25 23 3d 2c fe 16 3d 7f 98 7d 3d
       0.016791586 0.039830714 0.03686349 0.06191301
0002c0 72 62 3b 3d c2 a4 9b 3b af aa df bc 33 0b ae bd
       0.04574818 0.0047498653 -0.027303068 -0.0849823
0002d0 3f e0 ae bd 86 f0 93 3d 0b b2 11 3d d5 84 62 3c
       -0.08538865 0.072236106 0.035570186 0.013825615
0002e0 5b 54 8f bd 27 c0 12 bd 35 23 30 bd 4e 66 83 bd
       -0.069985114 -0.035827782 -0.043002326 -0.064159974
0002f0 c2 ce c1 bc 98 0c 75 bd cf 12 a2 3d a2 5b 84 bc
       -0.02365816 -0.059826463 0.07913744 -0.016156975
000300 13 7b 03 3b ee 9a 76 3d 5c 87 52 bb 2f 30 51 bc
       0.0020062372 0.060206346 -0.0032124138 -0.0127678355
000310 55 54 8f 3b 55 43 aa bc 1f 13 ae 3d d5 74 3f 3d
       0.004374067 -0.02078406 0.08499741 0.04674228
000320 3e 5d d8 3c e7 fa c2 3d d3 c9 35 3d 71 db 27 3d
       0.026411649 0.09520512 0.044381928 0.04098076
000330 b3 90 0a bd 53 6a 6d 3d 5c 68 94 3c f2 a5 72 bd
       -0.033829402 0.057962727 0.018116169 -0.05924029
000340 87 26 7b 3d de 7b b5 bd 0e 6f cf 3c 92 da 1f bd
       0.06131604 -0.088615164 0.02532151 -0.039026804
000350 bf 4f 41 3c e6 c9 77 bd 35 3e a8 3d ed 9c bb 3d
       0.011798798 -0.06049528 0.0821499 0.091607906
000360 4a 7d b1 3c 6e 8f 2b bc 0c b4 0c bd 24 d9 8f 3d
       0.021666188 -0.010471208 -0.034351394 0.07023838
000370 86 56 a0 bc 45 38 df 3c df 3c c3 bc a6 a1 85 bd
       -0.019572508 0.027248511 -0.023832737 -0.065249726
000380 0e 59 ee 3c 3a 19 38 bd 1e e6 bc 3c 1a a1 91 3d
       0.029095199 -0.044945933 0.023058947 0.07110806
000390 aa fc 00 bd 26 da 85 3d 56 58 5f bd 5e 9a a4 3d
       -0.03149096 0.06535749 -0.054527603 0.08037256
0003a0 29 a5 30 bd 70 f7 ea b9 16 12 90 bd 85 3b 99 bd
       -0.04312626 -0.00044816313 -0.070346996 -0.074820556
0003b0 d6 b4 a6 3c 6a 06 1d 3d a3 14 e9 38 a9 b1 59 bd
       0.020349901 0.038336195 0.0001111415 -0.053147946
0003c0 4f 0b 0d bd 4b 76 e6 3c 92 b1 22 bd ed d6 57 bd
       -0.034434613 0.028132578 -0.039720125 -0.052695204
0003d0 ee 96 00 bd 3f 09 8b 3c ad 4f 6c bd 14 a8 37 bd
       -0.031393938 0.016972182 -0.057693172 -0.044838026
0003e0 ff fe 84 3d 09 30 98 bc 7d 57 b5 3d db 1c 7c 3d
       0.06493949 -0.018577592 0.08854578 0.061550956
0003f0 07 54 33 3d 84 48 95 bd 63 0e e8 bc ea a8 93 3c
       0.043781307 -0.07289222 -0.028327173 0.01802488

gru.bias_ih_l0 f4 [384]
000000 34 7e f0 bc c1 6a f8 3c d5 45 09 bc c2 83 11 3d
       -0.029357053 0.030324342 -0.008378466 0.035526045
000010 8b 8b a8 bd 36 a2 ba bd 98 28 32 3d d7 af ae bd
       -0.08229741 -0.091129705 0.043495744 -0.085296325
000020 2c 4a d2 bd c6 9b 84 bd 4e 04 75 bd d2 bd fa 3c
       -0.102680534 -0.06475024 -0.05981856 0.030608092
000030 6c 4b e1 b9 a1 fe d8 bd b7 6b d5 bc 11 e5 78 bd
       -0.00042971538 -0.105954416 -0.026052339 -0.06076533
000040 d9 16 b4 3d ee 93 2d 3d 6b 39 29 ba bb 4f 88 3d
       0.0879342 0.042377405 -0.00064553943 0.066558324
000050 1c 2b be bd 67 93 88 bc a3 95 83 bd 9e 87 b7 3b
       -0.09285566 -0.01667185 -0.06425025 0.0056008836
000060 77 70 1a 3d 41 03 50 bd e3 16 de bd d7 5f 89 bd
       0.03770491 -0.050784353 -0.10844209 -0.06707733
000070 3f c3 b3 bb 3e 26 91 bd 8a 99 c6 bc 56 40 2a 3d
       -0.0054859216 -0.07087372 -0.024243135 0.04156526
000080 99 94 28 bd 86 f5 63 3d a2 cd 21 bd 30 14 7a bd
       -0.04115734 0.05565407 -0.039502747 -0.06105441
000090 21 35 6c 3d 6a 02 a6 bd 5d 64 85 bd 79 24 19 3d
       0.057667855 -0.08105929 -0.065132834 0.0373883
0000a0 d6 2c 8d bd 87 43 b8 bd 50 bc 30 3d 32 59 c8 bd
       -0.068933174 -0.08997255 0.04314834 -0.09782638
0000b0 39 f3 6c bc 49 f2 a3 bd 89 a6 1d bd db 15 d8 bd
       -0.014462286 -0.080051966 -0.0384889 -0.105510436
0000c0 4d 08 f3 3c 25 85 3c 3d dc e0 9d 3c 1b 38 dd bd
       0.029667044 0.046025414 0.01927226 -0.10801717
0000d0 38 ed 94 bb 48 e3 e6 bc 55 29 61 3d 65 1e 9a bc
       -0.0045448802 -0.028184548 0.054971058 -0.018813321
0000e0 3e 1f 74 bd d0 27 44 3d 5d 34 8b 3c 72 aa c2 bd
       -0.059600107 0.04788953 0.016992742 -0.09505166
0000f0 e5 3a 81 bc a6 13 19 3a c3 97 ed bc dd 53 62 bd
       -0.015775153 0.00058394147 -0.02900303 -0.05525576
000100 3a 88 d5 bd 53 a4 b0 bc b3 27 ca 3a 21 5f bd bd
       -0.10426374 -0.02156273 0.0015423208 -0.0924666
000110 b7 8d 72 bd ef e7 fa 3c e6 16 57 bd 3c e3 a0 bd
       -0.05921718 0.030628173 -0.052512072 -0.078558415
000120 79 0c 22 3d 46 80 83 3d b9 de a7 bc a5 21 11 3d
       0.039562676 0.064209506 -0.020491945 0.035432477
000130 52 a9 58 bd 86 59 80 bd 56 6e 87 3d b3 58 ad bd
       -0.05289585 -0.06267075 0.06612842 -0.08464184
000140 9b 4b 44 bd 83 12 c2 bd d8 e8 be 3c 3c 1b 8f 3d
       -0.047923665 -0.09476187 0.023304388 0.069876164
000150 33 9f bd 3b 74 0b 3a 3d 9d 7a f6 3c a0 7f 74 bc
       0.0057868003 0.04542108 0.030087763 -0.014923006
000160 38 4c 09 bd 57 e3 0b bc 3e 7f bb 3c 0f 4b 22 3c
       -0.033519953 -0.008538089 0.022887822 0.009905591
000170 f6 e9 9a 3d 2e 2e 8c bc 82 2b 43 3a 68 3e 98 bd
       0.07564156 -0.017111864 0.0007445143 -0.07433778
000180 c7 57 13 3d 7d 2c 42 bb a2 8e 70 bb 49 00 9d bd
       0.035972383 -0.0029628568 -0.003670611 -0.0766607
000190 e9 0a d8 3b 32 20 a6 bc 05 d0 92 bc b2 5f 49 3d
       0.0065930975 -0.020279024 -0.017921457 0.049163528
0001a0 69 b1 76 3d 49 89 b9 3a 5e e9 a3 bd 56 40 b7 bd
       0.060227785 0.0014155294 -0.08003496 -0.08947818
0001b0 f6 b4 44 bc 41 76 21 3c 36 0f 8b bd 36 f7 9e bd
       -0.012006035 0.009854854 -0.06790011 -0.077619955
0001c0 b1 a2 b6 bc 53 e0 88 bc af 2e ae bd 91 ca d2 3c
       -0.022294374 -0.016708529 -0.08504998 0.025731357
0001d0 2a c3 50 bc 24 31 3a bd 70 ea 08 bd 18 11 1c bd
       -0.012741843 -0.04545702 -0.033426702 -0.03810224
0001e0 52 ef aa 3d 86 ad f7 3c e7 cd e8 bd 0a d0 9b bd
       0.08346428 0.03023411 -0.11367398 -0.0760804
0001f0 de 3d 3e bd 6e 68 e8 bc f5 e9 e0 bd c8 0c 92 bc
       -0.04644572 -0.028370108 -0.10982124 -0.01782836
000200 02 b2 15 3e 71 29 14 3d fe 7e 2e 3e 04 36 37 3c
       0.14618686 0.036172334 0.17040631 0.011182312
000210 0c a4 51 3d f1 22 07 3e e7 c5 15 bd 2d 2f 30 3e
       0.051181838 0.13196923 -0.036565688 0.17205496
000220 77 15 5b 3d 6a 60 ed 3d d5 02 9c 3d 13 30 fe 3c
       0.053487267 0.11590655 0.07617728 0.031028783
000230 80 12 2e 3d b9 61 75 bd c6 6e 20 3e c1 c9 ef bb
       0.04249811 -0.05990765 0.15667257 -0.007317752
000240 87 b1 dd bc ac b5 8e 3c b8 43 8d 3c 21 5b bf ba
       -0.02706219 0.017420612 0.017244205 -0.0014599302
000250 5a e8 02 3e e4 38 a6 3d f4 2d 2c 3e 2b ee c6 3c
       0.12783948 0.0811632 0.16814405 0.02428349
000260 83 6e d7 3c cd 16 cf bd 40 e5 54 3d 63 72 c9 3d
       0.026297813 -0.10111771 0.051976442 0.09836271
000270 79 b8 4c 3b 01 ed 3e 3d 8a 37 9d 3d df f0 b3 bb
       0.0031237884 0.046612743 0.07676609 -0.0054913606
000280 0a 20 aa bc 12 dc da 3c 1b b2 82 3d 14 31 cf 3d
       -0.02076723 0.026716266 0.06381627 0.10116783
000290 9f 80 91 bc b3 60 40 bd 0f 89 5a 3d 9a 4d ba 3d
       -0.017761527 -0.04696722 0.053353366 0.090968326
0002a0 a2 c9 8c 3c 29 8d 76 3d 2d fd 64 3d 9d 91 a3 3d
       0.01718599 0.060193215 0.05590551 0.07986758
0002b0 ae e5 ce 3c 77 74 01 3e a9 83 7d bd 3d 22 0c 3c
       0.025256004 0.12642084 -0.06189314 0.008553085
0002c0 87 3a cd bd 86 d9 82 3d 96 78 b6 3c 32 df 26 3d
       -0.10020929 0.063891456 0.022274297 0.0407402
0002d0 cd 4a 0d 3d fc 65 27 3e ce b1 c7 3d 51 1d 0b 3d
       0.034495164 0.16347498 0.097507104 0.033963505
0002e0 be d1 b6 3b 13 86 19 3e 64 15 cd 3d 42 6b 5c bc
       0.0055792024 0.14992552 0.100138456 -0.013453307
0002f0 c3 a9 a5 3c 9a 68 59 bd 2f 9b 9f bd b3 7f bb bd
       0.02022255 -0.05307827 -0.07793271 -0.09155216
000300 eb 62 06 bc 69 47 36 bd d0 f1 18 3e df 46 32 3e
       -0.008202295 -0.044501696 0.14935994 0.17409848
000310 34 43 1d 3e 7f 86 2c bd 6c 89 86 3c f3 9e 21 bd
       0.15357667 -0.042120453 0.01642295 -0.039458226
000320 50 5b 38 bb e2 bc 90 bb fa d7 2e bb 2f 16 ad 3d
       -0.0028130598 -0.004417048 -0.0026679025 0.08451497
000330 f4 09 76 3c b2 9f bf 3d d9 f9 e2 3c 44 e6 65 3d
       0.015017021 0.09356631 0.027707027 0.0561278
000340 52 43 c7 3d 27 af 4c bd 8b d0 8d bc 45 43 5f 3d
       0.09729637 -0.049971726 -0.017311355 0.054507513
000350 6b af 2e 3d 89 31 67 bd 63 f0 fc 3d 49 77 97 3d
       0.04264776 -0.056443725 0.12350538 0.07395799
000360 1b 9c 04 bd eb a8 eb 3d 18 49 c6 bd 2d b1 fc 3d
       -0.032375436 0.11506828 -0.0968191 0.12338481
000370 db 89 8a 3d 4b 1a 3b 3d bf be 1c 3e 9d 11 3e 3d
       0.06764575 0.04567937 0.15307139 0.046403516
000380 ed 57 16 3d 6e 14 da 3d cf 72 05 3e 38 29 bb 3d
       0.036704946 0.10648428 0.13032077 0.09138721
000390 73 de 18 3e 69 ae 34 3d 3a 1e 4c 3c 32 ba 40 3e
       0.14928608 0.044111643 0.012458378 0.18821028
0003a0 d2 c9 ba 3d 6b 11 b2 3d ca 9b 28 bc 69 be 29 3e
       0.091205254 0.086947285 -0.010291049 0.16576542
0003b0 74 3b 27 3e 4f a0 bf 3d d7 b5 ff 3d d7 e1 3e 3d
       0.16331273 0.09356748 0.12485855 0.046602096
0003c0 93 29 cf 3c 91 6e 31 3d c2 d9 b0 bd 06 f5 04 3d
       0.025288379 0.043318335 -0.08635284 0.032460235
0003d0 de 52 82 3c 40 62 2c bb 92 7b 5e bd 0d 62 37 3c
       0.015908655 -0.0026303679 -0.054317065 0.011192811
0003e0 6b 75 33 3e ca a5 e1 3d 5c 20 1c 3d a9 fa 2d 3e
       0.1752526 0.1101795 0.038116798 0.1699015
0003f0 51 14 ed 3c 99 01 d7 3d 45 6a b2 bd 7f ab 4c bd
       0.028940352 0.104983516 -0.087116756 -0.04996824

gru.bias_hh_l0 f4 [384]
000000 44 0e 50 3d 04 53 44 3d d5 a4 42 3b 3d df a0 bd
       0.050794855 0.047930732 0.0029700298 -0.07855079
000010 43 0b 9e bd e9 f3 86 3d fa 2d 37 bd ee 50 0e 3d
       -0.07716992 0.06589491 -0.04472158 0.03474515
000020 15 a6 6d bb 49 be bb bd 5b 49 33 3d f6 ec c6 3b
       -0.0036262323 -0.091671534 0.04377113 0.0060707284
000030 81 bc ae bd 03 e5 db 3c 0f 5f a8 bb cd 24 ac 39
       -0.08532048 0.0268426 -0.005138285 0.00032833815
000040 bf b3 49 3d 5b d4 11 bd 5c 73 83 bd 7f 5e 28 bc
       0.049243685 -0.03560291 -0.064184874 -0.010276436
000050 f3 e6 8e bc 96 c0 a7 bc 45 d4 e0 bd f7 a0 79 bc
       -0.01744411 -0.020477574 -0.10977987 -0.015236131
000060 a9 cf 5d bd 7a fc f9 bd c8 73 03 3b 8c 96 ef bb
       -0.05415312 -0.12206359 0.0020058025 -0.0073116478
000070 d0 70 86 bc ac 9f fb bc 1a 67 2d 3d 52 1c eb 3c
       -0.016411215 -0.030715786 0.042334653 0.028700028
000080 ea 90 02 3d cc fc 1a bc d0 d1 12 bd 4c 4c 2a bd
       0.031876482 -0.0094596855 -0.035844624 -0.04157667
000090 f2 b8 e3 3b b6 63 a3 3c 8a c6 bf bd 11 8d ef bd
       0.0069495374 0.019945007 -0.0936404 -0.11696828
0000a0 57 58 43 bd 44 c1 1e 3c c0 70 54 3c 32 db 0a 3d
       -0.04769167 0.009689633 0.012966335 0.033900447
0000b0 a3 ab 9b 3d a7 dc 81 3a 68 4d 6f bd 9b 4c ab bc
       0.076010965 0.0009907678 -0.05842343 -0.020910552
0000c0 31 90 73 3c c6 02 d1 bc ef 50 6a bd a8 1b 0f bd
       0.014865921 -0.025514018 -0.05720609 -0.034938484
0000d0 ea d6 1b 3d 0e 7e aa bd 00 8e ef 3d 13 d9 9e bd
       0.038046755 -0.08324824 0.11697006 -0.07756247
0000e0 84 f3 91 3d 11 95 9d bd 12 c1 d4 3c 43 b2 ab 3c
       0.07126525 -0.07694448 0.02597097 0.020959025
0000f0 bc 90 a8 bd 55 17 44 bd 1e 69 5f 3d f7 aa 9c bd
       -0.08230731 -0.047873814 0.054543607 -0.076497965
000100 1b a3 5d bd a7 5c 11 3c 11 f5 5b bb 5a bf dc bd
       -0.054110628 0.008872188 -0.003356282 -0.10778685
000110 dd 28 84 bd 34 63 85 3d 7a 85 0e 3d a9 2b 7c 3c
       -0.064531066 0.06513062 0.034795262 0.015391269
000120 c3 91 ab 3c d5 44 1f bd aa f5 cb bd eb 91 15 bd
       0.020943528 -0.038884003 -0.09958966 -0.03651611
000130 3c 07 de bd 21 b0 d7 bc 12 03 82 3b 21 8a 82 bd
       -0.108412236 -0.026329102 0.003967651 -0.06374002
000140 cb f0 bb 3b 62 f5 4d bd ad 00 ac 3d 62 01 f3 3c
       0.005735492 -0.050282843 0.083985664 0.029663745
000150 d2 31 83 bd 2f 85 1a 3b 09 cc c1 3c 0a 34 0b bd
       -0.06405987 0.0023577919 0.023656862 -0.033985175
000160 9d 9e 90 bd 10 17 a8 3c 2a ad 0e be e1 27 02 3d
       -0.07061503 0.02051881 -0.13933244 0.031776313
000170 31 5a c7 bd 61 6a 9d bd db ab 86 3d 51 7e 0c bd
       -0.097339995 -0.07686306 0.065757476 -0.034300152
000180 bf 8d 50 3c 48 67 cd 3b 89 41 45 3d d3 d0 aa bd
       0.012729107 0.0062684156 0.048158202 -0.08340611
000190 d2 6f 4f 3d 14 99 76 bd 29 9c f7 3c 30 1e 53 3d
       0.05064375 -0.06020458 0.03022583 0.05154246
0001a0 0f 06 8c bc bd ec 4a 3d 60 b0 bc 3c 2e ee 66 bc
       -0.017092733 0.049542177 0.02303332 -0.014094872
0001b0 a0 48 8d bd a6 b2 f0 bc 1d b9 e4 bc 65 ae c3 bd
       -0.06898618 -0.029382061 -0.0279203 -0.095547475
0001c0 db b4 b9 3c 77 92 cc bd 97 75 10 bd 8e 8e 19 3b
       0.022669246 -0.099888735 -0.035268392 0.0023430916
0001d0 c3 51 74 bd 86 60 c0 bc a9 29 f3 bd c2 1e 88 3d
       -0.059648287 -0.023483526 -0.118731804 0.066464916
0001e0 d0 13 ca bc 64 b5 8d 3d fb e8 4f bd 13 77 2e bc
       -0.02466765 0.06919363 -0.050759297 -0.010648507
0001f0 4f e9 73 3d 8a a1 02 bb 15 33 cd bd 83 22 a5 bd
       0.059548672 -0.001993271 -0.10019509 -0.08063223
000200 48 4b e5 3d d4 ca 8b 3d 08 e9 9b 3d 40 37 c9 bc
       0.111959994 0.06825796 0.076128066 -0.024562478
000210 d5 cf c5 3d e4 23 a4 bc 27 f1 78 bd 4e 31 87 3d
       0.096587814 -0.020036645 -0.060776856 0.06601201
000220 8e 15 12 3d 8c 55 7a 3d b0 62 e3 3d 64 28 d3 3c
       0.035665087 0.06111674 0.111028075 0.025776096
000230 6b 2f 2c 3e 02 d5 a9 3b c3 7c 94 3c 55 6c 1d bd
       0.16814964 0.005182863 0.018125897 -0.03843339
000240 03 7c 71 3d 91 88 82 3d 42 5c 7e 3d 46 e2 16 3d
       0.058956157 0.06373704 0.062099703 0.036836885
000250 9e a3 a4 3d af 3b f9 3d 14 4f d0 3c 1a 15 47 3a
       0.0803902 0.12169587 0.025428332 0.0007594392
000260 4d 19 ca 3d 2e 82 12 bd 02 e1 23 3d 5c b2 0e 3e
       0.09868107 -0.03576868 0.040009506 0.13935226
000270 a2 72 86 bd 80 04 6b 3d 55 df 16 3e 83 bd c5 bc
       -0.06564833 0.05737734 0.14733632 -0.024138218
000280 17 c2 cf bc 02 4a 21 bd c8 3a d6 3d 7d 48 28 3c
       -0.025361104 -0.03937722 0.104604304 0.010271189
000290 1e 92 ce 3c df 8d ea bc ca 1d 9b 3d 3e 45 5f 3b
       0.025216158 -0.028632103 0.07574041 0.0034068371
0002a0 e6 11 81 3d b7 ec b9 3d a1 7c 76 3c 81 01 d2 3d
       0.06302242 0.09078353 0.015044362 0.10254193
0002b0 40 51 93 3d 6f 04 f8 bc eb 64 54 bd 0e 2a 4b bc
       0.071932316 -0.030275552 -0.051854055 -0.012400163
0002c0 de 25 07 3d 5a c8 ba 3c aa 08 d5 bd b1 ad eb 3c
       0.032995097 0.022800613 -0.10402043 0.028769346
0002d0 cf ff c4 3d f5 16 9e 3d a2 91 9c 3d 11 cd 70 bc
       0.09619104 0.077192225 0.07644965 -0.014697329
0002e0 b4 50 5e bc a8 91 c1 3c de 46 b5 3b 36 21 d3 3d
       -0.013569046 0.023629025 0.0055321297 0.10309069
0002f0 74 85 30 bd 1f 5d a1 bb 82 b8 d9 3c b3 a3 15 3d
       -0.04309602 -0.004924431 0.026577238 0.03653307
000300 b0 37 13 3d d3 00 a0 3c a6 4a 0f 3d 75 25 10 3e
       0.03594178 0.019531643 0.0349833 0.14076789
000310 a2 63 7b 3d 70 57 30 3d c0 2e 49 3d 72 62 3a bd
       0.061374314 0.043052137 0.04911685 -0.04550404
000320 c8 29 8d 3d 52 19 03 3d cf 34 ae 3d 00 d5 8f 3c
       0.06892735 0.03200657 0.08506166 0.017557621
000330 ee 60 aa 3d 6a 74 c3 3d 90 1d a2 3d d6 c6 98 bc
       0.08319269 0.095436886 0.07915795 -0.0186495
000340 89 2a 8a bc 6d 3f 22 bd e5 2b 69 bd e4 e5 ba 3d
       -0.016865985 -0.03961127 -0.056926627 0.091258794
000350 da a6 06 3e e7 ee 53 bd e7 f1 9e 3c fe c5 bf 3b
       0.13149586 -0.051741507 0.019402457 0.00585246
000360 dc ed ef 3d fc 5b b9 3d 82 9c 3f 3d 43 5f c1 3d
       0.1171529 0.09050748 0.046780117 0.09441998
000370 ab e2 b4 3d e5 14 06 3d 28 6e e9 3d e6 6d 0f 3d
       0.08832296 0.03273477 0.11397964 0.035016917
000380 ad b1 0e 3d 1c 72 39 3d 9f 30 71 3d dc ff 04 bd
       0.034837414 0.04527484 0.05888426 -0.03247057
000390 0c c6 0b 3d 7a 05 5e 3d 82 82 7f 3d 41 c7 37 3d
       0.03412442 0.05420444 0.06238032 0.044867758
0003a0 a7 2e 04 3e 67 95 1b 3c 3c f2 dc 3d 58 a6 25 3d
       0.12908421 0.0094960695 0.1078839 0.04044184
0003b0 61 cf 06 3e ce 04 42 bc a9 7a 20 3e 41 ce 0c 3e
       0.13165046 -0.011841966 0.15671791 0.13750555
0003c0 f4 11 39 3d 73 8c d6 3d a5 39 50 bc ef 43 d5 3c
       0.045183137 0.10476007 -0.012709056 0.02603337
0003d0 bd 70 23 3d cf 1b aa 3d 55 cf 1d bd 58 b7 61 bb
       0.039902437 0.08306085 -0.038527805 -0.0034441557
0003e0 21 f9 19 3d a5 37 45 3c f6 60 1d bc 7e 94 11 3e
       0.037591103 0.0120371925 -0.009605637 0.14216802
0003f0 03 34 93 3d 59 be 9b 3d a8 f4 b0 bd 62 07 1a bd
       0.07187655 0.07604665 -0.086404145 -0.037604697

gru.weight_ih_l0_reverse f4 [384, 100]
000000 69 c3 9b bd 32 54 b6 3d 79 2a c6 3b 09 cb 91 bc
       -0.07605631 0.08902778 0.0060475436 -0.01779701
000010 b3 84 14 bb d0 9a dd bc 01 ab 82 bd 50 64 32 bd
       -0.0022662103 -0.02705136 -0.06380273 -0.043552697
000020 9d 35 45 3d 15 5f ed bd 33 98 92 bc b2 ea 96 bc
       0.048146833 -0.11590401 -0.01789484 -0.018422458
000030 04 1a 81 3d c0 2d 0f bc 85 f2 93 3d ed 9b 26 3d
       0.0630379 -0.008738935 0.07223991 0.040676046
000040 d0 09 48 3d 32 26 4e 3d 71 dc bd 3d b9 1d 61 bd
       0.048837483 0.050329395 0.092705615 -0.054959986
000050 30 d9 d9 bd 32 71 4d bd 20 fc 3f bd d3 5c e5 bc
       -0.10637128 -0.05015678 -0.046871305 -0.027998364
000060 36 48 bb bd f9 20 13 bc 66 05 47 bd 8e 65 63 bd
       -0.091446325 -0.008980029 -0.048589133 -0.055516772
000070 de 8f aa bd 2b b9 84 bb 56 a6 d4 3b 2d 09 51 bd
       -0.08328222 -0.004050394 0.0064895554 -0.05103414
000080 c3 de 37 bd 9b 53 a1 3d e4 eb ac 3c 6e 32 eb 3c
       -0.044890177 0.078772746 0.021108575 0.02871057
000090 ef 9b aa 3d 67 a1 df 3c 94 99 f6 bc f8 d1 e9 3d
       0.08330523 0.027298642 -0.030102529 0.114170015
0000a0 09 2d dd bc e8 04 28 bd 2d e7 8b 3d c7 28 6b bd
       -0.026999013 -0.041020304 0.06831203 -0.057411935
0000b0 7d b3 bb bd 73 d3 2a bc b1 3b 6b 3d 5d 85 cc 3d
       -0.09165094 -0.01042639 0.057429973 0.099863745
0000c0 9f ad 49 bc c5 1e 3e 3d 9b ab 7c 3d 5a 8b 03 be
       -0.012309461 0.046416063 0.061687093 -0.12846127
0000d0 f3 49 30 3c 4b c3 fb bc 0d a4 59 bd 0f a5 b4 bc
       0.010759818 -0.030732771 -0.053134967 -0.022051362
0000e0 ad 7e b8 bd db 28 c3 3d e1 be 1b bc 86 ca 02 bd
       -0.090085365 0.09529277 -0.009505958 -0.031931423
0000f0 d7 c8 a7 bd be 0a 10 bd 00 a6 12 be b3 57 aa 3c
       -0.08192604 -0.035166495 -0.14321136 0.020793771
000100 75 5c 31 bd 11 6f d4 bd 7e 75 63 3d 8f 05 bd bd
       -0.043301065 -0.10372747 0.05553197 -0.09229576
000110 29 25 bb bb 81 35 a9 bc 3b 77 2a 3c 01 6f e7 3d
       -0.005711217 -0.020655395 0.010404403 0.11300469
000120 af 1d 44 3d 34 3b 22 bd b6 f2 26 bd 6f 94 00 bd
       0.04787987 -0.03960724 -0.04075881 -0.031391557
000130 fa 0e f3 bd 56 40 be bd c0 4b 89 3c 03 3a 2c bc
       -0.11868091 -0.09289615 0.016759753 -0.010511878
000140 4e 3e 99 bd d8 f2 d1 bd d2 a9 85 3d bd 73 99 3d
       -0.07482587 -0.10251397 0.06526531 0.074927785
000150 22 e6 5e 3d 12 de cc bd e4 c3 3f bd d8 89 9b bb
       0.05441869 -0.10003294 -0.046817675 -0.004746657
000160 2a 28 41 bd a7 ff 26 3c 59 a4 a6 bd 2b 66 a0 bc
       -0.047157444 0.010192788 -0.081368156 -0.019579967
000170 86 94 f2 bc 09 a8 fa bc 8b 4d 79 bd 18 1a 5f 3d
       -0.029611837 -0.030597704 -0.060864966 0.054468244
000180 03 02 83 3a 05 30 ec 3d f4 2f 59 ba 8e 8d cf 3c
       0.0009995106 0.115325965 -0.00082850386 0.025336053
000190 e4 2a 49 3d 6f cc c1 3c 6a 50 b6 bc 15 9f 67 bd
       0.04911317 0.023657052 -0.022255141 -0.056548197
0001a0 c2 9a 26 bd 9c 36 d7 3c 82 92 f9 3d 2a c7 ce bd
       -0.040674932 0.026271157 0.12186147 -0.10096581
0001b0 5e 98 3b bd 7c a2 c0 3c 2a 75 e5 bd 98 a2 a5 3d
       -0.045799606 0.023514979 -0.11203988 0.08087653
0001c0 6f 89 bb bd d3 16 bb 3d 52 d5 7f bd b6 8d a8 bb
       -0.09157073 0.09135213 -0.062459297 -0.0051438464
0001d0 a1 de 05 be 24 f5 11 bd 34 13 ae bd 8d c7 1c bc
       -0.13073207 -0.035634175 -0.084997565 -0.009569061
0001e0 10 9b 8d ba 9c 4a 53 3c 83 83 05 3d e6 50 5a 3d
       -0.0010803659 0.012896206 0.032596122 0.053299807
0001f0 7c 56 67 bd 35 a0 6f 3d ab 25 b3 3d 21 cf 02 3d
       -0.056478962 0.058502395 0.08747419 0.031935815
000200 cf 6c 83 3d 24 56 63 3d 61 45 85 bd f2 cc c1 bd
       0.06417238 0.055502072 -0.065073736 -0.09462918
000210 05 3b b6 bd f6 fa 94 bd 9f 9f 87 ba 15 c3 69 3d
       -0.08897976 -0.072744295 -0.0010347253 0.05707081
000220 d4 73 3b bd 7c 04 57 3d 6e 6d 2c bc 96 8b d3 3c
       -0.04576476 0.05249451 -0.010524137 0.025823396
000230 a4 34 81 3d bf f4 b8 bd 0c e6 60 bd a8 1b 87 bd
       0.063088685 -0.090310566 -0.05490689 -0.06597072
000240 3a 95 b5 3c e1 d6 26 bc 89 b2 33 bd e6 c9 8e bd
       0.022165883 -0.010183067 -0.043871436 -0.06972103
000250 8f c2 8b 3d 8e 54 8a bd 84 81 e1 bc 22 2a f2 3c
       0.068242185 -0.06754409 -0.027527578 0.029561106
000260 47 2a 80 3c 20 94 d2 bd 99 e4 a0 3d e0 85 76 bd
       0.01564516 -0.10282159 0.078561015 -0.060186267
000270 98 50 fd 3c c6 f0 0f 3d ba 38 f0 3c 24 b7 62 bd
       0.03092222 0.03514173 0.029323924 -0.055350438
000280 24 aa b1 bc 69 1f 07 3d 65 6e 60 3d 16 86 34 3d
       -0.021687575 0.03298894 0.05479278 0.044073187
000290 78 ef 69 bd 69 70 cf bd 05 27 81 bd 13 38 4f bd
       -0.05711314 -0.101288624 -0.063062705 -0.050590586
0002a0 54 b1 79 bd 50 66 aa bc bf c2 5f bd b1 fa 57 bd
       -0.06096013 -0.02080074 -0.054629084 -0.052729312
0002b0 7c c7 99 3d be f4 24 3c 1c 9d d3 bd 3f 04 1c 3d
       0.07508752 0.010068117 -0.103327006 0.038089987
0002c0 5c 9f e0 3c a3 11 72 bc d2 6e c4 3d 6e 82 62 bd
       0.027419738 -0.014774713 0.0959145 -0.05530017
0002d0 ff 35 23 bd f8 94 c0 3c 55 cb 9c 3d a3 ca 2b 3d
       -0.039846417 0.023508534 0.0765597 0.041941296
0002e0 ec 7b ad bb 1d c4 07 3e aa a8 35 bd 1d e4 93 3a
       -0.0052943137 0.13258405 -0.044350304 0.0011283193
0002f0 6f 2e 05 3c 7e 7c 99 bb c5 7e 70 3d ce a5 69 bd
       0.008128746 -0.00468403 0.058714647 -0.05704289
000300 a8 38 8a 3d a6 eb aa bd cc 00 24 3d d8 30 68 bd
       0.067490876 -0.083457276 0.040039822 -0.056687206
000310 8a 9b 14 bd b4 76 7a bc ab 8c 5e 3d 25 25 74 bd
       -0.036281146 -0.01528709 0.05433337 -0.059605736
000320 02 52 84 3d 47 51 ac 3b dc 56 a2 3d 7a 87 83 bc
       0.06460954 0.0052587125 0.07926723 -0.016055811
000330 af d3 2b bc 26 07 e2 3b 9b eb 03 3d 68 7e 21 bd
       -0.010487481 0.006897825 0.032207113 -0.03942719
000340 34 07 9e ba 78 5e 98 bd d9 2f ad bc 4d 95 c8 ba
       -0.001205659 -0.074398935 -0.02114098 -0.0015303284
000350 c1 a2 95 bd 08 72 93 bd 3f 1c 12 ba d6 85 9e 3d
       -0.073064335 -0.07199484 -0.0005573667 0.07740371
000360 20 bb 00 bd 67 24 8a 3d 2c 3e 30 bd ae c4 9b bb
       -0.031428456 0.067452244 -0.04302804 -0.0047536707
000370 10 c4 d9 bc 02 b5 85 bd ef 84 2f 3d eb 87 3f 3c
       -0.026582748 -0.06528665 0.042851385 0.01169012
000380 cb 95 b3 bd 3d 29 95 bd 91 45 9f bc ba 6c 63 3c
       -0.08768805 -0.07283256 -0.019442352 0.013880903
000390 12 20 8b bd 5a 3a 93 bd 16 ae a1 3d d1 52 eb bc
       -0.06793226 -0.07188864 0.078945324 -0.028726013
0003a0 b1 a6 f8 bc c1 67 5e 3d b8 27 79 3c e4 ab 01 bd
       -0.030352922 0.054298166 0.015207224 -0.03165807
0003b0 7c db 94 bb 70 07 c8 3d dd 20 87 3d 86 d4 ac 3d
       -0.004542766 0.097670436 0.06598065 0.08438973
0003c0 39 0b e5 bc c5 d3 82 3c 1a 8f ee bc 84 34 5a 3d
       -0.027959453 0.01597012 -0.02912097 0.05327274
0003d0 62 c1 57 bd d5 bd 02 3d 77 8b a4 3d c1 01 d9 bc
       -0.05267466 0.03191932 0.08034413 -0.026490094
0003e0 42 33 17 bd cd e9 8a bb 55 39 75 bd d5 dd 8f bd
       -0.036914118 -0.004239297 -0.05986913 -0.07024733
0003f0 37 16 b7 3d 13 85 47 3d 96 6c ae 3c 9a 88 87 bd
       0.08939784 0.048710894 0.021292012 -0.066178516

gru.weight_hh_l0_reverse f4 [384, 128]
000000 cc 01 0b bd ec c7 7a 3d aa 1f e4 bc 35 f5 90 bd
       -0.03393726 0.061225817 -0.02784713 -0.070780195
000010 d2 0a ef 3c 70 db 45 3d a9 13 98 3c 74 1a 65 3c
       0.029179964 0.048304975 0.018564062 0.013983358
000020 ca a8 2f 3d fe 67 d0 bc bb 95 80 3c 24 fd 0b bd
       0.04288558 -0.025440212 0.015696397 -0.03417696
000030 21 37 7d 3d 8e 60 c4 3d 94 66 81 bd 4f 7f 78 3d
       0.061820153 0.09588729 -0.06318393 0.060668286
000040 8a 7c 12 bd 7c ea a9 bc b1 03 2a 3d 79 67 48 3d
       -0.0357633 -0.020741694 0.041507427 0.048926804
000050 5e 05 96 3d c0 47 2e 3d 27 e0 1d bd e9 b4 67 bd
       0.073252425 0.042548895 -0.038543846 -0.056569014
000060 2d 79 92 bd 29 9b 99 bb 38 ae 08 3d 70 9d 93 bd
       -0.07152019 -0.004687686 0.033369273 -0.07207763
000070 9b f0 8d bd a4 d7 5d bd ce 3b 03 3d 2c 64 8e bc
       -0.069306575 -0.05416073 0.032039456 -0.01738175
000080 85 41 c6 3d 1c 26 8c 3d c7 bd 5f bd 6e d2 b9 bc
       0.096804656 0.06843206 -0.054624345 -0.022683349
000090 7c 3b b7 bc 2a 17 d0 bd ba 37 74 bd 16 26 39 3c
       -0.022367232 -0.10160668 -0.059623457 0.011300584
0000a0 23 0b 82 bd 51 29 e7 3d 1e 1c 65 bd 35 5c df bc
       -0.063497804 0.11287177 -0.055935018 -0.027265647
0000b0 1d 8f 47 3d 61 59 1a bc 47 7d 7a bc e7 ce e2 bc
       0.048720468 -0.009420724 -0.0152886575 -0.02768655
0000c0 ff a2 ac bd 41 a9 63 3d b2 9f bb 3c 0a d9 00 bd
       -0.084295265 0.055581335 0.022903297 -0.031456985
0000d0 c0 15 80 bd bd cc cc bd 81 b8 48 bd cc b0 43 3d
       -0.062541485 -0.09999988 -0.04900408 0.04777603
0000e0 65 55 2d bd c4 c6 83 3c 5e a5 cd 3d 3b a1 87 3d
       -0.042317767 0.01608599 0.10041307 0.06622549
0000f0 e8 15 86 3d f7 8c c9 3d c2 71 79 3d 0c 9b 9a ba
       0.06547147 0.0984134 0.060899504 -0.0011795475
000100 6f d3 1f 3d 94 50 08 3d 76 d5 af bd b8 7e 61 3d
       0.03902 0.03327997 -0.08585636 0.05505249
000110 ad 34 3d bd 53 9d 1f 3d 3c 10 9d 3d 14 21 e3 3d
       -0.046192814 0.038968395 0.07669112 0.110902935
000120 f8 18 04 bb 9a b9 20 bd 85 54 99 3d 29 b0 8f 3d
       -0.0020156484 -0.039239503 0.07486824 0.07016022
000130 49 cf 12 3d e3 d0 4e 3d e9 44 8a bd 5b d7 9d 3d
       0.035842214 0.05049218 -0.06751425 0.077070914
000140 d7 61 77 bd ef 70 1a 3c ba 80 3e 3c 2b b4 84 bd
       -0.06039604 0.0094263395 0.0116273705 -0.06479677
000150 a7 1e 86 bc cd 49 8c bc 92 c6 af 3c 12 84 50 3d
       -0.016372038 -0.017125035 0.02145699 0.050907202
000160 6a 3b 48 bc ca ec ad bb a3 21 83 3d 9e ce c6 3d
       -0.012221197 -0.0053077685 0.064029 0.09707378
000170 20 b3 d3 3c 99 14 33 3d b6 2c 4b 3d 35 c7 19 3d
       0.02584225 0.043720815 0.049603187 0.037543494
000180 c2 b7 c4 3d 4c 5d 23 bd 64 1f c4 3d 79 7f b3 3d
       0.096053615 -0.039883897 0.095763 0.08764548
000190 99 f4 6b 3c 4d 1a aa bd f4 a1 99 3d cc 88 4e bd
       0.014401578 -0.08305798 0.07501593 -0.05042343
0001a0 95 2a b7 bd c0 5b d3 bd 36 11 39 3d 11 18 f7 3b
       -0.08943669 -0.10320234 0.04518243 0.0075407107
0001b0 07 e5 13 3e 35 22 16 3c 3c 17 65 3d db 3d 4e 3d
       0.14442836 0.009163429 0.05593036 0.05035196
0001c0 08 41 10 be 2d 17 db 3b 12 1a 85 3a ef 50 26 3d
       -0.14087307 0.0066861124 0.0010154864 0.040604528
0001d0 6f fc 40 bc a0 c2 40 3c 0b 3c 1a bc 74 59 9c bd
       -0.011778935 0.011765152 -0.009413729 -0.07634249
0001e0 86 0b ea 3b 8a 26 8c 3d 80 1c 94 3d 03 20 7f bd
       0.007142487 0.06843288 0.072319984 -0.062286388
0001f0 2f aa bd bd 10 ef 83 3d 11 4e c1 3c 15 c8 48 bc
       -0.092609756 0.06442082 0.023596795 -0.0122547345
000200 f6 d0 28 3d ba 64 35 bd 18 87 b5 3c 77 84 99 bd
       0.041214906 -0.044285513 0.022159144 -0.07495969
000210 93 1b 87 3c 44 dc 0c 3e 80 5a f6 bb 2e 07 85 bc
       0.01649264 0.137559 -0.0075181127 -0.016238775
000220 1c a4 99 3d 11 f2 7a 3b 93 13 27 bd 12 bc 1d bd
       0.075020045 0.0038291255 -0.04079015 -0.038509436
000230 ca 82 b0 bb 97 9c 41 bd c6 3b 9d 3d 3f 89 85 3d
       -0.005386685 -0.047268476 0.076774165 0.06520318
000240 b4 44 e1 bd d7 42 8e bd d1 5e ed 3a 9a fe f9 bd
       -0.10999432 -0.069463424 0.0018109923 -0.122067645
000250 09 b6 86 3b b9 a9 0e 3d 1d 13 c9 3d f0 20 40 bc
       0.0041110558 0.03482983 0.09818099 -0.011726603
000260 07 c0 32 3d c2 84 a2 bc a0 0e 06 3e ea aa 16 3a
       0.043640163 -0.019838694 0.13091516 0.0005747514
000270 ec 95 82 bd 6d e1 5b ba fb 7c 3f bd f7 d7 93 3d
       -0.063762516 -0.0008387778 -0.04675005 0.072189264
000280 af 70 59 3c d4 24 aa bd ad cb ab 3a dc 4a ab bd
       0.013271495 -0.08307806 0.0013106965 -0.08363888
000290 56 8f 08 bd d3 93 a7 3c e8 99 2d 3c 6a be 60 bd
       -0.03333982 0.02045623 0.010595776 -0.054869093
0002a0 e7 bc a6 3d 39 eb 2e 3c c8 81 c1 3d d2 06 91 bd
       0.08141499 0.010676199 0.09448582 -0.07081379
0002b0 82 ba 98 3c 9b a3 9d 3d b4 e4 c8 bd 50 33 fe 3b
       0.018643621 0.07697221 -0.09809247 0.007757582
0002c0 c6 34 2f bd 59 3e af 3d b4 45 ca 3c fb 15 d5 3d
       -0.042774938 0.08556814 0.02469144 0.10404583
0002d0 99 55 a8 3c ae 40 22 3d 7d cc d5 bd bd b3 d6 3c
       0.020548629 0.039612465 -0.10439394 0.026208753
0002e0 3d dc 53 3d ee dc 28 3d ea ee da bd 69 0e 7f bd
       0.051723707 0.04122632 -0.106901005 -0.062269602
0002f0 40 fa 99 3d cc b2 2f bd 0b 58 ea bd e0 ad 0d bd
       0.075184345 -0.042895123 -0.11442574 -0.03458965
000300 ac ac 21 bd 3f 66 90 3d 9c 27 80 bc 5d 42 33 bd
       -0.039471313 0.07050752 -0.015643887 -0.04376446
000310 83 3f 9f 3d 08 9e 69 bc 77 56 94 3c 5b 69 fb 3d
       0.07775786 -0.014258869 0.018107636 0.12275954
000320 1c cd d1 3d 2f 00 8a 3d aa 4b ca bd a4 bb ad 3c
       0.102442 0.06738316 -0.09877713 0.021207638
000330 7d 4e a5 3d f5 c5 01 3d 74 5e ea 3b 40 de f6 3b
       0.08071611 0.031682927 0.007152373 0.0075338185
000340 eb ed c4 3c d3 c4 27 3d 4e 18 58 3b ea 13 2d 3d
       0.02403923 0.04095919 0.003297347 0.04225532
000350 6c 9c 92 3c 71 b3 e2 bd 3f ef 7a bc 98 74 32 bd
       0.017896853 -0.11069382 -0.01531583 -0.043568224
000360 d8 d7 c1 bd be 13 22 bd 8b 80 da 3d 42 e8 85 ba
       -0.09464997 -0.03956961 0.10669049 -0.0010216313
000370 bf a5 e2 bb ab 5a 40 3c bc cb 58 3c 5f a5 e5 3d
       -0.006916731 0.011740367 0.013232168 0.11213183
000380 3d bb ee bd cf 04 bc 3d e2 63 32 bd 52 17 49 3c
       -0.116568066 0.09180605 -0.043552287 0.012273626
000390 8a b2 5c 3d d1 e8 b1 3d e2 77 26 bc e5 43 50 bd
       0.053881206 0.08686984 -0.010160418 -0.050846
0003a0 41 08 d0 3c 4f 6a 9f 3d ee 6d e9 3c 7a 59 0e bd
       0.02539456 0.07783949 0.028494801 -0.0347533
0003b0 7c 79 a7 3c 17 c7 d3 3c fe cd 31 3d 3c 06 e3 3d
       0.02044367 0.02585177 0.04340934 0.110851735
0003c0 e7 81 a5 3d e0 84 8d bd a9 8a 5f 39 17 76 3e bc
       0.080814175 -0.069101095 0.00021318592 -0.0116248345
0003d0 63 a8 81 bd b9 90 2d 3d 19 7a b0 3d 97 fc 28 3d
       -0.06330945 0.042374346 0.08617038 0.041256513
0003e0 51 fa c8 3d a6 53 0e 3d c8 4d ea 3c 05 da dc 3c
       0.09813369 0.034747742 0.028601542 0.026959429
0003f0 e9 b0 38 3d f3 95 6b bc 7b c5 d8 bd 2d fc 14 3d
       0.04509059 -0.014379012 -0.105845414 0.036373306
