BiLSTM_best_model.pt (torch, 959233 bytes, 11 tensors)

embedding.weight f4 [27, 100]
2.7135155 2.0613344 0.74665135 0.9728604 -1.7684599 -0.768715 2.6199327 0.6150476
-0.12236739 -0.5583359 0.80783045 0.6724489 -0.40547776 -1.060696 -0.3596078 0.45624152
-0.19399977 0.27947748 1.681813 1.8157353 0.19111747 0.4256694 -0.2283085 1.7596853
1.5249819 -0.38514024 -1.2134268 -0.320369 -0.72687334 0.4162656 0.0709334 -0.74275696
-0.44057283 -0.51295906 0.1306695 -0.13815278 0.17487133 0.4837437 -0.075684465 -1.3457483
0.7094344 1.6822356 -0.084182486 0.12822674 -1.622408 -1.4486828 -1.3141971 -1.1873467
0.5888315 -2.1034315 -0.080075115 1.0363063 0.5485755 -1.2232962 -1.0612395 -1.0561601
0.57957375 0.7724865 0.28195038 -1.7257105 -1.3165715 -1.4097018 -0.56571543 0.25331002
0.7124304 -1.4461181 0.38301548 -0.27581862 0.5598927 1.4720211 -0.73254377 -0.21344246
2.2518368 -0.3186783 -0.44237208 -0.36982998 1.1284624 -0.09048202 -0.7406297 -0.81810284
0.3195073 -0.6563746 1.0403464 0.36839134 -2.7822886 0.023428448 0.6120599 0.88557357
-0.72130436 0.17116904 -0.63657707 0.531084 1.1221619 0.1357905 0.37482584 0.26384905
0.5827511 -0.47395125 0.29921332 0.4195697 0.8457366 1.4561111 -1.8189706 0.6048017
-2.9880798 -0.9141013 1.0090576 0.4102406 0.14339772 -1.1752015 -1.1235427 0.09785352
-1.3710186 -0.08140681 1.6250604 1.4338635 -0.9234072 1.6810209 0.38600102 -0.20316628
0.072861105 -0.24643026 0.6148084 -0.86161655 0.39421803 0.9028562 1.1041057 -0.33547026
-1.9277668 -1.4873683 -1.3243237 0.52731127 0.57644576 0.15835255 0.3531971 -0.7070242
0.2125017 -1.4215822 -0.7905249 -0.43205625 2.0146358 -0.010096027 -0.19557138 0.37429017
-0.56263644 1.6000994 0.9934949 1.3813499 -0.37613687 -1.4243913 1.0100787 0.17789684
0.07637629 -0.06766582 -0.5495752 -1.0299007 0.20865984 -0.60436124 -0.8850679 -0.9304293
-0.23190139 0.36203265 0.6025978 0.14389701 -1.1919837 0.39399686 1.1136372 0.19621263
-1.0292773 0.67157304 0.5679283 1.0091834 1.2104968 -0.61619675 -0.22712524 -0.20363353
2.053752 -2.4059713 -0.188569 -0.91431236 0.096260354 0.76576364 -0.14359042 -0.13329935
-0.8230006 0.25358602 0.9401624 -0.24080278 -1.0566037 1.655707 2.3633816 -0.79105884
0.33810174 0.8918334 0.82978964 -1.2380801 -0.29151294 -0.42289808 0.34118673 0.15766779
-0.62691617 -0.61708564 1.1471044 -0.0487615 1.2307111 0.21809207 1.0017947 1.5876738
0.301965 2.6905541 1.776646 -1.5318257 0.48082608 1.2744169 1.7224017 -0.08850101
-0.07847311 0.66331005 0.7487592 0.62499845 1.0564307 -0.03311414 -1.2586621 -0.7400248
0.1448661 1.2368548 0.5698319 1.1031127 -1.3128946 -2.2690802 -0.11275253 1.1233257
-0.8320828 -2.0345159 -0.998812 0.3413373 -0.31982034 1.2066718 0.8706149 1.2817316
0.83098984 -0.6445547 -1.1743805 0.7727821 0.25734732 -0.15859151 1.0241529 0.5902998
-0.31059474 -1.2544237 -0.066753015 0.16312304 -0.89535314 1.3586328 -0.9306318 -1.6133974
00000000: 3daa 2d40 e7ec 0340 8b24 3f3f 610d 793f
00000010: e55c e2bf 82ca 44bf faac 2740 c273 1d3f
00000020: c19b fabd 1aef 0ebf facd 4e3f 9c25 2c3f
00000030: c89a cfbe e3c4 87bf 831e b8be 7d98 e93e
00000040: e0a7 46be ac17 8f3e a645 d73f 046a e83f
00000050: 4cb4 433e 57f1 d93e b4c9 69be 5e3d e13f
00000060: 9b32 c33f 1a31 c5be 9251 9bbf 6807 a4be
00000070: 5f14 3abf c420 d53e 8845 913d 5225 3ebf
00000080: c392 e1be 4951 03bf 3ace 053e ec77 0dbe
00000090: 7811 333e 41ad f73e 7500 9bbd 7b41 acbf
000000a0: 7e9d 353f 7f53 d73f de67 acbd df4d 033e
000000b0: 11ab cfbf 706e b9bf 9c37 a8bf fafa 97bf
000000c0: a9bd 163f 9f9e 06c0 6cfe a3bd afa5 843f
000000d0: 726f 0c3f f894 9cbf b2d6 87bf 4130 87bf
000000e0: f25e 143f adc1 453f cd5b 903e 15e4 dcbf
000000f0: 6a85 a8bf 1c71 b4bf bad2 10bf dab1 813e
00000100: d761 363f 661a b9bf 9b1a c43e 1938 8dbe
00000110: 2155 0f3f 306b bc3f fd87 3bbf a990 5abe
00000120: 181e 1040 cd29 a3be 987e e2be 5b5a bdbe
00000130: 7571 903f a34e b9bd e899 3dbf 306f 51bf
00000140: 7696 a33e 2a08 28bf 122a 853f ca9d bc3e
00000150: 0411 32c0 04ed bf3c f5af 1c3f f3b4 623f
00000160: 67a7 38bf f046 2f3e b7f6 22bf 1ff5 073f
00000170: 00a3 8f3f aa0c 0b3e 2ce9 bf3e 3917 873e
00000180: 2d2f 153f bda9 f2be 7d32 993e d7d1 d63e
00000190: 3282 583f d961 ba3f 07d4 e8bf 49d4 1a3f
000001a0: b33c 3fc0 8b02 6abf cd28 813f 0e0b d23e
000001b0: dad6 123e 016d 96bf 3fd0 8fbf 6d67 c83d
000001c0: 8a7d afbf 9db8 a6bd fb01 d03f d788 b73f
000001d0: 6a64 6cbf b12b d73f eda1 c53e d20a 50be
000001e0: 3438 953d 3758 7cbe 1564 1d3f e792 5cbf
000001f0: f2d6 c93e 9521 673f 5653 8d3f c2c2 abbe
00000200: 10c1 f6bf 1662 bebf 7083 a9bf dffd 063f
00000210: f391 133f 2c27 223e 40d6 b43e 8aff 34bf
00000220: 0c9a 593e 68f6 b5bf d75f 4abf 7a36 ddbe
00000230: cbef 0040 ce69 25bc dd43 48be f6a2 bf3e
00000240: f108 10bf 0fd0 cc3f af55 7e3f 13d0 b03f
00000250: 0395 c0be 7452 b6bf 424a 813f 972a 363e
00000260: 2c6b 9c3d 6194 8abd f6b0 0cbf c9d3 83bf
00000270: edaa 553e 6bb7 1abf cf93 62bf 9d30 6ebf
00000280: 8f77 6dbe 585c b93e d943 1a3f bd59 133e
00000290: ec92 98bf f5b9 c93e aa8b 8e3f f7eb 483e
000002a0: 5cbf 83bf 36ec 2b3f c063 113f ec2c 813f
000002b0: 8ff1 9a3f 12bf 1dbf 8593 68be 4f85 50be
000002c0: ac70 0340 6ffb 19c0 3b18 41be 6010 6abf
000002d0: 2624 c53d 1609 443f 5e09 13be a07f 08be
000002e0: 2bb0 52bf 07d6 813e 7cae 703f 0195 76be
000002f0: ca3e 87bf 35ee d33f a541 1740 d582 4abf
00000300: ac1b ad3e 324f 643f 186d 543f 6979 9ebf
00000310: 2f41 95be 1986 d8be 07b0 ae3e aa73 213e
00000320: 947d 20bf 53f9 1dbf 51d4 923f 23ba 47bd
00000330: f187 9d3f 8753 5f3e cf3a 803f e538 cb3f
00000340: 289b 9a3e 0a32 2c40 2369 e33f dd12 c4bf
00000350: d62e f63e 1820 a33f a977 dc3f 0440 b5bd
00000360: 83b6 a0bd b0ce 293f afae 3f3f e6ff 1f3f
00000370: 1f39 873f b1a2 07bd d71b a1bf 4472 3dbf
00000380: c757 143e 4251 9e3f 81e0 113f cc32 8d3f
00000390: ee0c a8bf 9c38 11c0 ccea e6bd 23c9 8f3f
000003a0: 6103 55bf 8235 02c0 25b2 7fbf c3c3 ae3e
000003b0: 7ebf a3be 3974 9a3f 9ee0 5e3f c80f a43f
000003c0: c0bb 543f 8901 25bf 1a52 96bf 0cd5 453f
000003d0: 07c3 833e d065 22be 7117 833f e31d 173f
000003e0: 4606 9fbe f590 a0bf ceb5 88bd ba09 273e
000003f0: dd35 65bf aee7 ad3f e33d 6ebf ce83 cebf

lstm.weight_ih_l0 f4 [512, 100]
0.03753285 -0.12616013 0.06785015 -0.11588481 -0.01229828 0.0025973297 0.018916918 -0.032546423
-0.041401677 0.10696059 0.06216043 -0.031135622 -0.05021418 0.022890832 0.073892444 -0.0020967193
-0.025950368 0.010012878 -0.028210254 -0.022990447 -0.12290417 -0.03582922 0.08276755 0.014294548
-0.012896541 0.10825151 0.0822754 0.05094934 0.10689375 -0.084742196 -0.016514761 0.0732405
0.13969621 0.122200646 -0.12654468 0.06044686 -0.022553403 -0.061430626 0.030039629 0.0024838906
0.02669654 -0.049828656 -0.05158107 -0.052636735 0.098728254 0.058512136 0.07101724 -0.0021226245
-0.09221611 0.017671412 -0.0032984032 -0.026812697 -0.058170184 0.023606973 0.07286647 0.035207614
-0.09090719 -0.1089917 -0.113466725 0.07389732 0.11177271 0.122212194 0.01882905 -0.024108784
-0.13257037 0.0655359 -0.16785285 -0.031670284 -0.03053213 0.054605518 0.062595636 -0.055614978
-0.014653174 0.10602655 -0.010775698 0.04275868 -0.08809532 0.060240697 0.05580086 -0.041833777
-0.14380662 -0.015432029 -0.10147549 0.006481672 0.088824585 0.014705834 -0.039439183 -0.122822836
-0.021946695 -0.11227178 0.05650041 -0.026361937 -0.050734874 -0.07071665 -0.11141605 0.017260732
-0.00017644309 0.1347609 -0.05136668 -0.08112532 -0.03707731 -0.0740574 0.05886872 0.07988371
0.057009596 0.049007334 0.07550118 0.0045835786 -0.08257636 -0.055265468 -0.026115326 0.05628087
-0.079401515 -0.026706848 -0.084359944 0.0077757053 0.022955967 -0.020237768 0.07451754 0.072424196
0.005679201 -0.0075181383 0.060718242 0.089083426 0.07434119 -0.08741342 -0.028908625 0.022859095
0.045548618 0.0023325183 0.044648472 -0.035795674 -0.07136405 -0.06708224 0.026469303 0.063013256
-0.025350507 -0.039097898 0.028895106 0.048779428 0.10128139 0.044055007 -0.044326585 -0.04308911
-0.038102925 0.04176047 0.038926326 0.03029695 0.0028326868 0.07034815 -0.06381031 -0.07771144
-0.032106183 -0.05899528 -0.06991706 -0.030186206 0.056053653 0.024550578 0.019949222 -0.02044096
-0.012110623 -0.034341596 -0.021394728 0.019638991 0.08504839 -0.0061382204 0.05865826 -0.01663554
0.035289474 -0.06741584 -0.0059189997 -0.042843703 -0.043212634 0.049575865 0.032358803 -0.019446466
-0.010007951 -0.08697994 -0.07570696 -0.015313502 -0.011919997 -0.009469894 0.02216154 -0.012709811
-0.0474207 0.066488944 -0.024491359 0.091072865 0.06468662 -0.024536466 0.025710242 0.08465339
0.075818405 0.05886097 0.039990433 0.047468495 0.02605541 -0.0061351946 0.005827903 -0.002676461
-0.058586597 -0.044570018 -0.048687857 -0.027717557 0.029912813 -0.0021157118 -0.0825348 -0.06119118
0.068837725 0.00884058 0.029394282 0.023532268 0.052430395 -0.056698617 0.013108368 -0.016412338
0.01849433 -0.047048457 0.036029704 -0.010710107 -0.049210966 -0.08510383 0.087576754 0.016134366
-0.07648767 0.082279295 -0.0142551875 0.019659491 0.056771316 -0.07235105 -0.04369894 -0.030656923
0.10018366 0.11120157 0.02207931 0.10175512 -0.0019696397 -0.04496017 -0.04201413 0.02522923
-0.06829287 0.037572805 0.08289415 0.018296655 -0.016262583 0.04224633 -0.0062750718 -0.03838901
-0.10787269 -0.0064888312 0.10877672 0.08140663 0.045355614 0.039184887 -0.057893485 -0.0746885
00000000: 0cbc 193d 1f30 01be 05f5 8a3d 0455 edbd
00000010: ba7e 49bc f637 2a3b a7f7 9a3c 664f 05bd
00000020: ce94 29bd 270e db3d ef9b 7e3d 2210 ffbc
00000030: 62ad 4dbd 8e85 bb3c ec54 973d 1d69 09bb
00000040: de95 d4bc 0e0d 243c 3119 e7bc 7656 bcbc
00000050: 2eb5 fbbd a9c1 12bd 0982 a93d ae33 6a3c
00000060: 034c 53bc f8b2 dd3d 0180 a83d 41b0 503d
00000070: 1ceb da3d 518d adbd f749 87bc 1eff 953d
00000080: 860c 0f3e 5544 fa3d ee94 01be 2097 773d
00000090: eac1 b8bc ae9e 7bbd ab15 f63c c5c8 223b
000000a0: b4b2 da3c 2219 4cbd ac46 53bd 9e99 57bd
000000b0: 0a32 ca3d 6caa 6f3d 7d71 913d bb1b 0bbb
000000c0: cddb bcbd a3c3 903c 062a 58bb 4da6 dbbc
000000d0: dc43 6ebd 6963 c13c 043b 953d dc35 103d
000000e0: 8d2d babd 0a37 dfbd 3e61 e8bd 7a57 973d
000000f0: 17e9 e43d 634a fa3d 613f 9a3c c97f c5bc
00000100: 87c0 07be b037 863d 9ee1 2bbe b3b8 01bd
00000110: 841e fabc 09aa 5f3d 2432 803d 88cc 63bd
00000120: de13 70bc 7324 d93d 8e8c 30bc ba23 2f3d
00000130: 526b b4bd f3be 763d 718f 643d e559 2bbd
00000140: 0b42 13be 9fd6 7cbc 62d2 cfbd 3564 d43b
00000150: aae9 b53d bdf0 703c fb8a 21bd 8a8a fbbd
00000160: 8ec9 b3bc bfee e5bd f96c 673d fdf4 d7bc
00000170: 5fcf 4fbd e4d3 90bd 192e e4bd 6166 8d3c
00000180: 9503 39b9 c3fe 093e de65 52bd 0825 a6bd
00000190: 61de 17bd 68ab 97bd 5420 713d 129a a33d
000001a0: e582 693d eabb 483d 5da0 9a3d d831 963b
000001b0: cb1d a9bd 0b5e 62bd cfef d5bc c586 663d
000001c0: 439d a2bd 52c8 dabc e8c4 acbd 58cb fe3b
000001d0: 270e bc3c adc9 a5bc a79c 983d 2353 943d
000001e0: 9718 ba3b b75a f6bb b1b3 783d 5f71 b63d
000001f0: 3240 983d cf05 b3bd c8d1 ecbc ff42 bb3c
00000200: 3091 3a3d 2add 183b 51e1 363d 7c9e 12bd
00000210: 5127 92bd 6a62 89bd 27d6 d83c 180d 813d
00000220: deab cfbc 1e25 20bd 6eb5 ec3c f0cc 473d
00000230: 9e6c cf3d 0673 343d cb8f 35bd 357e 30bd
00000240: d011 1cbd 070d 2b3d 3671 1f3d 4f31 f83c
00000250: 99a4 393b b112 903d fbae 82bd 2d27 9fbd
00000260: c681 03bd 09a5 71bd ad30 8fbd 1049 f7bc
00000270: 8498 653d 4b1e c93c 8d6c a33c cd73 a7bc
00000280: a26b 46bc c6a9 0cbd ff43 afbc f3e1 a03c
00000290: da2d ae3d 2023 c9bb a543 703d 4247 88bc
000002a0: b28b 103d 5111 8abd 2bf4 c1bb e17c 2fbd
000002b0: bbff 30bd 1010 4b3d aa8a 043d 324e 9fbc
000002c0: 64f8 23bc 8a22 b2bd 400c 9bbd 7ce5 7abc
000002d0: 174c 43bc 9d27 1bbc 1e8c b53c d03c 50bc
000002e0: 353c 42bd 5b2b 883d 1aa2 c8bc 6984 ba3d
000002f0: 6b7a 843d b300 c9bc 499e d23c c25e ad3d
00000300: ae46 9b3d 3318 713d 02cd 233d 536e 423d
00000310: 2872 d53c be09 c9bb fef7 be3b 9067 2fbb
00000320: 80f8 6fbd 0d8f 36bd eb6c 47bd ee0f e3bc
00000330: b70b f53c c1a7 0abb 0108 a9bd 9aa3 7abd
00000340: cbfa 8c3d 14d8 103c 47cc f03c bec6 c03c
00000350: 41c1 563d cf3c 68bd 7bc4 563c 2b73 86bc
00000360: 6c81 973c e2b5 40bd e293 133d 7279 2fbc
00000370: 7091 49bd eb4a aebd 715b b33d 382c 843c
00000380: 91a5 9cbd 0c82 a83d 978e 69bc f10c a13c
00000390: 0a89 683d ca2c 94bd a9fd 32bd 3a24 fbbc
000003a0: 172d cd3d a6bd e33d abdf b43c fd64 d03d
000003b0: 1215 01bb 2828 38bd 0217 2cbd 88ad ce3c
000003c0: 22dd 8bbd f1e5 193d 68c4 a93d dee2 953c
000003d0: 1c39 85bc 7d0a 2d3d 1e9f cdbb cb3d 1dbd
000003e0: 5bec dcbd 43a0 d4bb 54c6 de3d 85b8 a63d
000003f0: cfc6 393d 5580 203d b821 6dbd 49f6 98bd

lstm.weight_hh_l0 f4 [512, 128]
0.058124363 0.11626895 0.09203631 0.10739584 0.07271496 0.038941883 0.08410885 0.09996727
-0.054302722 -0.043153577 0.08211039 -0.0115627255 0.03443673 -0.07512711 -0.036398776 0.0036469528
0.013983932 -0.014289478 0.0049840165 -0.065915234 -0.026110278 -0.0594394 -0.0490481 0.10771132
0.069390796 0.047256015 -0.097023614 0.011449595 -0.08918137 0.09023189 0.024087263 -0.041469995
0.025933845 0.007473456 0.041217472 0.011830248 0.08510487 -0.038684238 -0.08847914 -0.075558305
-0.0039819046 -0.009014246 -0.043008283 -0.0677818 -0.011912983 0.038131543 -0.06262826 -0.069007106
-0.02273202 -0.017860724 0.046644926 0.100751854 -0.028046606 0.062216785 -0.05847641 0.027246892
-0.118933514 -0.062176686 -0.025464457 -0.059006102 -0.034510028 -0.10157213 0.0077470155 0.020184675
-0.01595733 0.08915548 -0.02634428 0.07565035 -0.06280351 0.011909367 -0.03669838 0.018287979
-0.015682945 0.079540275 -0.019421546 0.020367198 0.070912115 0.0818609 -0.07773794 -0.07332347
0.050462876 -0.0024941973 0.089194 0.06404001 0.058968093 -0.07746225 0.055222288 0.057891116
-0.08982382 0.0789724 0.049885318 0.06258307 -0.05913198 0.040423486 0.0066576926 -0.029317526
0.10113467 -0.021129744 0.023082668 0.03703425 -0.08181945 0.08571321 0.02542265 0.04916101
0.042158216 0.031369705 0.05631594 -0.108152725 -0.12894815 0.0823962 -0.050913144 -0.042330958
0.016172519 -0.046992477 0.023566363 -0.024223605 0.07187855 -0.053179022 0.10794374 0.05409616
0.028902993 0.10056192 0.028360574 -0.08848043 -0.049095694 -0.055687964 -0.055843912 -0.021543948
-0.017503144 -0.07609957 -0.07371551 0.08346198 -0.017793449 -0.06805847 -0.051394545 0.0015479058
0.0037003558 0.09469623 0.063315526 0.037627883 -0.014077341 0.041474253 -0.04681802 0.017782357
0.008687361 -0.0507332 0.009291538 -0.058955755 0.019579222 0.0114840325 -0.007839603 -0.095383026
0.006847523 -0.026831051 -0.015915036 0.0771438 0.090076216 -0.046029944 -0.035283875 0.078038014
0.000446196 0.010459569 -0.058216713 0.079592034 0.0533773 -0.052322216 0.05894292 -0.034418378
-0.005107161 -0.08686547 -0.09252127 -0.008398666 -0.013875288 -0.059966635 -0.043840874 0.06138482
-0.07351355 0.03579354 -0.06875592 -0.080615014 -0.04296232 -0.059639163 -0.08077791 0.014448955
0.09015887 -0.006645206 -0.03600544 0.04267874 -0.040225495 0.092215195 0.084043615 -0.05863506
-0.04021516 0.005928126 -0.088985756 -0.020332769 -0.03667319 -0.0037602368 0.03724054 0.088871986
3.901367e-05 -0.047265112 -0.053403784 -0.077609725 0.03459388 -0.04445689 0.029440228 0.01061036
0.048519254 -0.008603205 -0.050237652 0.006062856 0.08925109 0.04297852 -0.040423807 -0.006881517
0.0039737364 -0.09258742 -0.02005378 0.07341743 -0.03550796 0.0023670602 -0.0661882 -0.051080316
0.08545078 -0.06593825 0.033344623 0.07383404 0.03282613 0.014123467 -0.03167835 -0.022586862
0.0009066691 -0.038187996 -0.038874596 0.02701415 -0.04030657 -0.02712799 0.091649495 0.038459867
-0.004332379 -0.011217863 0.0061403383 -0.012262859 -0.010228106 -0.0682633 -0.046965547 -0.055233013
-0.033136852 0.06523368 0.02770844 0.007098828 0.028519886 -0.0418242 0.071945496 0.00238305
00000000: d013 6e3d 6a1e ee3d 887d bc3d 5af2 db3d
00000010: 95eb 943d 8681 1f3d 4341 ac3d a4bb cc3d
00000020: 886c 5ebd cec1 30bd 7e29 a83d 9671 3dbc
00000030: 870d 0d3d 3edc 99bd e216 15bd b701 6f3b
00000040: dd1c 653c 6a1e 6abc f650 a33b 91fe 86bd
00000050: 39e5 d5bc ba76 73bd a9e6 48bd c197 dc3d
00000060: c31c 8e3d 868f 413d 51b4 c6bd 1597 3b3c
00000070: b9a4 b6bd 7fcb b83d a752 c53c 71dc 29bd
00000080: 3773 d43c e5e3 f43b a7d3 283d a8d3 413c
00000090: 764b ae3d 5d73 1ebd 8d34 b5bd 50be 9abd
000000a0: a37a 82bb 7db0 13bc 7429 30bd 2fd1 8abd
000000b0: ac2e 43bc d22f 1c3d 3f43 80bd 9953 8dbd
000000c0: 8038 babc a750 92bc c00e 3f3d fd56 ce3d
000000d0: ffc1 e5bc 07d7 7e3d f684 6fbd e034 df3c
000000e0: 6a93 f3bd fbac 7ebd d69a d0bc 62b0 71bd
000000f0: 635a 0dbd 0d05 d0bd adda fd3b 555a a53c
00000100: f2b8 82bc 2697 b63d f6cf d7bc 92ee 9a3d
00000110: 209f 80bd 811f 433c 0a51 16bd acd0 953c
00000120: 8579 80bc 03e6 a23d ef19 9fbc 1cd9 a63c
00000130: 5f3a 913d b0a6 a73d 1235 9fbd 9e2a 96bd
00000140: 29b2 4e3d b075 23bb 58ab b63d 6927 833d
00000150: 8788 713d 87a4 9ebd c430 623d 3c1f 6d3d
00000160: 8df5 b7bd 48bc a13d 8c54 4c3d 8d2b 803d
00000170: 6034 72bd 1993 253d c628 da3b 4f2b f0bc
00000180: b21f cf3d 4918 adbc dd17 bd3c 3ab1 173d
00000190: f590 a7bd 688a af3d 2943 d03c 0e5d 493d
000001a0: 18ae 2c3d 857d 003d 8bab 663d 2d7f ddbd
000001b0: fc0a 04be 57bf a83d 4d8a 50bd 3a63 2dbd
000001c0: 3b7c 843c 2f7b 40bd 3f0e c13c 9570 c6bc
000001d0: 1035 933d 3fd2 59bd 9c11 dd3d ef93 5d3d
000001e0: f8c5 ec3c 68f3 cd3d 6f54 e83c 3a35 b5bd
000001f0: 9118 49bd 1019 64bd 96bc 64bd ef7c b0bc
00000200: c162 8fbc 17da 9bbd 28f8 96bd 1dee aa3d
00000210: 91c3 91bc 3d62 8bbd 1683 52bd 1ae3 ca3a
00000220: ab81 723b 19f0 c13d 92ab 813d b21f 1a3d
00000230: a6a4 66bc e8e0 293d 41c4 3fbd 4eac 913c
00000240: 6f55 0e3c 9ecd 4fbd 893b 183c 977b 71bd
00000250: 9b64 a03c 8627 3c3c ae71 00bc 2d58 c3bd
00000260: 3061 e03b cbcc dbbc 4060 82bc 92fd 9d3d
00000270: e179 b83d e589 3cbd d385 10bd 65d2 9f3d
00000280: 6aef e939 9d5e 2b3c a674 6ebd 2601 a33d
00000290: 28a2 5a3d d24f 56bd 226e 713d 49fa 0cbd
000002a0: f959 a7bb 86e6 b1bd cb7b bdbd 8f9a 09bc
000002b0: 2d55 63bc 939f 75bd 7d92 33bd a66e 7b3d
000002c0: 468e 96bd 3f9c 123d e7cf 8cbd 7c19 a5bd
000002d0: 42f9 2fbd 3248 74bd e46e a5bd 4fbb 6c3c
000002e0: 37a5 b83d 07c0 d9bb 717a 13bd e7cf 2e3d
000002f0: 7dc3 24bd 52db bc3d 0f1f ac3d 512b 70bd
00000300: a7b8 24bd ba40 c23b 2a3e b6bd e890 a6bc
00000310: a036 16bd 4e6e 76bb 8989 183d 8402 b63d
00000320: 9ca2 2338 1099 41bd edbd 5abd d9f1 9ebd
00000330: 50b2 0d3d 6e18 36bd a22c f13c 13d7 2d3c
00000340: 20bc 463d 75f4 0cbc ffc5 4dbd ecaa c63b
00000350: 47c9 b63d 3f0a 303d 6f93 25bd 597e e1bb
00000360: 1e36 823b 799e bdbd d347 a4bc e15b 963d
00000370: cb70 11bd ae20 1b3b ae8d 87bd 9839 51bd
00000380: d200 af3d a20a 87bd 5f94 083d 4d36 973d
00000390: b174 063d 1d66 673c 28c1 01bd 1508 b9bc
000003a0: 89ad 6d3a 046b 1cbd f83a 1fbd c74c dd3c
000003b0: 8018 25bd 853b debc bbb2 bb3d 1888 1d3d
000003c0: a1f6 8dbb 21cb 37bc e434 c93b 29ea 48bc
000003d0: c993 27bc a1cd 8bbd f25e 40bd 033c 62bd
000003e0: 82ba 07bd 3c99 853d cffc e23c 499d e83b
000003f0: 89a2 e93c da4f 2bbd 2958 933d f22c 1c3b

lstm.bias_ih_l0 f4 [512]
0.019908333 -0.05098025 -0.11745446 -0.032816257 -0.10714979 -0.028762499 -0.11189663 -0.108769685
-0.12554471 -0.11532694 0.003950184 -0.029193358 -0.029923838 0.031661525 -0.014768174 -0.13102868
-0.013262349 -0.029018652 0.04071808 -0.04663208 -0.0142568005 -0.05860889 -0.009956402 0.07910044
0.01567691 0.08186558 0.040099245 -0.118266925 0.014015383 -0.038984936 0.0009986022 -0.019836325
0.023922596 -0.10562737 -0.08986728 0.0010750502 0.030789657 -0.06476654 -0.009396335 -0.0090190265
-0.10996135 -0.023918683 -0.04902429 -0.05879766 0.036969513 -0.04970961 -0.022523386 0.016607987
0.03229347 -0.11137198 -0.10577824 -0.12939404 -0.05546912 -0.089927144 -0.06723126 -0.007436268
-0.042058203 0.03354604 -0.1213642 -0.0021598313 0.027110778 -0.018945787 0.046460476 0.025819924
-0.03177375 -0.06231299 -0.093440406 -0.01890952 -0.02525535 -0.089570016 0.03635866 -0.03566483
-0.026371961 -0.11025408 0.03956824 -0.052332748 -0.01729273 -0.065621786 0.023790497 0.0020036323
-0.042656075 -0.055649806 -0.047939707 -0.1217806 -0.053081814 -0.016564205 -0.07415055 -0.07915526
-0.06517336 0.007502854 -0.04785449 -0.0045686085 -0.05591003 -0.10969258 -0.038173042 -0.0640169
-0.08243756 -0.03631097 0.053465236 -0.08705737 -0.08786912 -0.020132545 -0.0037377328 -0.058739904
0.051216245 -0.108411275 -0.10869692 -0.041187428 -0.03968654 0.043096475 -0.098310865 0.0059484504
0.005984684 -0.10080282 -0.01896521 -0.07899309 -0.11308519 -0.12519771 0.07005908 -0.11594389
-0.002105315 -0.03134775 0.041009385 -0.085580304 -0.1108344 -0.06587434 0.017805444 -0.0022564896
-0.0059246495 0.020261882 -0.03328643 0.034413617 -0.10586026 -0.013055695 -0.024411742 0.009947839
-0.08304668 -0.10537496 0.03353292 -0.080478504 0.009495184 0.025708577 0.034566637 -0.0818483
-0.010863142 -0.061002698 0.010904741 -0.014844564 0.06637438 -0.08933462 -0.015745873 -0.08957436
-0.053889606 -0.05313935 -0.1163441 -0.021171806 -0.0076934514 0.041839845 -0.047777064 0.019273032
-0.11391406 -0.09996423 -0.086471066 0.067564905 -0.055181634 0.027227398 -0.10480563 -0.05529506
0.0011485233 -0.069390714 -0.07998822 -0.088289335 0.045416795 -0.007591269 -0.031380937 -0.069447055
-0.046964906 -0.0012170044 -0.05011389 0.05359568 0.032242354 -0.09363827 -0.06763699 0.018472223
-0.014406532 0.06418836 0.0006004505 0.06845189 -0.027653232 0.030108519 0.05957168 -0.08565082
0.07246535 0.044731934 -0.042270295 -0.0682862 -0.02914998 -0.05608397 0.031984743 0.0037191687
-0.0051568453 -0.021688797 -0.041957244 -0.08536162 -0.030370554 -0.056043472 -0.04463737 0.03921587
-0.021437716 0.06236345 -0.04486519 2.0587024e-06 -0.0813586 0.04027685 -0.036887746 0.013828905
0.0027846727 0.049892027 0.0558654 -0.022272587 -0.0020637752 -0.06372135 -0.020722289 0.012161827
-0.032679167 -0.058913723 0.042696554 0.06874621 -0.039666116 -0.012548492 -0.075774975 0.052576374
0.08408708 0.025508119 -0.023509901 -0.096682206 0.07481109 0.019893724 -0.0031920862 0.060736798
-0.10915546 0.05592524 -0.023248313 0.060658015 0.06307105 0.036467128 0.07868825 -0.010011327
-0.053706292 0.0021122592 -0.10544549 0.014462656 0.03836524 0.041943222 0.006803344 -0.105638504
00000000: cd16 a33c abd0 50bd f78b f0bd 576a 06bd
00000010: 5971 dbbd 559f ebbc 0f2a e5bd a4c2 debd
00000020: cb8e 00be 8830 ecbd 8c70 813b e926 efbc
00000030: d622 f5bc 84af 013d 36f6 71bc 622c 06be
00000040: 534a 59bc 86b8 edbc 00c8 263d 4801 3fbd
00000050: 5b95 69bc e00f 70bd 2d20 23bc 69ff a13d
00000060: dd6c 803c 24a9 a73d 1b3f 243d ee35 f2bd
00000070: c7a0 653c abae 1fbd 88e3 823a ca7f a2bc
00000080: 52f9 c33c 2a53 d8bd 560c b8bd b3e8 8c3a
00000090: 973a fc3c 52a4 84bd 16f3 19bc 8ac4 13bc
000000a0: 6b33 e1bd 1df1 c3bc b2cd 48bd d1d5 70bd
000000b0: 586d 173d 4e9c 4bbd f782 b8bc 790d 883c
000000c0: 2846 043d fe16 e4bd 43a2 d8bd df7f 04be
000000d0: 9733 63bd b92b b8bd 8bb0 89bd f0ab f3bb
000000e0: 3945 2cbd 9367 093d cb8d f8bd f58b 0dbb
000000f0: 6c17 de3c 3234 9bbc 574d 3e3d 4e84 d33c
00000100: 3125 02bd e83b 7fbd af5d bfbd 23e8 9abc
00000110: 4fe4 cebc 7c70 b7bd d1ec 143d 4915 12bd
00000120: 030a d8bc e4cc e1bd 4f12 223d dd5a 56bd
00000130: 7ca9 8dbc b764 86bd 4ae4 c23c 5f4f 033b
00000140: 23b8 2ebd 0df1 63bd 6d5c 44bd 1b68 f9bd
00000150: 516c 59bd a8b1 87bc 3edc 97bd 271c a2bd
00000160: 9c79 85bd 80da f53b 1203 44bd 44b4 95bb
00000170: ea01 65bd 81a6 e0bd 565b 1cbd 4b1b 83bd
00000180: 06d5 a8bd d0ba 14bd 5dfe 5a3d 224b b2bd
00000190: baf4 b3bd 02ed a4bc c0f4 74bb 4199 70bd
000001a0: 20c8 513d bb06 debd 7e9c debd 26b4 28bd
000001b0: 5a8e 22bd ee85 303d 3557 c9bd 38eb c23b
000001c0: 2b1b c43b b571 cebd ee5c 9bbc 21c7 a1bd
000001d0: 3599 e7bd d433 00be 237b 8f3d fd73 edbd
000001e0: 53f9 09bb 8066 00bd 75f9 273d ba44 afbd
000001f0: 25fd e2bd 20e9 86bd b9dc 913c 9de1 13bb
00000200: 9023 c2bb 3ffc a53c 5a57 08bd 4bf5 0c3d
00000210: 44cd d8bd 8ee7 55bc 22fb c7bc 43fc 223c
00000220: 6114 aabd d4ce d7bd d159 093d ead1 a4bd
00000230: b091 1b3c cb9a d23c bf95 0d3d 15a0 a7bd
00000240: 52fb 31bc f7dd 79bd cca9 323c 9d36 73bc
00000250: 4aef 873d 12f5 b6bd 7dfd 80bc c372 b7bd
00000260: 59bb 5cbd a6a8 59bd d145 eebd 7f70 adbc
00000270: 5919 fcbb 4260 2b3d e2b1 43bd 7ae2 9d3c
00000280: c64b e9bd 0cba ccbd be17 b1bd 785f 8a3d
00000290: 2306 62bd fe0b df3c 56a4 d6bd 137d 62bd
000002a0: 0c8a 963a b81c 8ebd ddd0 a3bd 0ad1 b4bd
000002b0: f606 3a3d 2ec0 f8bb 4c89 00bd 423a 8ebd
000002c0: 465e 40bd e483 9fba 3944 4dbd 2587 5b3d
000002d0: 8f10 043d 6cc5 bfbd 4385 8abd 0f53 973c
000002e0: 6009 6cbc 3075 833d 8d67 1d3a 8130 8c3d
000002f0: 0889 e2bc 24a6 f63c 6f01 743d b269 afbd
00000300: b768 943d d538 373d 9e23 2dbd a3d9 8bbd
00000310: f0cb eebc 4eb8 65bd 6f02 033d 4cbd 733b
00000320: c1fa a8bb b4ac b1bc 5cdb 2bbd 13d2 aebd
00000330: abcb f8bc d78d 65bd add5 36bd d2a0 203d
00000340: 269e afbc d170 7f3d 90c4 37bd 3d28 0a36
00000350: 569f a6bd 57f9 243d 9b17 17bd a292 623c
00000360: 0e7f 363b 955b 4c3d 1ed3 643d 0075 b6bc
00000370: 6740 07bb 5780 82bd cac1 a9bc 6642 473c
00000380: 97da 05bd 844f 71bd 95e2 2e3d d0ca 8c3d
00000390: f078 22bd 3198 4dbc e92f 9bbd 535a 573d
000003a0: d935 ac3d 67f6 d03c d697 c0bc 5201 c6bd
000003b0: 8f36 993d 2af8 a23c 5232 51bb 26c7 783d
000003c0: e68c dfbd dd11 653d 3f73 bebc 8a74 783d
000003d0: 652b 813d 8e5e 153d 4e27 a13d 8d06 24bc
000003e0: 21fb 5bbd d46d 0a3b cef3 d7bd c7f4 6c3c
000003f0: df24 1d3d a8cc 2b3d 96ee de3b 0059 d8bd

lstm.bias_hh_l0 f4 [512]
-0.06291609 -0.06148552 -0.059724454 0.016613621 -0.027628455 -0.07936765 -0.06476553 -0.0067508873
0.0005805826 -0.06808116 -0.037605684 -0.117074765 -0.038453467 0.027700827 0.04755075 -0.00019297459
-0.11012323 -0.05725207 0.09123184 0.007961574 -0.10107371 0.040905755 -0.11223981 0.051550668
-0.037069395 0.040824678 0.059295934 -0.08818519 0.07424681 0.013561216 -0.052311633 -0.0808998
-0.02557322 0.018061282 -0.0008379247 -0.069338225 -0.10875647 -0.020801943 -0.08438856 -0.033216663
0.0038586166 -0.029294683 0.0057511907 -0.09241454 -0.052405465 0.029942483 -0.008120068 -0.01413946
-0.039439365 0.015597766 -0.10852196 -0.101150595 -0.10339239 -0.11794695 -0.042473268 -0.10314715
-0.104105115 0.03946284 -0.0801257 -0.07035313 0.04327898 0.08621315 0.052650046 -0.08863916
-0.056795742 0.011272878 -0.0022246602 -0.07999576 0.047240127 -0.045306254 0.02430083 0.00963249
-0.075798154 -0.13866809 0.046775922 -0.019107657 -0.08699506 -0.11427231 0.03112584 0.036480065
0.0270339 -0.120019846 -0.11381905 -0.11993313 -0.12961392 -0.11431931 0.025779502 -0.028459592
-0.076848246 -0.02179452 0.057428617 -0.032818735 -0.027666602 -0.029085178 -0.0041361894 -0.012816763
-0.04317893 0.100720674 0.03408753 -0.048587 0.003973977 -0.055208046 -0.0012524714 -0.043401122
0.071740136 -0.007196536 -0.016854366 0.01624904 -0.04101354 6.7468434e-05 -0.0030337363 0.058952514
-0.039483156 0.026603324 -0.08944375 -0.12875775 -0.10062443 0.011248048 -0.038258374 -0.10717253
0.031057987 0.026567424 -0.0021182143 -0.006153708 -0.11584062 -0.028786534 -0.02599058 0.011464044
-0.0722989 0.059803396 -0.100407176 -0.09322354 -0.05947632 0.017111165 0.017447092 -0.07911441
-0.067131154 -0.03332116 -0.1172852 -0.07630926 0.032517154 0.003995865 -0.01796554 -0.083900504
0.015620187 0.06809634 0.057654224 -0.030002039 -0.09302081 -0.08824123 -0.06726397 -0.032936677
0.006494983 -0.090612456 0.018523742 -0.048561137 -0.06411513 -0.070676684 -0.10881311 0.02425214
-0.0684784 -0.04799631 0.025512373 0.06331078 0.029081559 -0.07693236 -0.106877916 0.05502432
0.064619154 0.0073338407 -0.10204536 -0.03201732 0.02391801 -0.10001893 -0.028459243 -0.0435268
0.014870016 -0.10671984 -0.110736325 0.05656664 0.06513472 -0.09426246 -0.086015925 -0.005018901
-0.09426929 -0.023187615 0.03689021 0.028443009 -0.10419772 0.027699009 0.08447677 -0.101118565
-0.052221037 0.028720105 0.023430333 -0.027512798 0.053353153 -0.016427591 -0.05140869 -0.084402636
-0.018070621 -0.07301211 0.030926254 0.053906012 -0.06260607 -0.05698901 0.017137837 0.018356945
-0.07010752 0.04472187 -0.03009608 0.059537753 -0.063344546 -0.09344554 -0.041801296 -0.068198636
0.081979446 0.022859504 0.028402703 -0.10417901 -0.04564329 -0.01851509 -0.007961963 -0.07034054
0.04191933 -0.028610434 0.010250995 -0.08876413 -8.551582e-05 -0.10634285 -0.1015678 -0.0024290977
0.08098934 0.048195295 -0.053142853 -0.09327642 -0.03406364 -0.031890795 0.040075216 0.009310336
0.05106927 0.010378067 -0.10119589 0.047912646 -0.047430187 0.034427635 -0.015548142 -0.007033005
-0.10859079 -0.050466817 -0.059742913 0.021898456 0.0021997981 -0.06650801 -0.03909881 -0.058818627
00000000: 27da 80bd 3ed8 7bbd a1a1 74bd 4a19 883c
00000010: 1255 e2bc 828b a2bd caa3 84bd 8c36 ddbb
00000020: 3d32 183a 236e 8bbd 6b08 1abd e5c4 efbd
00000030: 6281 1dbd d8ec e23c 93c4 423d 3959 4ab9
00000040: 4a88 e1bd 2681 6abd c2d7 ba3d 4371 023c
00000050: bcff cebd cb8c 273d fcdd e5bd cb26 533d
00000060: 14d6 17bd c737 273d 4be0 723d 709a b4bd
00000070: b60e 983d dd2f 5e3c b944 56bd cbae a5bd
00000080: ee7e d1bc 41f5 933c 2da8 5bba 3301 8ebd
00000090: b6bb debd d668 aabc e9d3 acbd 320e 08bd
000000a0: d8e0 7c3b 67fb efbc 7c74 bc3b d643 bdbd
000000b0: 1da7 56bd f049 f53c 090a 05bc 32a9 67bc
000000c0: 2c8b 21bd c68d 7f3c c340 debd 0b28 cfbd
000000d0: 64bf d3bd 2c8e f1bd 73f8 2dbd d03e d3bd
000000e0: 1035 d5bd c9a3 213d f118 a4bd 4d15 90bd
000000f0: 4d45 313d 8590 b03d 93a7 573d 7388 b5bd
00000100: a7a2 68bd e1b1 383c 9bcb 11bb d1d4 a3bd
00000110: dd7e 413d 0d93 39bd 8912 c73c 97d1 1d3c
00000120: 103c 9bbd 02ff 0dbe 1c98 3f3d a987 9cbc
00000130: 772a b2bd 9a07 eabd 9efb fe3c 1f6c 153d
00000140: 3376 dd3c f7cc f5bd f619 e9bd 809f f5bd
00000150: 83b9 04be 3e20 eabd 892f d33c 1724 e9bc
00000160: 9d62 9dbd 6c8a b2bc 453a 6b3d f06c 06bd
00000170: 12a5 e2bc 0a44 eebc df88 87bb 66fd 51bc
00000180: 64dc 30bd a446 ce3d 5e9f 0b3d 2a03 47bd
00000190: 2338 823b d521 62bd f729 a4ba 60c5 31bd
000001a0: 7eec 923d ebd0 ebbb 2b12 8abc b51c 853c
000001b0: d0fd 27bd d77d 8d38 a6d1 46bb 3178 713d
000001c0: 17b9 21bd 37ef d93c 492e b7bd 12d9 03be
000001d0: 2e14 cebd bc49 383c d0b4 1cbd 457d dbbd
000001e0: 526d fe3c eda3 d93c bdd1 0abb 0ba5 c9bb
000001f0: d93d edbd bdd1 ebbc 32ea d4bc b0d3 3b3c
00000200: 7211 94bd 68f4 743d 47a2 cdbd fceb bebd
00000210: 719d 73bd b72c 8c3c 34ed 8e3c bc06 a2bd
00000220: 0f7c 89bd c57b 08bd 3933 f0bd 0848 9cbd
00000230: b530 053d bfef 823b 782c 93bc 07d4 abbd
00000240: d0eb 7f3c 1876 8b3d d626 6c3d d6c6 f5bc
00000250: b281 bebd d1b7 b4bd b1c1 89bd 9ce8 06bd
00000260: ded3 d43b 0693 b9bd 1abf 973c 0be8 46bd
00000270: cb4e 83bd f0be 90bd 68d9 debd 6dac c63c
00000280: 673e 8cbd c797 44bd 53ff d03c 15a9 813d
00000290: 733c ee3c b78e 9dbd cfe2 dabd 2e61 613d
000002a0: 0c57 843d b750 f03b 28fd d0bd 9824 03bd
000002b0: b4ef c33c bad6 ccbd 5c23 e9bc 2849 32bd
000002c0: 5ea1 733c ee8f dabd bac9 e2bd 6cb2 673d
000002d0: 5a65 853d ad0c c1bd 1e29 b0bd 9875 a4bb
000002e0: 4210 c1bd f4f3 bdbc 301a 173d 5001 e93c
000002f0: 9d65 d5bd 08e9 e23c 2802 ad3d 4017 cfbd
00000300: bae5 55bd 6d46 eb3c f8f0 bf3c 8562 e1bc
00000310: d688 5a3d 2893 86bc eb91 52bd 4adb acbd
00000320: d708 94bc 6087 95bd 0e59 fd3c 8dcc 5c3d
00000330: 9c37 80bd 4f6d 69bd a664 8c3c 4e61 963c
00000340: 8894 8fbd 482e 373d 0e8c f6bc dcdd 733d
00000350: c9ba 81bd 6060 bfbd d637 2bbd baab 8bbd
00000360: d7e4 a73d db43 bb3c c9ac e83c ce5b d5bd
00000370: 75f4 3abd f5ac 97bc e572 02bc b30e 90bd
00000380: 9ab3 2b3d 6e60 eabc caf3 273c f8c9 b5bd
00000390: f556 b3b8 48ca d9bd c702 d0bd 7f31 1fbb
000003a0: bddd a53d 6e68 453d 52ac 59bd b507 bfbd
000003b0: 5186 0bbd ec9f 02bd e925 243d 618a 183c
000003c0: 032e 513d c508 2a3c ca3f cfbd 0d40 443d
000003d0: 2846 42bd fe03 0d3d a2bd 7ebc 1f75 e6bb
000003e0: d964 debd 4bb6 4ebd fcb4 74bd 6464 b33c
000003f0: 7d2a 103b 5a35 88bd 1326 20bd cdeb 70bd

lstm.weight_ih_l0_reverse f4 [512, 100]
-0.012296916 0.077901 -0.11149691 -0.13109878 0.047219925 -0.0023118507 -0.048585124 -0.1208803
0.10778414 0.07042647 -0.05264758 -0.07375514 0.07655969 0.09328149 -0.0025712885 -0.0900795
0.21220712 -0.1443577 -0.062650084 0.014840071 -0.08855845 -0.09596433 0.0033239527 -0.15510333
0.07157117 0.22932424 0.10284866 -0.04247065 0.022845306 -0.11778056 0.13419208 1.0143412e-05
0.07636226 -0.0027810824 0.079282455 -0.053942032 -0.1641148 -0.14339362 0.091358356 0.14686766
-0.049584527 -0.08568121 0.06697983 -0.14346747 0.088794515 0.18769968 0.17598747 0.11532075
-0.049186315 -0.008201544 -0.055827536 0.05934485 -0.194779 0.047798384 0.07368761 0.037566938
0.032040834 -0.107823655 -0.106656075 0.09823141 0.1001613 0.07078652 0.18023804 -0.12854743
-0.10972112 0.21816127 0.010974986 0.03497435 -0.041669663 0.013272459 0.13532229 0.09082989
-0.08592102 0.025624925 0.026609186 -0.010657265 0.015511436 0.10073612 0.07762661 0.08124126
0.019724678 -0.01344148 -0.08486146 -0.07119412 0.16829208 -0.15092145 0.09795041 0.0046411613
-0.00029832922 -0.1956348 0.07687301 -0.083704114 -0.07816894 -0.10924797 -0.16458525 -0.0028052926
-0.024454013 0.02843234 -0.010470868 0.07750968 0.034051225 -0.15065075 -0.10598202 -0.04950574
0.08808205 -0.010165615 0.0039832643 0.061927218 0.047149595 0.00847001 -0.0579143 -0.097754814
-0.038909685 -0.01468559 0.057515517 -0.10823789 0.02517762 0.042193945 -0.035120167 0.0073971516
-0.023485908 -0.024700508 0.058878966 -0.017410614 -0.15607166 0.0887846 0.07632441 0.08834923
0.13306874 -0.05161982 -0.013893578 0.055559646 0.069845475 0.0051325043 -0.08519092 0.0008964556
-0.10725787 -0.049974784 0.13674657 -0.025499312 -0.021859704 -0.036670662 0.04129701 0.03264984
0.027579565 0.077967934 0.12989989 0.060477097 -0.027761856 0.031491455 0.008069929 0.050519116
-0.0360724 0.07504462 0.16538079 -0.04415921 -0.15416232 0.013774809 0.0958453 -0.044427782
0.07103493 -0.021989418 0.0046367035 -0.044040184 -0.09906869 -0.053792812 0.023777723 0.045990232
-0.121034734 0.023740713 0.055221852 0.07757924 -0.049306165 0.0034851485 0.027195184 0.009359685
-0.09230987 -0.030744994 0.030014297 0.03508017 -0.094473936 0.1335774 0.058513604 -0.08787684
0.09970054 -0.05901971 -0.11675734 -0.07347941 0.02783208 0.034313813 -0.006006762 -0.016793748
-0.11277495 -0.15307884 -0.01851046 -0.0002700172 0.032594535 -0.017108675 -0.08943841 -0.058226477
-0.04629065 0.008853397 -0.03425906 -0.043942273 0.03574767 0.054771494 -0.042020243 0.0010216712
0.015724098 0.047636848 0.0048928657 -0.046103377 0.09940587 0.051202033 -0.027065817 -0.040383868
0.09548342 -0.034383375 -0.062528126 -0.07253564 -0.08299533 -0.06744352 0.047774326 -0.030991213
-0.098380156 0.084967874 0.089092255 0.030985877 -0.022249177 -0.058819402 0.05780041 0.11820979
0.0534619 0.10097783 -0.00540861 0.115747534 -0.053361844 0.020368882 -0.009025618 -0.038805943
-0.06170835 -0.04893625 -0.016752448 -0.002074916 0.08654435 0.09425051 0.041894693 -0.031915892
-0.10616615 0.08054557 -0.003316805 0.05006391 -0.08848768 0.09161171 0.058347654 0.019463677
00000000: 0179 49bc 8f8a 9f3d 7e58 e4bd c23e 06be
00000010: ae69 413d 6b82 17bb 3201 47bd 1790 f7bd
00000020: eebd dc3d c13b 903d fda4 57bd ef0c 97bd
00000030: 54cb 9c3d 5e0a bf3d 1083 28bb 9a7b b8bd
00000040: d34c 593e 81d2 13be b04e 80bd c523 733c
00000050: 225e b5bd f288 c4bd acd6 593b 68d3 1ebe
00000060: e893 923d f9d3 6a3e 51a2 d23d b4f5 2dbd
00000070: 1426 bb3c ef36 f1bd a669 093e 9f2d 2a37
00000080: d163 9c3d d242 36bb d75e a23d 52f2 5cbd
00000090: b60d 28be c7d5 12be 171a bb3d 7a64 163e
000000a0: 2519 4bbd a179 afbd b92c 893d 23e9 12be
000000b0: e6d9 b53d 5834 403e 0f36 343e 492d ec3d
000000c0: 9777 49bd c55f 06bc 6aab 64bd 9613 733d
000000d0: 2574 47be 3dc8 433d 88e9 963d cadf 193d
000000e0: 403d 033d a6d2 dcbd 806e dabd 8d2d c93d
000000f0: 5e21 cd3d 86f8 903d 5290 383e f0a1 03be
00000100: 77b5 e0bd ab65 5f3e 6dd0 333c 4441 0f3d
00000110: cfad 2abd ba74 593c ed91 0a3e 0505 ba3d
00000120: 5cf7 afbd 5deb d13c 82fb d93c cf9b 2ebc
00000130: ae23 7e3c bd4e ce3d b3fa 9e3d d161 a63d
00000140: a695 a13c a739 5cbc d8cb adbd 39ce 91bd
00000150: c254 2c3e 278b 1abe 399a c83d e214 983b
00000160: 1269 9cb9 7d54 48be 996f 9d3d 106d abbd
00000170: 0a17 a0bd 66bd dfbd 0989 28be 00d9 37bb
00000180: c853 c8bc f0ea e83c 018e 2bbc 65bd 9e3d
00000190: 4c79 0b3d 3144 1abe 1a0d d9bd 88c6 4abd
000001a0: 5d64 b43d ae8d 26bc 0b86 823b 65a7 7d3d
000001b0: ef1f 413d ccc5 0a3c 8c37 6dbd ad33 c8bd
000001c0: c35f 1fbd d49b 70bc 6495 6b3d d4ab ddbd
000001d0: 4c41 ce3c 8fd3 2c3d 2ada 0fbd ce63 f23b
000001e0: 8565 c0bc b858 cabc 122b 713d b4a0 8ebc
000001f0: 40d1 1fbe b3d4 b53d f94f 9c3d 71f0 b43d
00000200: 2c43 083e 4e6f 53bd e4a1 63bc 8392 633d
00000210: 250b 8f3d 912e a83b 9478 aebd 1e00 6b3a
00000220: 04aa dbbd 5cb2 4cbd 4b07 0c3e efe3 d0bc
00000230: 1f13 b3bc fa33 16bd 0e27 293d d7bb 053d
00000240: 8aee e13c a7ad 9f3d 7a04 053e d5b6 773d
00000250: d56c e3bc 2ffd 003d bc37 043c 22ed 4e3d
00000260: a7c0 13bd feb0 993d 9559 293e 4ae0 34bd
00000270: badc 1dbe bdaf 613c 8a4a c43d e8f9 35bd
00000280: c37a 913d 2723 b4bc 7def 973b 7b63 34bd
00000290: 86e4 cabd da55 5cbd 80c9 c23c 4160 3c3d
000002a0: 0fe1 f7bd e27b c23c 4f30 623d dde1 9e3d
000002b0: 43f5 49bd 1767 643b 6fc8 de3c 5d59 193c
000002c0: f50c bdbd eddc fbbc 8be0 f53c 39b0 0f3d
000002d0: 8d7b c1bd 84c8 083e f6ab 6f3d c6f8 b3bd
000002e0: cc2f cc3d a7be 71bd 791e efbd 5f7c 96bd
000002f0: 1a00 e43c a48c 0c3d 5fd4 c4bb 0b93 89bc
00000300: 8ef6 e6bd b3c0 1cbe 40a3 97bc 1891 8db9
00000310: d981 053d 7e27 8cbc 7c2b b7bd e37e 6ebd
00000320: 449b 3dbd d70d 113c 3a53 0cbd d0fc 33bd
00000330: 266c 123d 1358 603d 6b1d 2cbd 99e9 853a
00000340: d3cf 803c db1e 433d 5554 a03b e5d6 3cbd
00000350: 4e95 cb3d 39b9 513d 22b9 ddbc 8e69 25bd
00000360: d08c c33d 95d5 0cbd bf0e 80bd 918d 94bd
00000370: 75f9 a9bd d41f 8abd 03af 433d 49e1 fdbc
00000380: 897b c9bd a303 ae3d 0076 b63d 18d6 fd3c
00000390: e843 b6bc 9dec 70bd 1fc0 6c3d f917 f23d
000003a0: defa 5a3d 77cd ce3d b63a b1bb 0b0d ed3d
000003b0: f391 5abd a4dc a63c 30e0 13bc fbf2 1ebd
000003c0: e5c1 7cbd 6171 48bd 6e3c 89bc 50fb 07bb
000003d0: 2a3e b13d 6906 c13d c599 2b3d 3dba 02bd
000003e0: a36d d9bd 13f5 a43d c15e 59bb d10f 4d3d
000003f0: 0739 b5bd ec9e bb3d f3fd 6e3d 4a72 9f3c

lstm.weight_hh_l0_reverse f4 [512, 128]
0.031145569 0.04042342 -0.069420226 -0.050680935 0.04807614 -0.019499749 0.051510416 0.08432505
0.066572905 -0.0572728 0.03197064 0.0059890626 -0.023734964 0.023981282 0.05772044 0.07928181
0.054107163 0.012615253 -0.009330076 -0.109714545 -0.11610601 0.116356276 0.034916032 -0.029388893
0.116286576 -0.007836237 -0.0701092 -0.09774561 0.0646692 0.018159049 -0.06874792 0.023223178
0.06934979 0.030694503 -0.020997835 0.0059886225 0.019596705 -0.058887623 0.010044647 -0.086805806
-0.0059213554 -0.01745006 -0.05322382 -0.02129056 0.027061362 0.067541905 0.08885279 0.027044838
-0.007251754 -0.074370414 -0.073932946 0.02504793 0.012269202 -0.006878563 0.03151052 0.070669875
-0.015964892 0.05891659 0.048777603 0.00026099978 0.08428421 -0.004532346 -0.040181153 0.05502761
-0.052566797 0.001096788 -0.0008484038 0.0119866645 0.07961729 0.02207086 0.074780114 -0.06634654
0.0644327 0.027743518 0.040704075 0.08976518 -0.10808676 0.061542194 0.052607864 -0.056771625
-0.019588307 -0.002279021 0.06695859 0.095246255 0.03757031 0.004033822 -0.024822209 0.054654196
0.02609385 -0.055094846 0.06841742 0.11694137 0.07965867 -0.05259537 0.0051056575 0.06746447
-0.019847685 -0.017916625 -0.018768286 -0.06222113 -0.060641833 0.012934923 0.030926093 0.085178696
-0.07901067 -0.07195816 0.0060138134 -0.03466488 0.12809533 0.07404169 0.095298655 -0.075746365
0.05274063 0.025617119 0.118172 0.10058245 0.004270446 -0.086113766 -0.08947475 0.10803059
0.008504518 -0.021237923 -0.10071616 -0.023629356 -0.052740708 -0.05948791 -0.033790607 0.08169568
0.05954159 -0.07312858 0.027529307 -0.03432884 -0.005374894 -0.076886214 0.053167712 0.049838718
-0.03842574 0.043180358 -0.031505786 -0.044350013 -0.03452129 0.050583158 -0.076920375 0.085375614
0.049859136 0.04693743 -0.029350597 -0.022831656 0.018185783 0.11019374 -0.0046290816 0.009326444
0.022847496 0.009150108 0.021676471 -0.084047474 0.004584744 -0.043826424 0.060002174 -0.04718252
0.006564034 0.079722345 -0.037167553 -0.023226794 0.09848808 -0.036465816 0.052117422 0.046180464
0.07838061 -0.033291493 0.039159533 -0.046964712 0.07789953 0.025807856 -0.041805774 0.0686337
0.057441145 -0.11644541 -0.07536531 0.06741715 -0.048643842 -0.019137325 0.05337933 0.052812114
0.04581924 -0.019406756 0.04239105 -0.10233254 -0.043157503 -0.006581153 0.08566704 0.035593644
-0.055742364 -0.070976555 0.08437901 -0.039550398 -0.0025189694 0.08839338 0.027149558 -0.025567308
0.087849684 -0.0054888306 -0.05058768 -0.04824381 0.008671566 -0.012346031 0.06017052 -0.003051125
-0.084055185 -0.053944614 -0.06428404 0.050688304 0.052478045 0.08430993 0.050700065 -0.08824212
-0.047441706 0.025131121 -0.048382457 -0.011663152 -0.08085642 -0.046974808 0.03170525 -0.061486486
0.025637591 0.017214164 -0.08140595 0.06689963 0.05840417 -0.041975874 -0.03644949 0.011999666
0.0068800477 0.066253975 0.05474859 -0.080694266 -0.049708717 -0.07260915 0.039185766 0.025620598
-0.08174058 -0.008565976 -0.03081777 -0.102523856 0.006207729 -0.0076706316 -0.0537053 -0.042312175
0.095399514 0.035943888 0.032546304 -0.081509545 0.0043371045 0.044603344 0.1371795 0.020851465
00000000: fe24 ff3c 0793 253d 312c 8ebd d096 4fbd
00000010: 7deb 443d f0bd 9fbc 96fc 523d 9db2 ac3d
00000020: 6057 883d e296 6abd a5f3 023d e63f c43b
00000030: d46f c2bc 6574 c43c 456c 6c3d 805e a23d
00000040: 799f 5d3d 35b0 4e3c 2ddd 18bc 05b2 e0bd
00000050: fdc8 edbd 334c ee3d 1d04 0f3d fac0 f0bc
00000060: a827 ee3d 8f63 00bc 6a95 8fbd da2e c8bd
00000070: 4971 843d 49c2 943c b6cb 8cbd 893e be3c
00000080: 4307 8e3d 0a73 fb3c a703 acbc 353c c43b
00000090: 4589 a03c 2634 71bd 4e92 243c 3ec7 b1bd
000000a0: ee07 c2bb 6ef3 8ebc 3801 5abd 8a69 aebc
000000b0: caaf dd3c 6953 8a3d 74f8 b53d 238d dd3c
000000c0: 1fa0 edbb 844f 98bd 286a 97bd 5131 cd3c
000000d0: c304 493c 9265 e1bb 2d11 013d 5ebb 903d
000000e0: cec8 82bc 8652 713d 06cb 473d ccd6 8839
000000f0: 339d ac3d 1384 94bb fe94 24bd a264 613d
00000100: 4850 57bd 19c2 8f3a 6a67 5eba b763 443c
00000110: 640e a33d f3cd b43c 5126 993d b2e0 87bd
00000120: 4bf5 833d 6046 e33c 51b9 263d cfd6 b73d
00000130: 975c ddbd ab13 7c3d 587b 573d 5d89 68bd
00000140: a877 a0bc a15b 15bb 9621 893d 7810 c33d
00000150: 53e3 193d 272e 843b f257 cbbc 14dd 5f3d
00000160: c5c2 d53c 22ab 61bd 6f1e 8c3d f57e ef3d
00000170: 1624 a33d 3e6e 57bd 5c4d a73b d02a 8a3d
00000180: 9d97 a2bc e3c5 92bc f3bf 99bc 95db 7ebd
00000190: 9263 78bd 00ed 533c b858 fd3c 2b72 ae3d
000001a0: 59d0 a1bd cd5e 93bd 860f c53b c3fc 0dbd
000001b0: 6c2b 033e 2ba3 973d f12b c33d e920 9bbd
000001c0: 8f06 583d feda d13c 2904 f23d 2cfe cd3d
000001d0: 19ef 8b3b 6a5c b0bd 8a3e b7bd 243f dd3d
000001e0: 8956 0b3c 27fb adbc 4644 cebd 5a92 c1bc
000001f0: a406 58bd 98a9 73bd 0568 0abd 1150 a73d
00000200: e2e1 733d 70c4 95bd 2485 e13c 669c 0cbd
00000210: e11f b0bb 8576 9dbd 63c6 593d af23 4c3d
00000220: 4f64 1dbd e3dd 303d 360c 01bd 5ca8 35bd
00000230: 3266 0dbd 4930 4f3d 6e88 9dbd 69d9 ae3d
00000240: 1839 4c3d 7641 403d aa70 f0bc 7409 bbbc
00000250: 5afa 943c 41ad e13d 8daf 97bb f1cd 183c
00000260: ac2a bb3c 56ea 153c db92 b13c 1521 acbd
00000270: 9f3b 963b 5683 33bd d7c4 753d 7542 41bd
00000280: 1c17 d73b 7845 a33d 013d 18bd 1e46 bebc
00000290: 1eb4 c93d 2e5d 15bd 1479 553d ba27 3d3d
000002a0: 0386 a03d a95c 08bd bf65 203d 125e 40bd
000002b0: ca89 9f3d ff6a d33c 883c 2bbd d38f 8c3d
000002c0: 6847 6b3d ee7a eebd 2159 9abd 0112 8a3d
000002d0: c43e 47bd e1c5 9cbc 49a4 5a3d 8451 583d
000002e0: f5ac 3b3d ebfa 9ebc 3da2 2d3d b993 d1bd
000002f0: ecc5 30bd b6a6 d7bb 3372 af3d a4ca 113d
00000300: 1b52 64bd 285c 91bd e7ce ac3d 99ff 21bd
00000310: 4b15 25bb 9707 b53d c068 de3c 8872 d1bc
00000320: 89ea b33d a6db b3bb 0735 4fbd 4d9b 45bd
00000330: 2f13 0e3c 0247 4abc 5d75 763d 62f5 47bb
00000340: 2025 acbd 07f5 5cbd 5aa7 83bd 8a9e 4f3d
00000350: 38f3 563d afaa ac3d dfaa 4f3d 49b8 b4bd
00000360: 3c52 42bd c8df cd3c af2c 46bd ce16 3fbc
00000370: 0d98 a5bd a868 40bd 5ddd 013d 41d9 7bbd
00000380: ed05 d23c b804 8d3c 2ab8 a6bd ac02 893d
00000390: 3639 6f3d e5ee 2bbd 0f4c 15bd 3f9a 443c
000003a0: 0672 e13b 2ab0 873d 0f40 603d 0943 a5bd
000003b0: 5e9b 4bbd 1bb4 94bd 4181 203d 4ae2 d13c
000003c0: 9b67 a7bd 4f58 0cbc 8c75 fcbc 07f8 d1bd
000003d0: 356a cb3b ec59 fbbb 17fa 5bbd 884f 2dbd
000003e0: d260 c33d e639 133d 464f 053d 7aee a6bd
000003f0: 451e 8e3b ffb1 363d c878 0c3e b1d0 aa3c
