GRU_best_model.pt (torch, 368483 bytes, 7 tensors)

embedding.weight f4 [27, 100]
0.19417961 0.7369297 -0.9024857 0.37130168 0.8158781 -1.2819217 -0.5039711 -0.6156104
0.09629671 -1.3675878 0.70699686 1.103747 -0.07975201 -0.30914053 -0.004918928 0.0053724735
-0.16648318 0.9469075 0.56338245 -0.54150695 0.9424837 0.2786579 -1.0935218 0.42167276
-0.70764095 -0.9868377 -0.10291207 -0.26016092 0.5988794 -0.1695031 -0.68495727 0.11367993
0.46580222 0.97521883 -1.9190253 -0.14528202 -0.71066064 -1.2585514 0.06432233 0.81048334
0.8888573 -0.012699496 -0.9309262 -2.2271826 -0.69458365 -1.5062653 0.3806376 0.040343642
2.3280087 -0.046979178 -0.87826234 0.55459213 -0.6523409 -0.8464127 -0.7179873 0.47770736
-1.037297 0.0047432217 0.7861075 0.2702851 -0.047709662 0.9668033 0.46858397 -0.055354875
0.6735477 1.1070204 -1.0915018 1.3440477 -0.52696097 0.091496296 0.9219742 -0.17281131
1.834803 -0.8546823 0.0018961489 0.6289892 -0.30050802 -0.015322306 -0.8754773 -0.627113
-0.2857277 -0.47589102 -2.416336 -2.0434456 -0.6182402 -0.2548258 -0.62258726 -1.3770075
-1.0652784 0.41002607 0.30299342 -0.6450963 2.5182471 1.160398 -1.3232502 -0.8542278
1.5212036 1.869093 -0.6779442 0.9656758 -2.1830225 0.6432514 -0.41395372 -0.6508719
0.20538501 0.3236383 1.2427452 -0.44852692 1.4912196 -1.8695043 -1.0823635 0.8282229
1.5832756 0.7806265 0.3392235 1.5739887 0.039713018 2.2162998 -1.5058937 -1.4691414
-0.64496815 -0.72551244 -0.11396969 -1.0915357 0.7057149 -2.6628983 1.2976917 -1.1527852
0.84695977 0.59556115 -1.9089507 -0.59679985 1.3362057 -0.6790708 -0.06137111 0.18186097
0.5595692 -0.46440482 1.1762774 -0.81568056 -0.9796462 0.86418945 -0.90589976 -3.5823944
0.7183902 -0.19500326 1.398376 0.45294708 -1.685989 0.14493234 -1.0313553 0.43287066
2.202185 0.28150353 0.16159263 0.5540308 1.1709841 -0.27647176 -0.68883914 -0.24176429
-0.37433624 -1.2148883 -0.44319242 0.11991452 -0.045488995 -1.0406008 0.4717326 1.6520748
-0.7974106 1.1578614 -0.9695075 -1.073619 -0.49792618 -0.38007358 0.30627176 -0.13863423
-0.5624893 0.72444546 -0.42824394 -0.86732566 1.3458736 -0.6337604 0.9074294 -0.030503385
-0.21315317 -0.40436682 -0.40516275 -1.9559013 0.24148215 2.485536 -1.013801 -2.2529721
-0.45339668 0.43747965 1.3342236 0.9726934 -1.259929 -0.93100953 0.90652317 0.47723752
2.1158412 -0.0469962 -0.7734029 -1.6856847 -0.7266554 -0.10803196 0.459003 -0.22506756
2.3139489 -0.40085948 -0.065030694 0.057187542 -1.8801718 -0.7341033 -0.4436122 -0.7882149
0.28879493 1.0831008 -0.4064583 1.1376077 -0.87355506 0.75874174 -1.0107002 0.07470351
-0.47017348 0.1518216 -0.37952146 0.30621797 2.13965 0.60466224 0.00737432 -0.8682582
-1.2835431 -0.83810896 0.11059684 -1.2852966 0.4597919 -0.7795968 0.38041413 -0.6350454
-0.23312338 0.7552395 -0.39905947 -0.8217532 -0.2539154 -0.07697684 0.47207627 -0.35391757
-0.9863502 0.7746296 -0.2743566 -0.16804297 -0.11958367 2.0454237 1.5597277 -0.39512554
00000000: 05d7 463e 6da7 3c3f 4e09 67bf 411b be3e
00000010: 63dd 503f 0316 a4bf 4004 01bf a598 1dbf
00000020: 3637 c53d 1e0d afbf bffd 343f 9547 8d3f
00000030: 0655 a3bd ab47 9ebe f52e a1bb 930b b03b
00000040: 917a 2abe 8868 723f d539 103f 33a0 0abf
00000050: 9d46 713f 40ac 8e3e 86f8 8bbf 7ee5 d73e
00000060: f527 35bf 65a1 7cbf 90c3 d2bd d033 85be
00000070: 2950 193f 3892 2dbe 5c59 2fbf 06d1 e83d
00000080: a17d ee3e f1a7 793f 9fa2 f5bf cfc4 14be
00000090: dbed 35bf 3618 a1bf 6dbb 833d d67b 4f3f
000000a0: 278c 633f 8c11 50bc 2e51 6ebf 298a 0ec0
000000b0: 3cd0 31bf 4dcd c0bf eee2 c23e 603f 253d
000000c0: 18fe 1440 3d6d 40bd cdd5 60bf c0f9 0d3f
000000d0: d0ff 26bf 81ae 58bf 04ce 37bf 0f96 f43e
000000e0: 26c6 84bf 076d 9b3b 573e 493f cf62 8a3e
000000f0: 356b 43bd 6c80 773f 3dea ef3e cbbb 62bd
00000100: 9f6d 2c3f d8b2 8d3f 55b6 8bbf c109 ac3f
00000110: eae6 06bf 6962 bb3d 8006 6c3f 73f5 30be
00000120: d3da ea3f 76cc 5abf 3388 f83a 7005 213f
00000130: 30dc 99be 690a 7bbc 481f 60bf 7a8a 20bf
00000140: e74a 92be fda7 f3be 40a5 1ac0 d0c7 02c0
00000150: fd44 1ebf 8778 82be e161 1fbf c841 b0bf
00000160: 0b5b 88bf f0ee d13e f421 9b3e 0825 25bf
00000170: f62a 2140 ec87 943f 4360 a9bf acae 5abf
00000180: cdb6 c23f 703e ef3f c08d 2dbf 8736 773f
00000190: a4b6 0bc0 20ac 243f bef1 d3be 8a9f 26bf
000001a0: 7350 523e ebb3 a53e 4612 9f3f 52a5 e5be
000001b0: 49e0 be3f eb4b efbf e38a 8abf 6a06 543f
000001c0: c6a8 ca3f 23d7 473f b4ae ad3e 7678 c93f
000001d0: 1eaa 223d dbd7 0d40 20c1 c0bf d30c bcbf
000001e0: a21c 25bf 2fbb 39bf f168 e9bd 71b7 8bbf
000001f0: bba9 343f ed6c 2ac0 c31a a63f 778e 93bf
00000200: 5bd2 583f b276 183f 7f58 f4bf e0c7 18bf
00000210: ca08 ab3f 95d7 2dbf 4660 7bbd c339 3a3e
00000220: ed3f 0f3f 78c6 edbe 4290 963f 71d0 50bf
00000230: 18ca 7abf 853b 5d3f 0ce9 67bf f345 65c0
00000240: 6ce8 373f efae 47be fcfd b23f aee8 e73e
00000250: 7dce d7bf 2569 143e 7303 84bf 39a1 dd3e
00000260: 99f0 0c40 3b21 903e 8a78 253e f6d4 0d3f
00000270: cfe2 953f b58d 8dbe c357 30bf 0f91 77be
00000280: 00a9 bfbe 7681 9bbf 1eea e2be be95 f53d
00000290: ab52 3abd 6832 85bf ef86 f13e 3077 d33f
000002a0: 1a23 4cbf cd34 943f a531 78bf 596c 89bf
000002b0: 2ef0 febe 0199 c2be a7cf 9c3e 22f6 0dbe
000002c0: 4cff 0fbf 4275 393f ca42 dbbe 0e09 5ebf
000002d0: 9645 ac3f 1f3e 22bf 4b4d 683f 3ce2 f9bc
000002e0: d344 5abe 2b09 cfbe 7e71 cfbe f95a fabf
000002f0: 1947 773e 0613 1f40 3bc4 81bf b230 10c0
00000300: 9c23 e8be 55fd df3e d7c7 aa3f 6f02 793f
00000310: 5a45 a1bf a456 6ebf e711 683f 7a58 f43e
00000320: f169 0740 167f 40bd bcfd 45bf 84c4 d7bf
00000330: 1706 3abf dc3f ddbd 7102 eb3e 1c78 66be
00000340: bd17 1440 743d cdbe d02e 85bd 7c3d 6a3d
00000350: 78a9 f0bf 32ee 3bbf 2321 e3be 74c8 49bf
00000360: eedc 933e 0ca3 8a3f 4d1b d0be 219d 913f
00000370: 4ea1 5fbf e63c 423f a05e 81bf 27fe 983d
00000380: 94ba f0be 1f77 1b3e a350 c2be 9ac8 9c3e
00000390: 07f0 0840 25cb 1a3f 48a4 f13b 2b46 5ebf
000003a0: 244b a4bf 4f8e 56bf 9980 e23d 9984 a4bf
000003b0: d869 eb3e a893 47bf a4c5 c23e 5692 22bf
000003c0: e5b7 6ebe 6057 413f 8651 ccbe 6b5e 52bf
000003d0: 3301 82be 09a6 9dbd fbb3 f13e af34 b5be
000003e0: 7281 7cbf 204e 463f 7878 8cbe 7513 2cbe
000003f0: 48e8 f4bd 39e8 0240 28a5 c73f e54d cabe

gru.weight_ih_l0 f4 [384, 100]
0.01909568 -0.098227866 0.018880483 -0.003847643 0.053488016 0.07123546 0.06359284 -0.01932533
0.0033735782 -0.023148244 -0.07010104 -0.06000159 0.107264556 -0.00045190673 -0.013044976 -0.037691604
-0.00013582941 -0.014185177 -0.14627713 0.024156133 -0.08951264 0.017106056 0.09753653 0.043536413
0.014433662 0.05330879 0.03620931 0.03207032 -0.03290284 0.053854585 0.022090247 0.046791494
-0.024523908 -0.02191025 0.07901299 0.03237335 0.09179106 0.03191291 -0.06671321 -0.032310467
-0.091436334 0.07943082 0.12039184 -0.012517614 0.10608968 0.04434401 -0.1358428 0.025357122
0.025546193 -0.043797042 0.022761313 -0.13126278 -0.012000889 0.11859518 0.12244944 0.027365498
0.06550579 -0.021777442 0.008794413 0.012859091 0.02773757 -0.09398728 -0.12787496 0.037552226
0.059617255 0.024447842 -0.020797666 -0.07076315 0.084262684 0.015013415 0.01102619 0.08976998
-0.00929674 0.082333915 -0.02156571 -0.09811302 0.07241328 0.05849355 0.08395924 0.0016744151
0.02849652 0.038674135 0.06104379 -0.018783348 0.053569566 0.002207334 0.093446106 -0.019602431
0.10494291 0.035325136 -0.05699451 -0.034940597 -0.005460775 0.016794102 0.08287314 -0.022679
0.008872256 -0.0875095 0.048333474 -0.0008705397 0.017801046 -0.035705887 0.07267236 -0.008284901
0.06705712 0.040028322 -0.07250674 -0.015968142 0.0017634913 0.06795672 -0.05084509 -0.0008374904
-0.003504062 -0.012521662 -0.08173969 0.045373224 0.034792747 0.05534125 0.0069687646 -0.047841683
-0.03007207 -0.082607135 0.055671487 -0.058703654 -0.109923996 0.03262602 -0.058097646 0.021787716
-0.104929656 0.03085134 0.033262998 -0.0045846673 -0.01584234 0.010336314 -0.011512873 0.0075343405
0.043486357 -0.08543341 -0.09060868 -0.08657086 -0.098294534 -0.008414013 0.027676826 0.08021293
0.06241462 -0.033184323 -0.07172328 -0.0014775235 0.04319124 0.04612266 0.036527257 -0.09534996
0.06263481 -0.0070410375 0.059085563 0.050059285 -0.06533993 -0.0050258706 -0.004056303 -0.0057719047
-0.0028883785 -0.10001475 0.05736228 0.06388971 -0.06052565 -0.052790526 -0.030621774 -0.05629953
0.0034298843 -0.043399952 -0.06662157 -0.043588266 -0.04191813 0.053324096 -0.06301539 0.06298334
-0.06567861 0.08158856 -0.002402622 -0.06634324 -0.0171309 0.063554525 -0.032374844 0.026314834
0.06631035 -0.005645781 0.003998362 -0.004643476 0.07998 0.06197837 -0.0895041 0.10148571
-0.103546716 -0.06788422 0.10050939 -0.034807213 0.03157709 -0.06078053 -0.02417485 -0.0151645355
-0.048041884 -0.09276292 0.007188838 0.007371338 -0.06707064 0.003104086 -0.10802096 0.06127247
-0.059000365 0.10502691 -0.024500515 0.017541103 0.05192695 -0.014271954 -0.024569847 -0.017189343
0.045951057 -0.092920355 -0.025289003 0.0373062 -0.008882551 -0.08242615 -0.032592885 0.050765235
0.018859243 0.10658524 0.016479827 0.08299433 -0.07937161 0.0060856985 0.052179705 0.07756653
-0.07248423 -0.04489476 0.09244938 0.05401648 0.077038504 -0.0074815466 -0.009154573 -0.030177161
0.0061395224 0.03391502 0.060051948 0.11673979 -0.0137410415 0.110347435 -0.026921276 0.04089289
-0.008429402 -0.035642233 0.11471253 -0.016570937 0.027880212 -0.05716358 -0.020854924 -0.066122025
00000000: 8b6e 9c3c b12b c9bd 3eab 9a3c bd28 7cbb
00000010: 4016 5b3d e6e3 913d f73c 823d 2850 9ebc
00000020: 4017 5d3b 63a1 bdbc 2291 8fbd 3ac4 75bd
00000030: 85ad db3d e5ed ecb9 98ba 55bc 8362 1abd
00000040: 6e6d 0eb9 f268 68bc acc9 15be 15e3 c53c
00000050: 6752 b7bd 0022 8c3c 3bc1 c73d 3d53 323d
00000060: 2b7b 6c3c 515a 5a3d 3750 143d 2b5c 033d
00000070: 21c5 06bd a096 5c3d 9bf6 b43c 70a8 3f3d
00000080: 5de6 c8bc 207d b3bc 90d1 a13d eb99 043d
00000090: f4fc bb3d 1db7 023d efa0 88bd fb57 04bd
000000a0: f942 bbbd a0ac a23d ff8f f63d ae16 4dbc
000000b0: 8c45 d93d 11a2 353d 601a 0bbe bdb9 cf3c
000000c0: 4046 d13c 8764 33bd ef75 ba3c c069 06be
000000d0: 609f 44bc 08e2 f23d c6c6 fa3d 9c2d e03c
000000e0: e627 863d 9b66 b2bc 7116 103c f0ae 523c
000000f0: e739 e33c 677c c0bd a7f1 02be 5dd0 193d
00000100: 3931 743d d746 c83c de5f aabc 45ec 90bd
00000110: ea91 ac3d d4fa 753c 31a7 343c 53d9 b73d
00000120: 5b51 18bc af9e a83d 92aa b0bc 7bef c8bd
00000130: 6a4d 943d ef96 6f3d d2f2 ab3d 0c78 db3a
00000140: 8971 e93c c568 1e3d 0e09 7a3d 89df 99bc
00000150: c36b 5b3d eba8 103b ac60 bf3d 4795 a0bc
00000160: 4fec d63d 17b1 103d 1373 69bd df1d 0fbd
00000170: 4df0 b2bb c993 893c 65b9 a93d 4fc9 b9bc
00000180: f05c 113c 2e38 b3bd 52f9 453d ee34 64ba
00000190: 80d3 913c 5640 12bd 3fd5 943d 65bd 07bc
000001a0: 3e55 893d bdf4 233d 6a7e 94bd 9fcf 82bc
000001b0: f324 e73a e52c 8b3d f142 50bd 088b 5bba
000001c0: 68a4 65bb a827 4dbc 2367 a7bd 46d9 393d
000001d0: d782 0e3d 82ad 623d 3c5a e43b a4f5 43bd
000001e0: b459 f6bc ee2d a9bd c907 643d 3e73 70bd
000001f0: d51f e1bd dda2 053d ccf7 6dbd 277c b23c
00000200: 5ce5 d6bd f3bb fc3c c83e 083d fa3a 96bb
00000210: ccc7 81bc a559 293c 7da0 3cbc a1e2 f63b
00000220: c01e 323d b6f7 aebd 0b91 b9bd 104c b1bd
00000230: a54e c9bd eeda 09bc 83ba e23c ad46 a43d
00000240: 79a6 7f3d 49ec 07bd a8e3 92bd 76a9 c1ba
00000250: 4ce9 303d 1deb 3c3d 9b9d 153d d746 c3bd
00000260: ae46 803d 81b8 e6bb b403 723d f70a 4d3d
00000270: f1d0 85bd 0fb0 a4bb bcea 84bb 3f22 bdbb
00000280: f34a 3dbb 89d4 ccbd b6f4 6a3d 9cd8 823d
00000290: bee9 77bd e13a 58bd 84da fabc 569a 66bd
000002a0: e9c7 603b 26c4 31bd e470 88bd 9c89 32bd
000002b0: 58b2 2bbd 5e6a 5a3d 360e 81bd 69fd 803d
000002c0: 8282 86bd e717 a73d 4f75 1dbb f7de 87bd
000002d0: 1a56 8cbc e028 823d 7c9b 04bd 3592 d73c
000002e0: b9cd 873d 3e00 b9bb b104 833b 4d28 98bb
000002f0: 8ecc a33d 08dd 7d3d ed4d b7bd bdd7 cf3d
00000300: 4d10 d4bd e206 8bbd ded7 cd3d 0292 0ebd
00000310: fb56 013d 01f5 78bd 560a c6bc ac74 78bc
00000320: 91c7 44bd 7cfa bdbd 5890 eb3b 448b f13b
00000330: 555c 89bd ec6d 4b3b 183a ddbd d7f8 7a3d
00000340: 5eaa 71bd 5918 d73d 4eb5 c8bc 5cb2 8f3c
00000350: 5bb1 543d ead4 69bc b446 c9bc aad0 8cbc
00000360: 2d37 3c3d 074d bebd e22a cfbc 63ce 183d
00000370: 1f88 11bc 0bcf a8bd 1e80 05bd 35ef 4f3d
00000380: b37e 9a3c 5d49 da3d b400 873c eef8 a93d
00000390: 958d a2bd 8a6a c73b 63ba 553d 33db 9e3d
000003a0: 9d72 94bd 91e3 37bd 1a56 bd3d 6240 5d3d
000003b0: 5dc6 9d3d c327 f5bb 10fd 15bc 1836 f7bc
000003c0: 0c2e c93b 7aea 0a3d 08f9 753d 4515 ef3d
000003d0: 1b22 61bc d6fd e13d 028a dcbc 4e7f 273d
000003e0: 791b 0abc 97fd 11bd 67ee ea3d c6bf 87bc
000003f0: 0b65 e43c 5c24 6abd f2d7 aabc fc6a 87bd

gru.weight_hh_l0 f4 [384, 128]
0.0933032 0.066416174 -0.08027385 0.050348762 0.04153645 -0.07452409 0.02278005 0.03395969
-0.045755856 -0.09119791 -0.031141255 0.05327351 -0.0040402603 -0.098869234 -0.04465512 0.09354391
0.09556943 -0.027447013 -0.023322059 -0.013865731 -0.04088721 0.028847363 -0.06431329 0.03263333
0.11813345 0.09586794 0.10794754 0.0043405793 -0.01943929 0.13675672 -0.013953707 -0.10608469
-0.0043398994 0.018872771 -0.050266046 0.081266746 0.04159486 -0.045959637 0.09515384 0.030927386
-0.013851327 0.06208534 -0.074224085 -0.024019994 -0.0072160666 0.011750328 -0.052685622 0.09938791
-0.11342682 -0.00924049 -0.06412824 -0.0033479296 -0.025007403 0.022793844 -0.07051828 0.016847083
0.072705716 -0.076623335 0.01815481 -0.023207363 -0.088095866 0.06820165 -0.025658214 0.013694132
-0.04491417 0.0052632955 0.0069537563 -0.106654376 0.091736 0.038765024 0.04881099 0.051941197
0.036008798 -0.109733835 0.0009886386 0.07581437 0.028315734 -0.0038240836 -0.057508036 -0.06437118
-0.031854674 -0.03832589 0.0838304 -0.055935 -0.07075834 -0.10172959 0.046189845 -0.09355042
-0.071068406 0.035946067 -0.090997584 -0.023537071 -0.0398419 -0.05161187 -0.009598171 -0.056719285
0.020582628 -0.06791723 0.014377688 0.05542219 0.05619177 -0.025809504 0.0074831173 -0.018550642
0.0036320647 -0.055446807 0.07034829 -0.0036085958 0.02228094 0.0140912 0.07970249 -0.07447953
0.12712708 0.036071293 -0.022579014 0.0357915 0.021142904 0.045156233 -0.007931411 -0.012106231
-0.11337619 -0.034339726 -0.057307333 -0.065435946 0.13288817 -0.07897244 0.05635323 0.010781999
-0.005692924 0.039079413 -0.025134247 0.03626848 0.0043828175 0.039237056 0.028768566 0.07510604
0.08044689 -0.014724911 -0.036465514 -0.052951258 -0.035540108 -0.0075947447 0.004836786 -0.0025084869
-0.03593719 -0.035369463 -0.040041965 0.001435837 0.038173005 -0.044894557 0.065908104 -0.054172482
0.09501459 -0.057151698 0.061893646 -0.031585913 0.09579426 0.083775245 0.084864885 0.012230365
0.034701813 0.105509005 -0.01351627 0.07778531 -0.038759638 -0.11685606 -0.09864602 -0.05551114
-0.023841623 -0.06751235 0.0012770528 -0.0414385 -0.042175647 -0.056961298 -0.010502411 -0.064858004
0.010760598 0.0317481 0.020252539 0.071745776 -0.09656021 0.082086585 -0.065988794 0.0017148056
-0.068680905 0.04843943 0.08626064 -0.04847311 -0.0438808 0.071359456 -0.11473032 0.053916734
-0.103079155 0.09686509 0.011008854 -0.010632865 0.075293794 0.022362497 0.08019092 -0.050889596
-0.053274427 0.04356542 0.035275396 0.015959587 -0.00014373125 0.011943158 -0.026221875 -0.090579525
0.09650458 0.06365745 -0.05470694 -0.010266541 0.008327654 -0.045740984 -0.06752606 -0.03240963
0.032248534 -0.06811193 0.058112316 -0.03200807 -0.095199406 -0.022918342 0.09729733 -0.026008954
0.04754107 0.038477115 0.07446661 -0.03367992 0.05648794 -0.010210546 -0.053898796 -0.014042975
-0.09132184 0.07573625 -0.040270228 0.005789202 -0.008442665 0.06442079 0.006043619 -0.07182957
0.028112486 0.021377005 -0.04838295 0.06522322 -0.07559104 0.104503185 -0.008398236 -0.038960986
-0.11140853 -0.053465918 -0.1415205 0.052422836 0.029348679 -0.01509302 0.004529585 -0.076540425
00000000: c015 bf3d 3405 883d 9e66 a4bd 813a 4e3d
00000010: 2022 2a3d 16a0 98bd 3a9d ba3c 5119 0b3d
00000020: 7e6a 3bbd f8c5 babd f21b ffbc 5335 5a3d
00000030: 2964 84bb f47b cabd 49e8 36bd f393 bf3d
00000040: e8b9 c33d 8fd8 e0bc e70d bfbc 172d 63bc
00000050: 5979 27bd 4e51 ec3c b0b6 83bd 87aa 053d
00000060: f3ef f13d 6956 c43d 9a13 dd3d 6b3b 8e3b
00000070: 253f 9fbc f409 0c3e 179e 64bc ee42 d9bd
00000080: b735 8ebb 129b 9a3c c5e3 4dbd 2e6f a63d
00000090: 5f5f 2a3d 2c40 3cbd 04e0 c23d 6e5b fd3c
000000a0: adf0 62bc 334d 7e3d cc02 98bd 94c5 c4bc
000000b0: c174 ecbb 7384 403c e1cc 57bd e38b cb3d
000000c0: 524c e8bd 6d65 17bc ab55 83bd f068 5bbb
000000d0: 53dc ccbc 28ba ba3c e36b 90bd e502 8a3c
000000e0: bce6 943d b2ec 9cbd 65b9 943c 5e1d bebc
000000f0: 9b6b b4bd 4fad 8b3d 2d31 d2bc 5a5d 603c
00000100: ecf7 37bd b977 ac3b 56dc e33b 9c6d dabd
00000110: 15e0 bb3d 13c8 1e3d 08ee 473d 4bc0 543d
00000120: f67d 133d 22bc e0bd 3595 813a 9044 9b3d
00000130: 66f6 e73c 7a9d 7abb 8c8d 6bbd 0ad5 83bd
00000140: 0c7a 02bd 9cfb 1cbd 46af ab3d 191c 65bd
00000150: c0e9 90bd 9a57 d0bd 9031 3d3d 5d97 bfbd
00000160: 508c 91bd 2f3c 133d f15c babd d1d0 c0bc
00000170: 4331 23bd f866 53bd a641 1dbc 7b52 68bd
00000180: e69c a83c 3018 8bbd 6590 6b3c 6102 633d
00000190: 5729 663d 746e d3bc f034 f53b 84f7 97bc
000001a0: ef07 6e3b 311c 63bd c412 903d 317e 6cbb
000001b0: 8586 b63c c7de 663c 0f3b a33d b988 98bd
000001c0: 9a2d 023e 7ebf 133d a0f7 b8bc 1c9a 123d
000001d0: e233 ad3c bef5 383d c0f2 01bc 3759 46bc
000001e0: c731 e8bd d0a7 0cbd 18bb 6abd 4803 86bd
000001f0: d613 083e 4dbc a1bd a5d2 663d fba6 303c
00000200: b58b babb bc11 203d 56e6 cdbc 428e 143d
00000210: bd9d 8f3b 09b7 203d 0eac eb3c 32d1 993d
00000220: 57c1 a43d c140 71bc dd5c 15bd 6be3 58bd
00000230: 8192 11bd 56dd f8bb e77d 9e3b 6d65 24bb
00000240: e032 13bd 92df 10bd 0b03 24bd b232 bc3a
00000250: 4c5b 1c3d 5be3 37bd d4fa 863d f7e3 5dbd
00000260: 0297 c23d e617 6abd 3184 7d3d 3b60 01bd
00000270: c82f c43d 5b92 ab3d a4cd ad3d de61 483c
00000280: 7d23 0e3d 1b15 d83d 5873 5dbc e84d 9f3d
00000290: 6dc2 1ebd 3b52 efbd ed06 cabd a65f 63bd
000002a0: 824f c3bc ea43 8abd c862 a73a 6bbb 29bd
000002b0: 5fc0 2cbd 4050 69bd 4e12 2cbc 46d4 84bd
000002c0: 384d 303c 4c0a 023d a7e8 a53c 73ef 923d
000002d0: 5cc1 c5bd 031d a83d 2225 87bd 54c3 e03a
000002e0: 93a8 8cbd 6c68 463d 6ba9 b03d bd8b 46bd
000002f0: 5bbc 33bd e824 923d bbf7 eabd cbd7 5c3d
00000300: 2a1b d3bd 3461 c63d 7b5e 343c 7835 2ebc
00000310: a233 9a3d 8e31 b73c 233b a43d 9c71 50bd
00000320: 4936 5abd a771 323d ef7c 103d aebd 823c
00000330: 90b6 16b9 3cad 433c 42cf d6bc c281 b9bd
00000340: 31a4 c53d d65e 823d 6214 60bd fe34 28bc
00000350: b670 083c e65a 3bbd 1a4b 8abd f6bf 04bd
00000360: 0a17 043d 447e 8bbd 2e07 6e3d e51a 03bd
00000370: e8f7 c2bd 3fbf bbbc d343 c73d bb10 d5bc
00000380: 6dba 423d 2e9a 1d3d f381 983d f5f3 09bd
00000390: e65f 673d 224a 27bc fcc4 5cbd 8214 66bc
000003a0: f206 bbbd 9b1b 9b3d 65f2 24bd 59b3 bd3b
000003b0: 1b53 0abc 0cef 833d 8d09 c63b 621b 93bd
000003c0: 284c e63c d41e af3c 332d 46bd c093 853d
000003d0: 7acf 9abd c405 d63d c198 09bc 8e95 1fbd
000003e0: 282a e4bd 14ff 5abd c0ea 10be 54b9 563d
000003f0: a46c f03c b748 77bc ea6c 943b 3ac1 9cbd

gru.bias_ih_l0 f4 [384]
-0.061205216 0.020413019 -0.0743402 -0.08450363 -0.1131391 -0.087967016 -0.10112512 -0.0064019184
-0.04093426 -0.11614066 -0.041487325 -0.018483259 -0.054731995 0.035630815 -0.09555084 0.0130292205
0.02066363 0.0794559 -0.059711237 -0.02952343 0.052363016 -0.093589045 0.002038918 -0.023386756
0.09791445 0.046981387 -0.019326778 0.0022693123 -0.0059755407 -0.044827577 0.008165317 0.104272865
0.054062054 -0.03803767 -0.045934204 0.033863448 -0.028437244 -0.0543801 0.045942772 0.011606657
-0.07653057 0.04479093 -0.026333168 -0.03696604 -0.05493685 -0.09234967 -0.10582701 -0.007528505
-0.03618096 -0.012219287 -0.010478615 0.005187863 -0.009552184 -0.0157198 0.022982236 -0.044659607
-0.08203217 0.0683989 -0.0288761 -0.003368994 0.0016979092 -0.062183496 0.03747562 -0.07329204
-0.055406366 -0.06799626 -0.06444518 0.011990031 -0.08129609 -0.07277743 -0.10239503 -0.024351574
-0.059073184 -0.039538756 0.009306004 -0.06085677 -0.07669008 -0.075118355 -0.108982 -0.02084759
0.034446232 -0.058689687 -0.008705713 0.011115397 0.10541261 -0.015846005 -0.08419657 -0.10913633
0.08146433 -0.002331409 0.05137204 0.031304456 0.09855556 -0.036160182 -0.118692316 -0.036630787
-0.09431724 0.009097695 -0.013218726 -0.12006303 -0.04707072 0.044974566 -0.043157574 -0.116784
0.036056124 -0.10662763 0.026849708 -0.024771098 -0.11842924 0.036715496 -0.013276124 0.007870569
-0.106928855 -0.073450446 0.00725926 0.044540454 -0.08327701 -0.103080444 0.020696985 -0.11985061
0.04114992 -0.0062544374 -0.044383742 -0.030725956 -0.04546289 -0.10900858 -0.019341297 -0.004695245
-0.0036554863 0.07262207 0.099840604 -0.0005081697 0.04566308 0.10318319 0.07527285 0.14909801
0.05115094 0.039621253 0.08096061 0.12245707 0.015329601 0.063788265 0.045285717 0.105498224
0.11005561 0.059674896 -0.020806372 -0.0013692759 0.0568205 0.103487745 0.121434875 0.073390245
0.041077748 0.043909345 0.08274189 0.025692604 0.026221052 0.031377003 -0.018151827 -0.0062692626
0.05905137 0.07459138 0.106989816 0.0976222 0.05786061 0.07328019 -0.023973735 0.06272944
0.09398971 0.033851493 0.03338826 0.11519864 -0.014155306 0.0056794416 0.046073545 0.014183589
-0.06201529 0.03695961 0.012962747 0.07370395 -0.0142412735 0.02066473 0.073280424 0.10176585
-0.009798578 0.058349293 -0.030636106 0.06320285 0.11592115 0.08336265 0.038900055 0.06359783
0.0225764 -0.014032159 -0.03648317 0.07498829 -0.014923715 0.114535116 0.095033266 0.054261025
0.11401321 -0.007394888 0.12070396 0.10392692 0.019649118 -0.00021924148 0.098128796 0.07288061
0.0053454703 0.09193444 0.07198158 -0.029618638 0.070817456 -0.031947687 0.029299852 0.037678633
-0.0121747665 0.034649923 0.015557252 0.056718793 -0.059454475 0.031565197 0.02605595 0.14745668
0.101431645 -0.032189053 0.013833066 0.10261643 0.046090454 0.07301179 0.12588884 0.0103618195
0.08069398 0.0791629 0.11947488 0.04403757 -0.021856153 0.04861765 -0.014568809 0.044578
0.11241911 0.045303136 0.09101759 0.05087021 0.11900755 0.055923015 -0.028429212 0.00073066645
0.057243485 0.098738275 0.087114714 0.018725736 -0.016732913 0.091945246 0.0057244627 0.047527216
00000000: 52b2 7abd 3439 a73c ad3f 98bd 3d10 adbd
00000010: 79b5 e7bd 0d28 b4bd b01a cfbd 2fc7 d1bb
00000020: afaa 27bd 28db edbd 9dee 29bd 346a 97bc
00000030: a82e 60bd 9ef1 113d 29b0 c3bd 8378 553c
00000040: c646 a93c c6b9 a23d c593 74bd 1fdb f1bc
00000050: 9a7a 563d 9dab bfbd 5e9f 053b 9595 bfbc
00000060: 5f87 c83d 8e6f 403d 3153 9ebc beb8 143b
00000070: 78ce c3bb 1f9d 37bd d2c7 053c 038d d53d
00000080: 2c70 5d3d 63cd 1bbd 8125 3cbd 66b4 0a3d
00000090: 39f5 e8bc abbd 5ebd 7d2e 3c3d d929 3e3c
000000a0: 0fbc 9cbd b276 373d a8b8 d7bc b469 17bd
000000b0: 7605 61bd d321 bdbd d5bb d8bd adb1 f6bb
000000c0: 7c32 14bd 6833 48bc 7fae 2bbc f3fe a93b
000000d0: c380 1cbc cfc6 80bc 3e45 bc3c feec 36bd
000000e0: 7b00 a8bd b914 8c3d 928d ecbc 57ca 5cbb
000000f0: 618c de3a 1fb4 7ebd 0980 193d 231a 96bd
00000100: c9f1 62bd a041 8bbd d6fb 83bd d671 443c
00000110: 907e a6bd 550c 95bd 7cb4 d1bd f47c c7bc
00000120: b9f6 71bd 64f3 21bd 3678 183c f344 79bd
00000130: b00f 9dbd a7d7 99bd f431 dfbd 91c8 aabc
00000140: 7e17 0d3d 9964 70bd 68a2 0ebc 5b1d 363c
00000150: 91e2 d73d 7bcf 81bc 406f acbd de82 dfbd
00000160: c5d6 a63d 8dca 18bb 7d6b 523d 1a39 003d
00000170: 7fd7 c93d b31c 14bd f514 f3bd 2a0a 16bd
00000180: 6629 c1bd 800e 153c 5b93 58bc 9be3 f5bd
00000190: 3acd 40bd 4037 383d ffc5 30bd 732c efbd
000001a0: 96af 133d 965f dabd ebf3 db3c c2ec cabc
000001b0: 088b f2bd fd62 163d 1a84 59bc 8ff3 003c
000001c0: 84fd dabd 306d 96bd 16df ed3b 0d70 363d
000001d0: 238d aabd d71b d3bd b98c a93c 3d74 f5bd
000001e0: d28c 283d 06f2 ccbb bacb 35bd 00b5 fbbc
000001f0: 4c37 3abd e43f dfbd a471 9ebc 92da 99bb
00000200: e290 6fbb e1ba 943d 3b79 cc3d b136 05ba
00000210: 3609 3b3d b551 d33d a728 9a3d 26ad 183e
00000220: a683 513d e549 223d adce a53d c6ca fa3d
00000230: 0229 7b3c 6ca3 823d 847d 393d 740f d83d
00000240: d664 e13d aa6d 743d 2072 aabc 4679 b3ba
00000250: 9dbc 683d 62f1 d33d d9b2 f83d a04d 963d
00000260: 2441 283d 49da 333d 9474 a93d 4c79 d23c
00000270: 88cd d63c 2c85 003d 24b3 94bc 636e cdbb
00000280: d9df 713d 5ec3 983d 7a1d db3d 26ee c73d
00000290: 3fff 6c3d ed13 963d 9164 c4bc 4b78 803d
000002a0: ad7d c03d dda7 0a3d 21c2 083d 44ed eb3d
000002b0: a8eb 67bc 9c1a ba3b 9db7 3c3d 4962 683c
000002c0: bf03 7ebd f662 173d b461 543c 19f2 963d
000002d0: 3b54 69bc 1449 a93c 0c14 963d 9d6a d03d
000002e0: 378a 20bc abff 6e3d 92f8 fabc 7f70 813d
000002f0: 1168 ed3d 09ba aa3d aa55 1f3d 943f 823d
00000300: 24f2 b83c 24e7 65bc 606f 15bd 7693 993d
00000310: 9982 74bc 6391 ea3d cda0 c23d cf40 5e3d
00000320: c27f e93d d150 f2bb a333 f73d a3d7 d43d
00000330: 30f7 a03c 30e4 65b9 c0f7 c83d 6e42 953d
00000340: 0e29 af3b 2048 bc3d 146b 933d c9a2 f2bc
00000350: be08 913d 94db 02bd 3e06 f03c e954 1a3d
00000360: ac78 47bc 14ed 0d3d d8e3 7e3c f751 683d
00000370: 8986 73bd 824a 013d 4a73 d53c e2fe 163e
00000380: 65bb cf3d abd8 03bd 16a4 623c 9028 d23d
00000390: 58c9 3c3d 3587 953d 01e9 003e 9fc4 293c
000003a0: e342 a53d 2920 a23d 3faf f43d bd60 343d
000003b0: ad0b b3bc 4d23 473d 04b2 6ebc 6c97 363d
000003c0: fe3b e63d c88f 393d 6e67 ba3d 485d 503d
000003d0: 3bba f33d 880f 653d 61e4 e8bc 328a 3f3a
000003e0: 2578 6a3d 4b37 ca3d 3369 b23d b766 993c
000003f0: 7613 89bc ca4d bc3d 4694 bb3b e6ab 423d

gru.bias_hh_l0 f4 [384]
0.015788404 0.056838885 -0.010186697 -0.054299966 -0.055239163 -0.067559496 0.016704643 0.048309643
-0.10907076 0.008618647 -0.11139943 -0.017901747 -0.10934566 -0.124418855 -0.026242021 -0.09442915
-0.03823248 0.057483718 -0.075524345 -0.07413634 0.030689096 0.031462442 -0.09005996 -0.046078566
0.10396617 0.032372862 0.028711608 -0.13083456 0.036792878 0.061280478 0.045379624 0.033622697
0.036166966 -0.009761371 -0.018610252 0.014152623 -0.030270502 -0.0102729965 -0.031080684 -0.03623189
-0.063103266 -0.11013546 -0.013923064 0.036847927 0.043476384 -0.058387358 -0.03279751 0.00979313
-0.018723112 -0.10235727 -0.027150163 -0.10152685 -0.034469865 0.02544222 -0.042958993 -0.049698237
0.012582057 -0.054286737 -0.101415455 0.040217485 0.027987462 0.032212608 0.027773589 0.024491694
-0.019681633 -0.11347375 0.02866696 -0.020225985 -0.05573668 -0.09524219 0.06613533 -0.009814601
0.023656415 0.022151241 -0.04425408 -0.04739621 -0.025559567 0.038487002 -0.01951695 0.026534872
0.0028304858 0.032616362 0.045215447 -0.058018945 -0.04406214 0.042078286 -0.090267956 -0.08941226
0.023557993 0.020847356 -0.036558934 0.014856744 -0.064805605 0.019603211 -0.039408118 -0.09234158
0.051981043 -0.04849802 -0.048861574 0.030194685 0.027530784 0.024544133 0.01947723 0.025551166
-0.039002392 0.003550715 0.013008197 -0.11469092 -0.11865521 0.019455131 -0.026698956 -0.0011623441
0.045163766 -0.10735915 -0.041904055 0.014744248 -0.08137952 -0.07467025 0.056713864 0.029526567
-0.078034066 -0.0070787063 -0.023554806 -0.046854418 0.067795746 0.0017896699 -0.112674385 -0.0035329165
-0.032631543 0.059275534 0.13467525 0.0979443 0.00569832 0.07082293 0.045508694 0.0253911
0.11513047 -0.08331386 -0.047854815 0.029276526 0.04986556 -0.029055882 0.011996341 -0.011236803
0.1011613 0.08743919 0.09989456 0.062073357 0.12917861 -0.0159458 0.029933438 -0.031947155
0.08934684 0.030302519 0.05546591 0.012865406 0.116833396 0.11371963 -0.042758636 0.08739548
-0.11039492 0.0352574 -0.0030015316 0.14033711 0.032648355 0.09752042 -0.03463021 0.12228354
0.10385628 0.12768134 0.050901864 -0.00744016 0.01184944 0.042375114 -0.009958492 0.051774334
0.012594227 0.08350723 0.039414562 0.0678137 0.130445 0.0014348484 0.07136323 0.10671886
0.08707251 0.10201928 -0.070721835 -0.02546036 0.079083934 0.0204303 0.01642319 0.021014804
0.010237804 0.066926904 0.009625007 0.0014038865 0.08531218 0.17731136 0.06062178 0.06075483
0.1037738 0.074887246 0.0066788066 0.08783791 6.8836154e-05 -0.02641419 0.11412016 0.15909335
0.046277896 0.088940516 0.0027425797 -0.030754268 0.0040137125 -0.031293396 0.011900269 0.048826464
0.086449236 -0.02658865 0.07026657 0.13228855 -0.0025023303 -0.00018911435 0.033781264 0.118804164
0.0039271074 -0.0006470014 -0.014020088 0.0072889775 0.0053403517 0.037395593 0.10150008 0.12088234
0.057178658 0.11994009 0.15122417 0.019145962 0.034226257 -0.058047708 0.0934767 -0.006192298
0.12958606 0.043126736 0.029880133 0.06097047 0.058267135 0.12197293 -0.060201447 -0.02481491
0.042721976 0.111662485 0.091201074 -0.007929712 0.059116572 0.053153902 0.12892315 0.13938004
00000000: af56 813c e4cf 683d 1be6 26bc a469 5ebd
00000010: 7642 62bd a25c 8abd 2dd8 883c 55e0 453d
00000020: 7e60 dfbd 3a35 0d3c 6225 e4bd afa6 92bc
00000030: 9ef0 dfbd 50cf febd 82f9 d6bc 1264 c1bd
00000040: a999 1cbd 0c74 6b3d 82ac 9abd cbd4 97bd
00000050: b367 fb3c c3de 003d 5b71 b8bd e1bc 3cbd
00000060: 37ec d43d 6899 043d 9b34 eb3c 7ff9 05be
00000070: 21b4 163d 3d01 7b3d fcdf 393d f4b7 093d
00000080: d023 143d 28ee 1fbc 8774 98bc 67e0 673c
00000090: d8f9 f7bc 1250 28bc eb9c febc e467 14bd
000000a0: 493c 81bd b38e e1bd 901d 64bc daed 163d
000000b0: 4b14 323d 9527 6fbd af56 06bd 5d73 203c
000000c0: 3661 99bc b0a0 d1bd 056a debc 4fed cfbd
000000d0: 4630 0dbd 346c d03c c5f5 2fbd 6190 4bbd
000000e0: f924 4e3c c55b 5ebd e8b2 cfbd 17bb 243d
000000f0: f645 e53c 5ef1 033d 7085 e33c cea2 c83c
00000100: 603b a1bc ed64 e8bd f9d6 ea3c f7b0 a5bc
00000110: 254c 64bd 560e c3bd f671 873d 6ccd 20bc
00000120: 19cb c13c 8576 b53c c443 35bd 8722 42bd
00000130: 4c62 d1bc 8ca4 1d3d 03e2 9fbc a95f d93c
00000140: ac7f 393b bc98 053d d533 393d 46a5 6dbd
00000150: 817a 34bd 485a 2c3d 68de b8bd c61d b7bd
00000160: b1fc c03c 13c8 aa3c d2be 15bd b369 733c
00000170: cdb8 84bd ea96 a03c 686a 21bd 951d bdbd
00000180: 13ea 543d dca5 46bd 1323 48bd d85a f73c
00000190: 3d88 e13c c710 c93c b68e 9f3c ae50 d13c
000001a0: f9c0 1fbd 1db3 683b 5520 553c 13e3 eabd
000001b0: 8101 f3bd 5e60 9f3c c5b7 dabc cc59 98ba
000001c0: a4fd 383d 1ddf dbbd 96a3 2bbd dc91 713c
000001d0: 4eaa a6bd b7ec 98bd cc4c 683d b3e1 f13c
000001e0: 53d0 9fbd 7ef4 e7bb 02f6 c0bc 6bea 3fbd
000001f0: 7fd8 8a3d 5b93 ea3a d4c1 e6bd 8188 67bb
00000200: a7a8 05bd e7ca 723d 4fe8 093e 0597 c83d
00000210: f9b8 ba3b 9d0b 913d 5367 3a3d ff00 d03c
00000220: 86c9 eb3d 75a0 aabd 6903 44bd 53d5 ef3c
00000230: d43f 4c3d 9a06 eebc 4d8c 443c 911a 38bc
00000240: a82d cf3d 5113 b33d 8595 cc3d a240 7e3d
00000250: 6647 043e c4a0 82bc f836 f53c 05db 02bd
00000260: 7afb b63d fd3c f83c 3930 633d 6dc9 523c
00000270: 5946 ef3d d6e5 e83d ae23 2fbd 67fc b23d
00000280: bb16 e2bd 106a 103d 58b5 44bb 88b4 0f3e
00000290: 48ba 053d c9b8 c73d 68d8 0dbd cb6f fa3d
000002a0: 9ab2 d43d e6be 023e 797e 503d 96cc f3bb
000002b0: 2724 423c 8791 2d3d f128 23bc 5311 543d
000002c0: 0458 4e3c d705 ab3d 2a71 213d e9e1 8a3d
000002d0: 6093 053e 8611 bc3a e326 923d 6b8f da3d
000002e0: 1253 b23d 7cef d03d 9cd6 90bd 3f92 d0bc
000002f0: c2f6 a13d 725d a73c ed89 863c 3d27 ac3c
00000300: 76bc 273c f910 893d 35b2 1d3c 9d02 b83a
00000310: 27b8 ae3d 1c91 353e 8b4e 783d 0eda 783d
00000320: 5c87 d43d 7c5e 993d e4d9 da3b 5de4 b33d
00000330: 215c 9038 9262 d8bc d5b7 e93d 5ee9 223e
00000340: e48d 3d3d 7226 b63d dabc 333b 60f0 fbbc
00000350: 7685 833b 812d 00bd 59f9 423c 42fe 473d
00000360: 4c0c b13d 71d0 d9bc ebe7 8f3d a676 073e
00000370: 23fe 23bb ff4c 46b9 395e 0a3d 994f f33d
00000380: f7ae 803b 879b 29ba 83b4 65bc 60d8 ee3b
00000390: 1efe ae3b 1f2c 193d 46df cf3d 2991 f73d
000003a0: 2b34 6a3d 26a3 f53d 82da 1a3e fed7 9c3c
000003b0: d530 0c3d 6fc3 6dbd b670 bf3d c3e8 cabb
000003c0: 35b2 043e a9a5 303d 2ec7 f43c 2cbc 793d
000003d0: 85a9 6e3d f2cc f93d cb95 76bd a348 cbbc
000003e0: 3dfd 2e3d 4daf e43d a1c7 ba3d 9feb 01bc
000003f0: 3824 723d e8b7 593d 6e04 043e a4b9 0e3e

fc.weight f4 [3, 128]
-0.0035607435 -0.0047281575 0.007724933 0.06959618 0.04023474 0.0023073829 0.00856869 -0.04758494
-0.01799482 -0.007599076 0.0037273944 0.02675938 0.055902004 -0.08748191 0.027274178 0.016853558
0.060723428 -0.01192408 -0.018805193 0.025254905 0.0073080454 -0.03573174 0.023611873 0.08197055
-0.03664698 0.01797839 0.0407375 0.0154238865 -0.019282041 0.034070123 0.04365509 0.009671955
-0.022437189 -0.060029123 0.020005722 -0.007920618 -0.019051446 0.00015309968 0.0055384072 -0.019148162
0.048561256 -0.03977729 -0.059880007 0.003719407 -0.008543986 -0.023501225 0.013684564 -0.04485937
-0.03527569 0.0051670363 -0.052274913 -0.008844085 -0.037298188 -0.04396239 -0.023040265 0.00995293
0.056021255 -0.0030785853 0.017655138 -0.03266325 0.04511336 -0.05145384 0.023912149 -0.015658312
-0.06888071 0.041278556 -0.0097475145 -0.010354625 -0.03034214 0.0038918809 0.03363522 -0.044335783
0.030653322 0.054209616 -0.028311575 -0.023684291 -0.017037868 -0.005194707 0.036475584 -0.03472287
0.00847925 -0.019334523 -0.018018715 -0.05567168 -0.058375847 -0.06719182 -0.01091982 -0.06352994
-0.0574362 0.015311572 0.016695 0.03161312 -0.04260173 0.041904032 -0.03479162 -0.010957995
0.010159011 -0.06951099 0.029101659 -0.0076905317 -0.05298925 0.024572985 -0.027964775 0.0309357
-0.03690056 -0.030721987 0.033184037 -0.09009005 0.022551982 -0.036476076 0.052829407 -0.03409354
-0.031027356 -0.0124465935 0.026879568 -0.033014964 0.019569408 -0.019638602 -0.006085195 0.02245156
-0.0808781 -0.012063221 -0.031050064 -0.018936101 0.08759851 0.006137624 0.03494449 0.046512052
-0.005491084 0.029973323 0.10729848 0.06406546 0.043259494 -0.00038192753 0.0036590693 -0.09340174
-0.023136012 -0.0003598608 0.0054992656 0.031427626 0.053762518 -0.076279454 0.03052181 0.018502869
-0.071349934 0.044497646 -0.020833032 0.014198042 0.0020733401 -0.033271123 0.015329833 0.037235767
0.035163008 0.033930827 0.033395484 -0.011612074 -0.011397349 -0.07904954 -0.006654833 0.12563777
-0.018118365 -0.061895423 0.020099672 -0.005209422 -0.016256599 -0.055085465 0.005385345 -0.01491464
0.056119844 -0.039498385 0.01979865 0.09262307 -0.01597811 -0.036688447 0.011113184 -0.044499896
0.02366515 0.0031258867 -0.055598095 -0.008778199 0.07581151 -0.042030223 -0.022808868 0.007061539
0.059771664 -0.0063959034 0.010834113 -0.030320825 0.068105385 -0.05151011 0.032486778 -0.011199769
-0.05478734 -0.07204743 -0.0058726734 -0.009875784 -0.035166483 0.084247865 -0.13438234 -0.098302774
0.03368923 0.052919585 -0.02731333 -0.026440674 -0.022351062 -0.010046067 0.038622364 -0.032250207
0.0021081418 -0.022485849 -0.018564438 -0.036035974 -0.08151204 0.027391694 0.09840928 0.0676791
-0.07761022 0.006589607 0.023614142 0.027160756 0.035341922 0.024345044 -0.043391027 -0.012192957
-0.053976074 -0.016370999 0.020299094 -0.0039196317 -0.004168212 0.03621606 -0.023509586 0.030263739
-0.04243322 -0.052815273 0.033564117 -0.015937679 0.022801997 -0.12420357 -0.05383397 0.019838909
-0.030872593 -0.022425564 0.0053025824 -0.03058923 0.016913146 -0.020117536 -0.012629443 0.024948755
-0.014814973 -0.008505326 -0.02843916 -0.020765282 -0.030569756 0.003859798 0.032328572 0.105537675
00000000: 5d5b 69bb a9ee 9abb 6f21 fd3b 7188 8e3d
00000010: 2fcd 243d 7637 173b b163 0c3c 6de8 42bd
00000020: df69 93bc ab01 f9bb 4d47 743b 7d36 db3c
00000030: 80f9 643d b729 b3bd 196e df3c 7910 8a3c
00000040: 21b9 783d 375d 43bc 590d 9abc 60e3 ce3c
00000050: 5478 ef3b 725b 12bd b06d c13c 2de0 a73d
00000060: 251b 16bd 6b47 933c 5ddc 263d 78b4 7c3c
00000070: 5ff5 9dbc 1d8d 0b3d aecf 323d 1f77 1e3c
00000080: 32ce b7bc 19e1 75bd 0ae3 a33c 7bc5 01bc
00000090: c711 9cbc 6289 2039 877b b53b 9bdc 9cbc
000000a0: 2be8 463d 83ed 22bd bd44 75bd 4bc1 733b
000000b0: 13fc 0bbc a485 c0bc 3935 603c 75be 37bd
000000c0: 3e7d 10bd 3e50 a93b 381e 56bd c8e6 10bc
000000d0: fcc5 18bd e811 34bd f0be bcbc 9d11 233c
000000e0: 8b76 653d 17c2 49bb 82a1 903c e6c9 05bd
000000f0: c9c8 383d 43c1 52bd 69e3 c33c dc45 80bc
00000100: 5411 8dbd b413 293d 0ab4 1fbc 72a6 29bc
00000110: 1490 f8bc ed0e 7f3b 16c5 093d 7099 35bd
00000120: ad1c fb3c e70a 5e3d aded e7bc 8f05 c2bc
00000130: 0093 8bbc 5c38 aabb 6c67 153d 9139 0ebd
00000140: 8dec 0a3c 6f63 9ebc fc9b 93bc fd07 64bd
00000150: 831b 6fbd dd9b 89bd 0be9 32bc fc1b 82bd
00000160: 3942 6bbd 63dd 7a3c f4c3 883c c27c 013d
00000170: 277f 2ebd 90a3 2b3d a881 0ebd 2a89 33bc
00000180: fb71 263c c75b 8ebd 9a66 ee3c db00 fcbb
00000190: 410b 59bd 494d c93c 6216 e5bc dd6c fd3c
000001a0: 0b25 17bd adac fbbc fceb 073d 2281 b8bd
000001b0: efbe b83c f067 15bd a663 583d aba5 0bbd
000001c0: 152d febc ccec 4bbc 8a32 dc3c b33a 07bd
000001d0: 0650 a03c 22e1 a0bc 5166 c7bb 55ec b73c
000001e0: 6ba3 a5bd d1a4 45bc b45c febc e21f 9bbc
000001f0: d966 b33d 1f1e c93b f421 0f3d 6c83 3e3d
00000200: 8dee b3bb 9d8a f53c 4ebf db3d c034 833d
00000210: de30 313d 723d c8b9 ffcc 6f3b 6949 bfbd
00000220: bc87 bdbc b3ab bcb9 2f33 b43b 41ba 003d
00000230: 1636 5c3d 6738 9cbd e008 fa3c 5493 973c
00000240: ea1f 92bd 2a43 363d 09aa aabc e89e 683c
00000250: e0e0 073b 4d47 08bd fb29 7b3c 8884 183d
00000260: 1607 103d 0dfb 0a3d b4c9 083d 9240 3ebc
00000270: f2bb 3abc bae4 a1bd c910 dabb 30a7 003e
00000280: f76c 94bc 0e86 7dbd 11a8 a43c cdb3 aabb
00000290: 8f2c 85bc 4ca1 61bd 8c77 b03b 895c 74bc
000002a0: ecdd 653d 0fc9 21bd c730 a23c 2ab1 bd3d
000002b0: 86e4 82bc a046 16bd 1214 363c 8645 36bd
000002c0: 6bdd c13c addb 4c3b d4ba 63bd 6fd2 0fbc
000002d0: 1143 9b3d e227 2cbd aad9 babc 7c64 e73b
000002e0: 22d3 743d ba94 d1bb 9081 313c 6163 f8bc
000002f0: d67a 8b3d 44fc 52bd db10 053d 3c7f 37bc
00000300: b168 60bd 9a8d 93bd 8e6f c0bb 0ace 21bc
00000310: bb0a 10bd 258a ac3d 869b 09be f752 c9bd
00000320: b8fd 093d 35c2 583d 34c0 dfbc 1d9a d8bc
00000330: 9319 b7bc 4298 24bc 7c32 1e3d cb18 04bd
00000340: c028 0a3b 3e34 b8bc 7314 98bc 759a 13bd
00000350: c9ef a6bd 8c64 e03c ce8a c93d 579b 8a3d
00000360: 1bf2 9ebd a1ed d73b 7272 c13c 3c80 de3c
00000370: b1c2 103d 426f c73c caba 31bd f8c4 47bc
00000380: 0416 5dbd 791c 86bc 494a a63c 4170 80bb
00000390: 7f95 88bb 4b57 143d 2d97 c0bc a9eb f73c
000003a0: 75ce 2dbd d454 58bd 877a 093d bc8f 82bc
000003b0: 41cb ba3c 715e febd 0281 5cbd 3585 a23c
000003c0: 85e8 fcbc d1b5 b7bc 49c1 ad3b 4496 fabc
000003d0: 708d 8a3c 88cd a4bc b9eb 4ebc 5561 cc3c
000003e0: 80ba 72bc ec59 0bbc 3ef9 e8bc f41b aabc
000003f0: 6d6d fabc aaf4 7c3b f76a 043d 2324 d83d

fc.bias f4 [3]
0.04221364 -0.072874874 -0.034072492
00000000: 36e8 2c3d 6c3f 95bd 998f 0bbd
