LSTM_best_model.pt (torch, 486253 bytes, 7 tensors)

embedding.weight f4 [27, 100]
0.027254062 0.22092251 -1.8979353 0.6153639 0.80144787 -0.44816855 -3.095839 -0.9918463
-1.248954 -0.60443246 -2.2159567 1.3609073 -1.0605453 0.79419255 1.0694202 2.6832726
-0.0903486 -0.621605 -0.7450619 -1.094822 0.3843819 -0.5770646 -0.16343997 0.108373046
1.0041734 -0.75924015 -0.67231554 2.0209475 1.1361358 -1.1963885 0.369745 -0.66261476
-0.81309354 0.15973884 -0.0785162 -0.21820079 -0.012625151 -1.6232588 -1.3920877 0.95014936
-0.42053598 0.28468743 -0.29199204 1.6157275 -1.1685796 -0.2940141 -1.1956681 0.67126673
-0.16078308 -0.4453863 -0.5873779 -0.26742584 -0.17298009 -0.21590656 -0.31768212 -1.4613761
-0.51521987 -1.518404 0.26017538 1.0775046 -0.23322225 0.39001277 -1.174638 0.37404653
-1.5680257 -1.1761174 0.47959188 -0.4914535 -0.9677359 0.07166731 -0.7565249 -0.786467
0.2030696 0.8535351 0.01826499 -0.5386847 0.031747192 0.27666813 1.1601399 1.5733005
1.0212395 0.16613798 0.3431436 -0.38486236 -0.40256432 -0.15215331 1.6018492 0.64509314
-0.78839535 1.0881065 -1.5819087 -0.14565791 0.13398758 1.4215373 0.08552042 0.3884802
-1.250413 1.5167465 0.6998621 -0.8528352 0.72782063 -0.963818 -0.02601 -0.62102365
-0.090851344 0.2983857 0.6857258 -2.2720385 -0.029026706 -0.33717945 1.615116 0.3472873
-1.3114867 -1.6055131 -0.030141056 1.3876139 -1.3969293 -1.2147788 -0.63227576 1.1381652
0.76769876 -0.027423933 1.3372808 -1.186687 1.109005 -2.901395 1.4160153 1.9505886
0.15802303 -0.12536134 -0.44285426 0.3510727 0.5930555 0.27559364 -2.139081 1.7040869
-0.5927553 -0.9508915 0.8326157 0.2478137 -0.6694942 2.380655 0.46452948 -0.20288165
-0.41173142 0.17216225 0.7719228 -0.08977497 0.29285502 -1.0699667 -0.52798194 -0.9426961
-0.23510945 0.122922055 -0.15235066 -0.6488401 0.20531322 1.1952143 -0.8457979 -1.0432948
-1.4906766 -0.7214451 -0.45257086 0.2049536 -0.8916391 -0.33594364 -1.1397719 -2.9009209
0.6005337 -0.003378972 0.7249901 0.025234746 -1.4516823 0.19896913 -0.5118584 -0.60781366
0.13111955 0.55267054 -0.29283944 -0.097113855 -0.4193845 0.38712972 -0.7928689 2.4484699
-0.18521449 1.883783 -0.73074996 -0.74496037 -2.0637403 0.12834547 -0.11117468 1.171631
0.43798497 -0.82166064 -0.8700541 -1.4797893 0.8269406 -0.20315604 -1.0830953 0.45107237
-0.3447374 -0.9593825 -0.84122956 -0.3585505 -1.1153527 -1.6649454 -0.80347073 -0.885589
2.408253 -0.20458314 -1.4602784 1.0863146 1.1538337 0.10941063 -2.3832846 0.08137918
-2.0811272 -0.42389 0.50395894 0.82051706 0.7380804 -1.8442267 1.158906 0.496301
-0.22938234 -0.19433968 -0.5090086 -0.97142917 -2.182536 -2.3749712 -1.7764076 -0.7493219
-0.16048844 -1.0087799 0.36826354 -1.4356444 -0.6859034 1.1227974 0.4901594 -0.6902842
1.1559967 1.2587131 0.99507153 0.80303925 0.37496284 -0.52874035 0.005862699 1.0320632
-1.0723462 0.14821434 -1.805074 -0.80052835 0.2288646 -0.4544233 -0.20198035 -0.7145821
00000000: e943 df3c 8339 623e 8bef f2bf 7d88 1d3f
00000010: b02b 4d3f 5976 e5be 3a22 46c0 a4e9 7dbf
00000020: badd 9fbf 16bc 1abf 3cd2 0dc0 3632 ae3f
00000030: f3bf 87bf 3450 4b3f c3e2 883f bdba 2b40
00000040: b008 b9bd 8121 1fbf 60bc 3ebf 2123 8cbf
00000050: b4cd c43e 81ba 13bf cf5c 27be b0f2 dd3d
00000060: c188 803f 905d 42bf df1c 2cbf 3457 0140
00000070: e66c 913f 4223 99bf 374f bd3e 1fa1 29bf
00000080: e626 50bf 9492 233e 1acd a0bd 0770 5fbe
00000090: b9d9 4ebc f2c6 cfbf ee2f b2bf fd3c 733f
000000a0: 7e50 d7be 8dc2 913e fb7f 95be 29d0 ce3f
000000b0: 0494 95bf 0489 96be a70b 99bf 23d8 2b3f
000000c0: 52a4 24be ac09 e4be 665e 16bf 0aec 88be
000000d0: b121 31be 9c16 5dbe 3ba7 a2be 5f0e bbbf
000000e0: 73e5 03bf 105b c2bf b535 853e aceb 893f
000000f0: d0d1 6ebe c1af c73e 8a5a 96bf 0783 bf3e
00000100: 11b5 c8bf 048b 96bf 118d f53e cb9f fbbe
00000110: 8abd 77bf 50c6 923d 9eab 41bf e755 49bf
00000120: 7af1 4f3e 4781 5a3f 76a0 953c 3ee7 09bf
00000130: 5809 023d 72a7 8d3e 777f 943f e961 c93f
00000140: fab7 823f 1320 2a3e 85b0 af3e ae0c c5be
00000150: e91c cebe 14ce 1bbe 6509 cd3f d324 253f
00000160: 47d4 49bf 1347 8b3f fc7b cabf 5927 15be
00000170: 0a34 093e eff4 b53f 5425 af3d e0e6 c63e
00000180: 880d a0bf c024 c23f 2a2a 333f 6853 5abf
00000190: 7452 3a3f c7bc 76bf ec12 d5bc 68fb 1ebf
000001a0: 4510 babd 03c6 983e ba8b 2f3f 1469 11c0
000001b0: 6ac9 edbc c9a2 acbe 1fbc ce3f a4cf b13e
000001c0: ccde a7bf 7481 cdbf 60ea f6bc 559d b13f
000001d0: 94ce b2bf df7d 9bbf d3dc 21bf 66af 913f
000001e0: e887 443f 28a8 e0bc 042c ab3f 5ce5 97bf
000001f0: e0f3 8d3f 75b0 39c0 fd3f b53f e3ac f93f
00000200: cad0 213e b95e 00be cbbd e2be cdbf b33e
00000210: 7cd2 173f 9c1a 8d3e b4e6 08c0 851f da3f
00000220: d0be 17bf a06d 73bf 4d26 553f e0c2 7d3e
00000230: f963 2bbf a75c 1840 cfd6 ed3e 35c0 4fbe
00000240: 76ce d2be 4d4b 303e bc9c 453f f1db b7bd
00000250: 18f1 953e abf4 88bf d329 07bf 8854 71bf
00000260: 88c0 70be 8fbe fb3d d001 1cbe 631a 26bf
00000270: a13d 523e c8fc 983f 3686 58bf af8a 85bf
00000280: 7ece bebf a0b0 38bf 5eb7 e7be 5bdf 513e
00000290: 7642 64bf ce00 acbe 0ce4 91bf b0a8 39c0
000002a0: 94bc 193f be71 5dbb f498 393f 19b9 ce3c
000002b0: bad0 b9bf 90be 4b3e 2709 03bf ad99 1bbf
000002c0: 3444 063e d17b 0d3f 0def 95be a1e3 c6bd
000002d0: 91b9 d6be de35 c63e 75f9 4abf bbb3 1c40
000002e0: dea8 3dbe cd1f f13f 6e12 3bbf b9b5 3ebf
000002f0: 5214 04c0 ff6c 033e 8daf e3bd 01f8 953f
00000300: 913f e03e 5a58 52bf debb 5ebf bc69 bdbf
00000310: 61b2 533f 2308 50be dea2 8abf f5f2 e63e
00000320: 6c81 b0be 179a 75bf d25a 57bf ee93 b7be
00000330: e1c3 8ebf ee1c d5bf 42b0 4dbf f6b5 62bf
00000340: d120 1a40 3e7e 51be 67ea babf 5b0c 8b3f
00000350: d3b0 933f ae12 e03d bc87 18c0 21aa a63d
00000360: 3031 05c0 1c08 d9be 7403 013f 680d 523f
00000370: d6f2 3c3f 9f0f ecbf 0857 943f 2a1b fe3e
00000380: 34e3 6abe fb00 47be 634e 02bf 95af 78bf
00000390: abae 0bc0 87ff 17c0 5361 e3bf 8fd3 3fbf
000003a0: 1557 24be b31f 81bf 0a8d bc3e 32c3 b7bf
000003b0: 5d97 2fbf d3b7 8f3f 2cf6 fa3e 77b6 30bf
000003c0: b3f7 933f 831d a13f 02bd 7e3f fb93 4d3f
000003d0: 21fb bf3e 875b 07bf e21b c03b a61a 843f
000003e0: a442 89bf 80c5 173e aa0c e7bf 6def 4cbf
000003f0: 7b5b 6a3e 2caa e8be f0d3 4ebe daee 36bf

lstm.weight_ih_l0 f4 [512, 100]
-0.057078987 0.006582788 -0.04965483 -0.092677146 -0.047771476 0.11555144 0.03670592 0.06092447
0.033513423 0.10520327 -0.07581995 -0.111698575 0.09628209 0.051806048 -0.04632063 0.007888807
-0.01845757 -0.04551257 0.03012016 0.05703027 -0.039332412 0.03334764 0.066389546 -0.015255455
-0.07096145 0.0571979 0.057603545 -0.016184278 -0.0525146 -0.05924528 0.0324118 0.0074219513
-0.031053783 -0.12824428 0.056795724 0.07790014 -0.056511123 -0.020781577 0.107798606 -0.12240201
-0.039539482 0.039221194 0.02502741 0.037723865 0.093822144 -0.0072073066 0.053793844 0.061727367
-0.029457618 0.096993856 -0.01669262 0.035892982 0.10896611 -0.011967125 0.12328181 0.018119365
0.0329854 0.06792364 0.04533079 -0.09068156 0.041789535 -0.078244254 -0.0037856258 -0.00016792737
0.06843708 0.09863097 0.012442001 0.066034645 0.024456874 0.013063047 -0.029225884 -0.034505337
-0.09172164 -0.028436111 -0.029168662 0.11306419 -0.12407523 -0.12323617 -0.07939959 -0.0019050721
-0.10329532 0.035519022 -0.08988445 0.063957386 0.045095023 -0.046905532 0.048033126 -0.06337558
0.029804904 -0.048036 -0.044736292 0.110785 -0.032358844 0.01136495 -0.16648678 -0.046657894
0.05118618 -0.023638353 -0.046903923 -0.021829167 -0.053861458 -0.08587422 0.015187853 -0.051015668
-0.0034163895 -0.013633615 0.012251959 -0.0064893435 0.025175495 0.026674263 -0.061000135 -0.11916716
0.06106214 0.06025029 0.025697662 -0.07657122 0.09624323 -0.052122597 0.03777091 -0.03149176
-0.0673314 -0.014207654 0.039212756 0.054309946 -0.06287689 -0.018882673 0.07702528 -0.09040366
-0.10836516 0.04214114 -0.10065298 -0.016534422 0.09009697 -0.029872486 0.05426215 0.06614693
-0.02340151 0.034888517 0.06883966 0.028040756 -0.018294819 -0.093466304 0.04714711 -0.102864996
-0.039761752 -0.02116634 0.016111055 0.044165865 0.03760726 0.12906499 0.08701557 0.07890004
0.014756418 0.09137579 0.062307652 0.0046477867 0.0995885 0.06264056 0.035828426 -0.104690835
0.06488628 -0.05774547 0.0013639363 -0.033669733 0.027664054 -0.030322226 -0.09737736 0.08625996
0.07810142 -0.05469342 0.012724012 -0.03300971 -0.057373177 -0.04936414 -0.02662768 -0.013658826
0.06591128 -0.08586446 -0.010574189 -0.111381784 -0.06545424 -0.102182165 0.04363835 0.0122647025
0.08019725 -0.009845861 -0.052764762 0.041717246 0.01637355 -0.021170318 0.01632408 0.009118046
-0.06641191 0.06337051 -0.035003293 0.01578091 -0.039112654 -0.08961288 0.026620625 0.028462667
-0.01218475 0.002337245 -0.092157595 0.077436745 0.08823886 -0.03461672 -0.08746873 -0.044188865
-0.07487555 -0.06518457 -0.033144996 -0.06101294 0.011373587 -0.02050064 -0.051103838 0.016002188
-0.004831291 -0.040767454 0.07063482 -0.07621232 0.0059672683 0.0500855 0.06372469 0.036122445
-0.0028770585 0.030026546 -0.031935986 0.09160169 -0.070328906 -0.032119695 0.015065199 0.058997255
-0.037333414 0.09471922 0.0627594 0.049132913 -0.07032139 -0.06336932 -0.097693376 -0.04579202
0.0643705 0.020692622 -0.06707184 0.027897196 0.029192446 -0.018128201 -0.035413664 0.02571615
-0.092293285 0.07504164 -0.02400182 0.03321588 -0.09700264 -0.096692115 -0.07478556 -0.012931248
00000000: a8cb 69bd 6eb4 d73b dd62 4bbd 84cd bdbd
00000010: 06ac 43bd 3ca6 ec3d f258 163d f08b 793d
00000020: 5f45 093d d074 d73d 7d47 9bbd 39c2 e4bd
00000030: 8b2f c53d 9432 543d b3ba 3dbd 0e40 013c
00000040: 5434 97bc 636b 3abd 8ebe f63c 9398 693d
00000050: 061b 21bd 8997 083d 3ef7 873d 04f2 79bc
00000060: 3d54 91bd 5848 6a3d b2f1 6b3d e494 84bc
00000070: 8d19 57bd 2eab 72bd 3cc2 043d d733 f33b
00000080: 8164 febc 7852 03be a2a2 683d 1c8a 9f3d
00000090: 3578 67bd 203e aabc 84c5 dc3d e8ad fabd
000000a0: 27f4 21bd 67a6 203d 4806 cd3c 5784 1a3d
000000b0: d325 c03d 452b ecbb ef56 5c3d d6d5 7c3d
000000c0: 1a51 f1bc b7a4 c63d f6be 88bc 8504 133d
000000d0: a029 df3d c311 44bc 2c7b fc3d 106f 943c
000000e0: b31b 073d 8d1b 8b3d c7ac 393d 41b7 b9bd
000000f0: 812b 2b3d 863e a0bd 4318 78bb a915 30b9
00000100: bd28 8c3d 09ff c93d 89d9 4b3c 2c3d 873d
00000110: c859 c83c 6406 563c 1f6b efbc 7855 0dbd
00000120: 8ed8 bbbd d9f2 e8bc 1ef3 eebc 338e e73d
00000130: 271b febd 3f63 fcbd 419c a2bd 9db3 f9ba
00000140: 7f8c d3bd 657c 113d 5715 b8bd 17fc 823d
00000150: 8fb5 383d 0420 40bd 62be 443d 0ecb 81bd
00000160: 6a29 f43c 66c1 44bd 673d 37bd 3fe3 e23d
00000170: b58a 04bd 0e34 3a3c 837b 2abe 591c 3fbd
00000180: 9aa8 513d 38a5 c1bc 541e 40bd 15d3 b2bc
00000190: d59d 5cbd d3de afbd 79d6 783c cef5 50bd
000001a0: 81e5 5fbb 875f 5fbc 71bc 483c 8fa4 d4bb
000001b0: d73c ce3c fc83 da3c 47db 79bd e90d f4bd
000001c0: 4b1c 7a3d 02c9 763d e783 d23c 5fd1 9cbd
000001d0: 2c1b c53d 817e 55bd abb5 1a3d 81fd 00bd
000001e0: 0ce5 89bd 38c7 68bc 8e9d 203d 1b74 5e3d
000001f0: 99c5 80bd d6af 9abc 6ebf 9d3d 8e25 b9bd
00000200: 8eee ddbd 309c 2c3d 2623 cebd 3273 87bc
00000210: c384 b83d 25b7 f4bc fd41 5e3d 0b78 873d
00000220: 86b4 bfbc 43e7 0e3d cffb 8c3d bab5 e53c
00000230: 04df 95bc 436b bfbd 541d 413d e2aa d2bd
00000240: 38dd 22bd 0865 adbc 55fb 833c 44e7 343d
00000250: 120a 1a3d 9d29 043e 3835 b23d 5896 a13d
00000260: e7c4 713c 3b23 bb3d 4f36 7f3d 764c 983b
00000270: 0ef5 cb3d b249 803d d4c0 123d 2668 d6bd
00000280: 19e3 843d 8486 6cbd 1cc6 b23a 46e9 09bd
00000290: ba9f e23c 5166 f8bc c86d c7bd 10a9 b03d
000002a0: a3f3 9f3d 3506 60bd 6078 503c 3135 07bd
000002b0: 2300 6bbd 0d32 4abd 4b22 dabc 45c9 5fbc
000002c0: 7efc 863d b5d9 afbd 5d3f 2dbc 221c e4bd
000002d0: df0c 86bd e244 d1bd 20be 323d e4f1 483c
000002e0: 753e a43d 8950 21bc dd1f 58bd b4df 2a3d
000002f0: d321 863c 606d adbc 14ba 853c db63 153c
00000300: f802 88bd 66c8 813d 9d5f 0fbd f846 813c
00000310: 9734 20bd f586 b7bd 7f13 da3c 8a2a e93c
00000320: 8ca2 47bc 772c 193b 1fbd bcbd 2897 9e3d
00000330: 93b6 b43d 43ca 0dbd ce22 b3bd 62ff 34bd
00000340: 5a58 99bd 7d7f 85bd 0cc3 07bd b4e8 79bd
00000350: 4858 3a3c f5f0 a7bc 4252 51bd 0517 833c
00000360: ce4f 9ebb c6fb 26bd fda8 903d 3415 9cbd
00000370: 1389 c33b 7426 4d3d 1782 823d 21f5 133d
00000380: 088d 3cbb 3bfa f53c 4fcf 02bd ab99 bb3d
00000390: 9a08 90bd f18f 03bd 06d4 763c 1ba7 713d
000003a0: ecea 18bd 27fc c13d 0088 803d 983f 493d
000003b0: a904 90bd c6c7 81bd 7713 c8bd 6a90 3bbd
000003c0: aed4 833d 9383 a93c f65c 89bd a988 e43c
000003d0: ff24 ef3c 9881 94bc eb0d 11bd adaa d23c
000003e0: 4304 bdbd 6eaf 993d 779f c4bc 600d 083d
000003f0: 52a9 c6bd 8406 c6bd 2c29 99bd 96dd 53bc

lstm.weight_hh_l0 f4 [512, 128]
-0.07160836 -0.07512347 0.04068231 0.003570948 0.038764678 0.0018724231 -0.01250921 0.05123951
0.038979895 0.0034583916 -0.0536793 0.13069211 -0.031423625 -0.09340075 0.045566935 -0.11400986
-0.014631913 0.01263707 -0.018262826 -0.0020168768 -0.045286845 -0.06281352 -0.026020823 -0.023516415
0.021774366 -0.04280774 0.070890985 -0.062088415 0.010412137 -0.06411066 -0.08077227 -0.018465294
-0.052995257 -0.021207226 -0.06971247 -0.013253146 -0.043153413 -0.010180097 0.06964629 -0.04123143
-0.02787872 -0.018421523 -0.07729737 -1.6853986e-05 -0.08901456 -0.044697184 -0.053946383 -0.022400107
0.038166676 -0.013843435 -0.0478628 0.07200744 -0.049969796 0.0742521 -0.08187735 -0.061802447
-0.008904346 -0.01880277 -0.031578016 -0.016091125 -0.07639845 -0.03751625 0.07726674 0.06543019
0.0014094701 -0.000678214 -0.07396717 -0.10489225 0.050329715 0.05393042 0.017229775 -0.080297336
-0.07121903 0.052572224 -0.01161115 0.05271197 -0.06046087 0.028461274 -0.0056308503 0.0063357693
-0.08923184 0.10603047 0.02354458 0.023877015 -0.0020894732 0.011205657 0.033289544 -0.057329193
0.012446901 0.018103106 -0.0031068295 0.06234361 -0.016062498 0.09187115 0.0462354 0.07682312
0.007181165 0.035220228 -0.05377124 0.028315198 0.023445735 0.10576372 0.033975042 -0.03577629
0.050632346 0.028820824 0.049417794 0.0060935216 -0.06344827 -0.032642145 -0.08060198 0.057836708
-0.07470332 0.045690358 0.025330639 -0.08034181 -0.04539344 -0.1258464 -0.008297293 -0.051414374
0.036518265 0.015629057 -0.080241285 -0.022547461 -0.023592804 0.07705098 0.055666197 -0.089547224
-0.0013256966 0.009451352 0.0126380995 0.050718494 0.075824186 0.015152062 -0.07222587 -0.012716195
-0.041737914 0.06945895 -0.024914512 0.056224167 -0.02468415 -0.11456403 0.015459759 -0.05611432
0.056885626 -0.013240459 0.04801679 0.051380444 0.07670218 -0.016032752 0.046872966 -0.004166243
-0.017279081 0.06890908 -0.1047789 0.016433524 0.033414487 0.0735071 -0.07464434 -0.05223656
0.031683482 -0.06608368 0.06338691 -0.060829613 0.03429759 -0.0063979933 0.025585618 -0.095908456
-0.023527095 0.044633083 -0.061795708 0.07370382 -0.053052478 -0.070235714 0.012581609 -0.032506414
0.035989273 0.03035274 0.057496578 -0.06557892 -0.07676525 -0.045100138 0.026155168 0.11173341
-0.044634864 0.121415436 0.024201248 -0.016016472 0.061589345 -0.038452767 0.06470284 -0.07097077
-0.05708493 0.054755334 0.07235342 -0.06309433 -0.009621682 0.09336624 0.030792987 -0.047313012
-0.06416605 -0.03300706 -0.074906334 0.061364308 -0.06196104 0.017119357 -0.10684609 -0.07411705
-0.07440319 -0.094424285 -0.08257573 -0.081335396 0.05796621 0.016408635 0.073268585 -0.09672929
0.0353728 -0.1279718 -0.032042727 0.022523874 -0.08595846 -0.006773988 -0.009552643 -0.08669878
-0.05412261 -0.008403737 0.055342656 0.07761083 -0.015394665 0.08602078 0.048395906 -1.4323576e-05
-0.02723581 0.012493021 -0.04750977 0.11838775 -0.11189374 -0.11405164 0.00555112 0.06738893
-0.059530135 -0.12063236 -0.03992767 -0.0068438095 -0.0542332 -0.081085764 0.0890044 0.03575101
0.05302082 -0.069897816 0.03990255 -0.09565355 0.10629557 0.013274558 0.047324892 -0.08510335
00000000: 67a7 92bd 55da 99bd 7ea2 263d 9106 6a3b
00000010: b6c7 1e3d 186c f53a 6ef3 4cbc 85e0 513d
00000020: 62a9 1f3d 2fa6 623b d3de 5bbd 27d4 053e
00000030: 0fb6 00bd e448 bfbd 65a4 3a3d 007e e9bd
00000040: b1ba 6fbc b70b 4f3c ec9b 95bc 942d 04bb
00000050: b37e 39bd 60a4 80bd 9f29 d5bc 7fa5 c0bc
00000060: 2860 b23c 2b57 2fbd 4b2f 913d 6c50 7ebd
00000070: ab97 2a3c 734c 83bd ef6b a5bd 8744 97bc
00000080: 8e11 59bd c7ba adbc 69c5 8ebd b923 59bc
00000090: a2c1 30bd 6cca 26bc b7a2 8e3d 4ae2 28bd
000000a0: ea61 e4bc bce8 96bc 154e 9ebd a961 8db7
000000b0: 444d b6bd 6514 37bd e2f6 5cbd 6e80 b7bc
000000c0: a954 1c3d 93cf 62bc c90b 44bd a378 933d
000000d0: 21ad 4cbd 7c11 983d 50af a7bd 9024 7dbd
000000e0: 89e3 11bc 4408 9abc f357 01bd 89d1 83bc
000000f0: ca76 9cbd a4aa 19bd 063e 9e3d 4300 863d
00000100: f8bd b83a 2cca 31ba 1a7c 97bd bfd1 d6bd
00000110: 8826 4e3d 25e6 5c3d 7525 8d3c ee72 a4bd
00000120: 48db 91bd f955 573d b13c 3ebc 82e8 573d
00000130: d1a5 77bd 9e27 e93c ff82 b8bb 499c cf3b
00000140: 2fbf b6bd 8126 d93d 90e0 c03c bb99 c33c
00000150: 8bef 08bb ef97 373c 9e5a 083d 04d2 6abd
00000160: 16ee 4b3c f74c 943c f39b 4bbb 035c 7f3d
00000170: 8095 83bc f126 bc3d 5561 3d3d 7155 9d3d
00000180: fa4f eb3b 1643 103d 3b3f 5cbd 46f5 e73c
00000190: 4511 c03c a69a d83d 6a29 0b3d 298a 12bd
000001a0: dd63 4f3d a619 ec3c 506a 4a3d 2aac c73b
000001b0: 2bf1 81bd c5b3 05bd a712 a5bd 2fe6 6c3d
000001c0: 0efe 98bd d025 3b3d 3382 cf3c 3f8a a4bd
000001d0: 79ee 39bd e1dd 00be 5ff1 07bc e197 52bd
000001e0: 2d94 153d 8208 803c 8b55 a4bd 74b5 b8bc
000001f0: b245 c1bc e7cc 9d3d 3d02 643d 8964 b7bd
00000200: ffc2 adba d8d9 1a3c 0810 4f3c 32be 4f3d
00000210: b649 9b3d 5b40 783c 28eb 93bd 9657 50bc
00000220: 60f5 2abd 7e40 8e3d 8519 ccbc 504b 663d
00000230: 6a36 cabc 8ca0 eabd ee4a 7d3c 21d8 65bd
00000240: e700 693d 83ee 58bc 41ad 443d 4d74 523d
00000250: 0816 9d3d 1e57 83bc defd 3f3d fb84 88bb
00000260: dc8c 8dbc 3420 8d3d 5296 d6bd 999f 863c
00000270: a1dd 083d e48a 963d 22df 98bd 01f6 55bd
00000280: 8ac6 013d e156 87bd ffd0 813d 7928 79bd
00000290: a17b 0c3d 42a6 d1bb ee98 d13c a76b c4bd
000002a0: e5bb c0bc 2ed1 363d 7f1d 7dbd 07f2 963d
000002b0: 8e4d 59bd bed7 8fbd 1823 4e3c 7225 05bd
000002c0: 7d69 133d 4fa6 f83c 8881 6b3d 3e4e 86bd
000002d0: 1937 9dbd ecba 38bd 5d43 d63c 7cd4 e43d
000002e0: 0cd3 36bd a8a8 f83d b241 c63c fa34 83bc
000002f0: 1c45 7c3d a680 1dbd ec82 843d 2059 91bd
00000300: e3d1 69bd 2147 603d 082e 943d 9a37 81bd
00000310: 42a4 1dbc cd36 bf3d 9341 fc3c 4acb 41bd
00000320: 7d69 83bd 6932 07bd 7e68 99bd 2459 7b3d
00000330: dcca 7dbd e53d 8c3c 1fd2 dabd aeca 97bd
00000340: b360 98bd 8561 c1bd 771d a9bd 2c93 a6bd
00000350: fa6d 6d3d 676b 863c d70d 963d 021a c6bd
00000360: 12e3 103d 0a0b 03be 3c3f 03bd fd83 b83c
00000370: fd0a b0bd 54f8 ddbb b082 1cbc 218f b1bd
00000380: abaf 5dbd d4af 09bc fbae 623d 6df2 9e3d
00000390: e839 7cbc aa2b b03d c93a 463d 4a4f 70b7
000003a0: a21d dfbc 87af 4c3c 9b99 42bd 4775 f23d
000003b0: 8c28 e5bd e893 e9bd 2be6 b53b 3503 8a3d
000003c0: dfd5 73bd 190e f7bd 328b 23bd 0942 e0bb
000003d0: a223 5ebd 4b10 a6bd f047 b63d a76f 123d
000003e0: 5c2c 593d 9626 8fbd db70 233d 02e6 c3bd
000003f0: 7eb1 d93d 887d 593c bfd7 413d aa4a aebd

lstm.bias_ih_l0 f4 [512]
-0.12092648 0.022408515 -0.025230812 -0.10374164 -0.10252724 -0.08080172 0.09498809 -0.012926341
0.03462775 -0.069670215 -0.0475589 0.021495292 -0.0066777305 0.07576119 -0.056828544 0.041070815
-0.0050467546 -0.0752817 -0.035175346 -0.11371213 -0.008903115 -0.04120232 -0.07020542 -0.052943163
0.007325363 -0.009510808 0.031980652 0.035448875 0.0390322 -0.090498365 -0.11493867 -0.097295895
0.039272033 -0.07167478 -0.08930671 0.003254856 -0.045836743 -0.0875853 -0.0771702 -0.11750966
-0.016152125 -0.08951103 0.042702474 -0.042831805 -0.060911585 -0.02570344 -0.07662895 0.01525739
0.011107107 0.03643433 -0.10167887 0.046066023 -0.065324984 -0.020660942 0.040426295 -0.006125804
-0.11714433 -0.03056802 0.10053368 -0.040584564 0.0024359794 -0.035981283 0.022659857 -0.056503598
-0.10999503 -0.08662009 -0.099550456 -0.0074260514 0.021194896 0.031690866 -0.006618101 0.018308677
-0.092844196 -0.055052686 0.022013752 -0.045130774 0.01327447 0.03102375 -0.0146228485 -0.0045150435
0.0006724185 -0.086540215 -0.010017906 -0.07286768 0.01115293 -0.04303322 -0.11189059 -0.04181822
0.021053806 -0.078920364 -0.038499363 0.037847932 -0.011347177 -0.06835202 -0.07147545 -0.045020893
-0.009449452 -0.059862666 -0.09836706 -0.098264284 0.017802907 -0.014547281 0.050914217 -0.009325849
-0.122427166 -0.043043125 -0.030288199 0.08576208 0.10299338 0.018553954 -0.056193806 -0.0047359224
-0.012383218 0.08741259 -0.03491831 0.024820512 0.032177325 -0.051890366 0.081416525 -0.11216621
0.044722706 -0.017477352 -0.11284165 0.006785062 0.010221039 -0.09719149 0.05412964 0.00047150336
-0.070762455 -0.09903649 -0.03503919 -0.07887081 0.059264205 -0.063665874 0.054949623 0.034133654
-0.010082575 -0.030283147 0.030337365 0.09810908 0.038385775 -0.091389626 -0.07037465 -0.053709216
-0.0876273 0.029134966 -0.03917502 -0.033645254 -0.053036362 0.0004390285 0.06238646 0.08998649
-0.07726887 0.019835593 -0.020528253 -0.08015302 -0.025295224 0.06549216 -0.03103658 -0.1026337
-0.046103604 0.0042130114 0.048870254 -0.069135375 -0.03192979 -0.06100699 -0.08981282 -0.08382005
0.051932015 0.004862123 -0.03588259 0.052824456 0.029254334 0.04615253 -0.019569004 0.054586112
0.064397134 -0.087325186 -0.059534404 -0.029655965 -0.08153138 0.021224415 -0.0045721754 -0.024519406
0.023512814 -0.049613863 -0.057866313 -0.072007254 0.022506662 0.04889046 -0.10871777 -0.09150048
-0.0053594653 0.03794391 0.0055804704 -0.073333666 -0.10048291 -0.047714673 -0.08086394 -0.042069457
-0.032493033 -0.056385215 -0.0040703937 -0.0177479 -0.038396448 -0.015658844 -0.018288614 0.003497029
-0.0008455623 0.049880378 -0.028245656 0.041809358 -0.039456286 0.009052973 0.06371719 0.009357309
0.00568209 0.08124083 0.070513666 -0.03244938 0.022560574 -0.0032301738 0.049299706 -0.10138603
-0.078094736 0.05938347 0.06276072 0.03945341 0.03517043 -0.0120759765 -0.023219595 0.049290273
0.029808203 0.066035405 0.033948664 0.10083469 0.024688413 -0.06616956 -0.042463556 -0.010819623
0.04260774 -0.03244408 -0.039288424 0.03683189 -0.06889255 0.055922203 0.079917975 -0.03422576
-0.07987026 -0.08544454 -0.049220257 -0.038565185 -0.016236724 -0.038033005 -0.089077756 -0.006451864
00000000: 4da8 f7bd 1092 b73c d9b0 cebc 7f76 d4bd
00000010: cdf9 d1bd 5f7b a5bd 1e89 c23d 01c9 53bc
00000020: d4d5 0d3d 42af 8ebd 1fcd 42bd e516 b03c
00000030: ddd0 dabb af28 9b3d 0cc5 68bd df39 283d
00000040: 3f5f a5bb 4b2d 9abd 0614 10bd e8e1 e8bd
00000050: 5fde 11bc c4c3 28bd dcc7 8fbd eeda 58bd
00000060: 9909 f03b 38d3 1bbc 25fe 023d d732 113d
00000070: 3ae0 1f3d 3557 b9bd f764 ebbd 1243 c7bd
00000080: b6db 203d 3aca 92bd 70e6 b6bd 6c4f 553b
00000090: 4fbf 3bbd ec5f b3bd 690b 9ebd e8a8 f0bd
000000a0: 7651 84bc 8f51 b7bd cae8 2e3d 6770 2fbd
000000b0: 6d7e 79bd 0590 d2bc a4ef 9cbd 22fa 793c
000000c0: 95fa 353c 2a3c 153d 033d d0bd baaf 3c3d
000000d0: 1bc9 85bd 2341 a9bc 0b96 253d f8ba c8bb
000000e0: 5ee9 efbd c969 fabc 9ae4 cd3d 003c 26bd
000000f0: f4a4 1f3b 1c61 13bd 2aa1 b93c 5170 67bd
00000100: 1345 e1bd e065 b1bd 1ce1 cbbd 3c56 f3bb
00000110: eba0 ad3c 48ce 013d a8dc d8bb 14fc 953c
00000120: 1925 bebd ed7e 61bd 2f56 b43c 0cdb 38bd
00000130: 2a7d 593c 8525 fe3c ac94 6fbc eef2 93bb
00000140: 3e45 303a ff3b b1bd 2522 24bc a63b 95bd
00000150: c7ba 363c 9a43 30bd e526 e5bd 9549 2bbd
00000160: 0879 ac3c 00a1 a1bd 82b1 1dbd 6f06 1b3d
00000170: 83e9 39bc 25fc 8bbd b961 92bd d467 38bd
00000180: e0d1 1abc 8e32 75bd ab74 c9bd c93e c9bd
00000190: 67d7 913c b857 6ebc 6d8b 503d 72cb 18bc
000001a0: 18bb fabd fd4d 30bd f51e f8bc 08a4 af3d
000001b0: 31ee d23d 76fe 973c 7a2b 66bd cc2f 9bbb
000001c0: fbe2 4abc 5f05 b33d 8006 0fbd 6354 cb3c
000001d0: 5fcc 033d fe8a 54bd b5bd a63d 66b7 e5bd
000001e0: 282f 373d aa2c 8fbc 8619 e7bd 3a55 de3b
000001f0: 2576 273c 550c c7bd 0bb7 5d3d 1c34 f739
00000200: e8eb 90bd a5d3 cabd 4185 0fbd 0587 a1bd
00000210: 06bf 723d 4163 82bd db12 613d bbcf 0b3d
00000220: 6231 25bc 5d14 f8bc 1186 f83c 6aed c83d
00000230: 673a 1d3d 7c2a bbbd 9620 90bd 32fe 5bbd
00000240: f175 b3bd 74ac ee3c fc75 20bd 9bcf 09bd
00000250: a83c 59bd 682d e639 f288 7f3d d64a b83d
00000260: 243f 9ebd 417e a23c de2a a8bc 4427 a4bd
00000270: ee37 cfbc c120 863d 6d40 febc 9e31 d2bd
00000280: 22d7 3cbd 4d0d 8a3b 2d2c 483d d996 8dbd
00000290: d0c8 02bd 77e2 79bd c9ef b7bd d9a9 abbd
000002a0: aab6 543d 7252 9f3b 9ff9 12bd 755e 583d
000002b0: c9a6 ef3c 6f0a 3d3d 2d4f a0bc b095 5f3d
000002c0: a5e2 833d 8cd7 b2bd 59da 73bd 11f1 f2bc
000002d0: edf9 a6bd d3de ad3c 30d2 95bb ecdc c8bc
000002e0: f29d c03c e837 4bbd 3a05 6dbd 8a78 93bd
000002f0: e45f b83c 5d41 483d 6ca7 debd 9b64 bbbd
00000300: 749e afbb 136b 1b3d 61dc b63b f62f 96bd
00000310: fcc9 cdbd 7670 43bd fe9b a5bd 0651 2cbd
00000320: 6a17 05bd 2ff4 66bd f060 85bb 0b64 91bc
00000330: 9845 1dbd fa46 80bc 01d2 95bc 692e 653b
00000340: baa8 5dba 5e4f 4c3d 6f63 e7bc 4a40 2b3d
00000350: ea9c 21bd ec52 143c 287e 823d 664f 193c
00000360: d330 ba3b 9861 a63d 7869 903d a4e9 04bd
00000370: f4d0 b83c 53b1 53bb 7dee 493d 7ba3 cfbd
00000380: 22f0 9fbd 153c 733d b188 803d e699 213d
00000390: de0e 103d 51da 45bc 0537 bebc 99e4 493d
000003a0: 5530 f43c 923d 873d c10d 0b3d 6b82 ce3d
000003b0: 5b3f ca3c e883 87bd 44ee 2dbd ca44 31bc
000003c0: 7485 2e3d 15e4 04bd e6ec 20bd 09dd 163d
000003d0: 8a17 8dbd ae0e 653d 09ac a33d 4f30 0cbd
000003e0: 0593 a3bd 8cfd aebd 2e9b 49bd 87f6 1dbd
000003f0: e102 85bc 7fc8 1bbd 666e b6bd 286a d3bb

lstm.bias_hh_l0 f4 [512]
-0.030597162 -0.037808396 0.09709018 0.02271857 0.0024993825 -0.052195214 0.083816156 0.05030724
0.018822718 0.041858036 -0.036588322 -0.045968805 -0.040860403 0.04162339 0.036809027 -0.10596066
0.010020496 -0.049688984 -0.020254048 0.035519104 -0.10414772 -0.09097222 -0.0019985433 0.054154553
0.005427379 -0.04896454 -0.017527716 -0.028191347 0.013468854 0.006411551 0.031507086 -0.09650534
0.07659311 -0.117675416 -0.10196762 -0.067148045 -0.07676887 -0.0076723234 0.022638325 -0.09543651
0.023324506 0.006750002 0.020774858 -0.09140527 0.07296878 -0.021967381 -0.11684596 -0.12352164
-0.02200114 -0.06335096 0.03351862 -0.033582028 0.061591014 -0.010226932 -0.12076253 -0.0055942293
-0.103666686 -0.020570986 0.10517639 0.001477394 -0.07803543 0.02364624 -0.12103468 -0.08160508
-0.057736285 -0.012509241 0.052703694 0.055979647 -0.036758788 0.052154556 -0.04595694 -0.11640722
0.0304449 0.008623289 0.031782497 -0.05976553 0.0311802 0.02332496 -0.044601783 -0.096663795
0.03806832 0.014901964 -0.09859628 0.0058470033 -0.09866467 -0.057602204 0.005440021 0.039897792
0.040352903 0.012969061 0.04150253 -0.080480926 0.04511189 0.017202249 -0.06854408 0.052056376
-0.07660404 -0.103140436 -0.05912117 -0.076165274 -0.09564005 0.08373147 -0.010787707 0.033722382
0.020716542 -0.061147626 0.008597126 0.030838348 0.039186306 -0.08334038 -0.07239845 0.02010054
-0.0002284515 -0.06024901 0.06293027 -0.07656407 -0.07187843 0.003605497 -0.065619044 -0.089641355
-0.017916394 -0.04669664 -0.043143306 0.06757003 0.08774638 8.422089e-05 -0.09306993 -0.075784154
-0.045407698 -0.032882906 0.0031295044 -0.080144554 -0.029260796 0.06676801 -0.026712172 0.030142294
-0.00374654 0.029548973 -0.074520364 -0.0017488438 -0.006671302 0.002012568 -0.02267677 -0.033820935
0.03997737 -0.07081839 -0.023904175 0.04891458 -0.040429838 0.032904636 0.025505003 0.07942849
-0.049704984 -0.08602974 -0.006474917 0.07678629 -0.008051885 0.0036414173 0.022857226 0.047569655
0.026630022 0.034648206 0.08033134 0.016006306 -0.06532511 -0.06902862 -0.08072623 -0.039933506
0.0141581725 -0.078415826 -0.070657335 0.0019734332 0.054477144 -0.019438017 -0.0055045667 -0.075666405
-0.05908866 0.004517736 -0.05603283 0.062476162 0.034946315 -0.104599364 0.045743108 -0.024817124
0.023132777 0.08975882 -0.02470145 0.036782227 -0.08856879 0.015062223 0.01731892 -0.02269406
0.0143811125 -0.07095225 -0.0466725 -0.041831464 -0.025950711 -0.086437784 -0.0370142 0.03589771
0.021460913 -0.084494896 -0.0025125244 -0.06818089 -0.095127836 -0.03707563 0.0060648927 -0.007141759
-0.107037604 -0.033656333 -0.022296984 -0.0386116 0.03635114 0.0560745 -0.07121653 0.048533544
0.016568413 -0.017173631 0.03919243 -0.074268505 0.07969399 -0.088968575 -0.073697105 0.033581037
0.05603514 -0.046645302 -0.05256242 -0.106263004 0.0059493403 0.008901038 0.055757336 -0.055907026
0.06871652 -0.052234273 -0.024704628 -0.045945995 0.04916756 -0.021989182 -0.010692232 -0.09884871
0.09282876 0.04104628 0.033464544 -0.099002466 0.051117215 -0.040752146 0.0040168203 -0.011736533
-0.080074884 -0.028121175 -0.057936266 0.013178417 -0.023198316 -0.07577543 0.05394145 -0.049182743
00000000: e6a6 fabc fadc 1abd 37d7 c63d 4b1c ba3c
00000010: aecc 233b a6ca 55bd cea7 ab3d f70e 4e3d
00000020: 1a32 9a3c 5573 2b3d a3dd 15bd c949 3cbd
00000030: 3d5d 27bd 4a7d 2a3d 10c5 163d e701 d9bd
00000040: 022d 243c ad86 4bbd d1eb a5bc 7b7c 113d
00000050: 664b d5bd a54f babd fef9 02bb 2ad1 5d3d
00000060: 28d8 b13b 0b8f 48bd 4996 8fbc 8af1 e6bc
00000070: 78ac 5c3c fd17 d23b 930d 013d 97a4 c5bd
00000080: d9dc 9c3d cfff f0bd 66d4 d0bd ea84 89bd
00000090: ff38 9dbd 1d68 fbbb 0274 b93c 3874 c3bd
000000a0: 0913 bf3c 1f2f dd3b 0930 aa3c b032 bbbd
000000b0: a870 953d f0f4 b3bc ef4c efbd eaf8 fcbd
000000c0: bc3b b4bc 26be 81bd d24a 093d 4f8d 09bd
000000d0: dc46 7c3d dd8e 27bc 5852 f7bd cc4f b7bb
000000e0: 334f d4bd 7c84 a8bc b866 d73d 1ea5 c13a
000000f0: 0ad1 9fbd c2b5 c13c 08e1 f7bd 9020 a7bd
00000100: e27c 6cbd 8ff3 4cbc d4df 573d ea4a 653d
00000110: 6290 16bd 04a0 553d 583d 3cbd e966 eebd
00000120: 9567 f93c b248 0d3c 5d2e 023d b3cc 74bd
00000130: 9e6d ff3c fd13 bf3c 5cb0 36bd abf7 c5bd
00000140: 87ed 1b3d 5e27 743c d9ec c9bd 3898 bf3b
00000150: b410 cabd 4af0 6bbd 3442 b23b de6b 233d
00000160: 1649 253d 2f7c 543c 8ffe 293d 2fd3 a4bd
00000170: 3fc7 383d bbeb 8c3c d760 8cbd 1139 553d
00000180: 94e2 9cbd 4b3b d3bd 0a29 72bd 8afc 9bbd
00000190: eede c3bd 687b ab3d ecbe 30bc 7b20 0a3d
000001a0: bdb5 a93c ef75 7abd f6da 0c3c b4a0 fc3c
000001b0: d281 203d 5cae aabd a345 94bd e3a9 a43c
000001c0: 7c8c 6fb9 aac7 76bd 96e1 803d a0cd 9cbd
000001d0: 0035 93bd 344a 6c3b 4763 86bd e395 b7bd
000001e0: 67c5 92bc fa44 3fbd 09b7 30bd 2862 8a3d
000001f0: 60b4 b33d bf9f b038 739b bebd b934 9bbd
00000200: 6cfd 39bd 3ab0 06bd 5f18 4d3b d422 a4bd
00000210: 56b4 efbc abbd 883d 7cd3 dabc f9ec f63c
00000220: 8388 75bb b010 f23c 229e 98bd 7639 e5ba
00000230: f09a dabb 4ae5 033b a2c4 b9bc d287 0abd
00000240: 50bf 233d 3b09 91bd b0d2 c3bc a85a 483d
00000250: c299 25bd 03c7 063d deef d03c 67ab a23d
00000260: 7497 4bbd 5c30 b0bd 8a2b d4bb 2142 9d3d
00000270: 0eec 03bc d8a4 6e3b 143f bb3c 66d8 423d
00000280: 3427 da3c 47eb 0d3d c284 a43d a81f 833c
00000290: 2cc9 85bd e15e 8dbd cb53 a5bd 5191 23bd
000002a0: aef7 673c 7a98 a0bd cbb4 90bd b754 013b
000002b0: 6d23 5f3d 7a3c 9fbc a75f b4bb fdf6 9abd
000002c0: f306 72bd 8409 943b ae82 65bd 01e7 7f3d
000002d0: de23 0f3d 3138 d6bd 205d 3b3d 484d cbbc
000002e0: f380 bd3c 79d3 b73d b25a cabc f6a8 163d
000002f0: 8e63 b5bd 8bc7 763c 68e0 8d3c e5e8 b9bc
00000300: c29e 6b3c 6a4f 91bd aa2b 3fbd 7857 2bbd
00000310: 9696 d4bc 4b06 b1bd 349c 17bd 7a09 133d
00000320: ccce af3c a90b adbd 2aa9 24bb 6ca2 8bbd
00000330: 62d2 c2bd 9edc 17bd 02bc c63b 6b05 eabb
00000340: 8836 dbbd 39db 09bd 2aa8 b6bc 3227 1ebd
00000350: efe4 143d 60ae 653d f9d9 91bd 1ccb 463d
00000360: 7bba 873c b7af 8cbc 3e88 203d 161a 98bd
00000370: 9a36 a33d 2835 b6bd 82ee 96bd 458c 093d
00000380: 1a85 653d 250f 3fbd b14b 57bd 6ba0 d9bd
00000390: aff2 c23b a9d5 113c ce61 643d c4fe 64bd
000003a0: 3fbb 8c3d 9bf3 55bd 5c61 cabc de31 3cbd
000003b0: ec63 493d a822 b4bc 792e 2fbc 3171 cabd
000003c0: 011d be3d 2520 283d 1e12 093d cec1 cabd
000003d0: 4960 513d b9eb 26bd 889f 833b 964a 40bc
000003e0: 4dfe a3bd 615e e6bc 944e 6dbd 4aea 573c
000003f0: 650a bebc 2630 9bbd b6f1 5c3d d873 49bd

fc.weight f4 [3, 128]
0.03440947 -0.06038986 -0.08297274 0.028255727 0.03618777 -0.049377255 -0.016358308 -0.041819435
-0.069149755 -0.06744612 0.044389088 0.06990834 0.035013586 -0.028685449 -0.054523863 -0.05515593
0.040705055 0.03935679 0.029300975 -0.012894288 -0.004304824 -0.0011989905 0.0714376 -0.09319717
-0.06815331 0.06289776 0.025446037 0.024926854 -0.0049515315 0.051540762 0.022766123 0.055262186
-0.07873423 0.020435132 0.058397967 0.015728563 -0.021756358 0.0031397124 -0.05123321 0.053709004
0.073107205 0.05266705 0.04689469 0.012719832 -0.08529289 -0.037558407 -0.045807447 -0.02606574
-0.043998327 -0.05235942 0.046786163 -0.026980715 0.018098237 -0.006010255 0.03468165 0.07090945
-0.027654652 0.061163362 -0.014210153 -0.055690482 -0.021508856 0.022569237 0.058591668 0.060914535
-0.006665798 0.007024139 0.037051715 -0.0040320866 -0.042224236 0.037529536 -0.038597133 -0.013883262
0.013474398 0.012021119 -0.07207637 -0.015785735 -0.018147381 0.012023195 -0.032881267 -0.0029335555
-0.05361361 -0.040697858 0.01394049 0.02579699 -0.04885292 -0.013900719 -0.017953847 -0.027344234
0.060047027 -0.089636296 0.045210492 0.051076524 -0.07865622 -0.00030347327 0.0319309 0.012149548
0.025181772 -0.048003882 0.045839775 -0.012399007 0.068979196 0.03539152 0.033213835 -0.013199724
-0.051832605 -0.049100768 -0.036613196 0.019383002 0.020347994 -0.05693874 0.06518426 0.017939484
-0.08502557 -0.05854883 -0.064774305 -0.066768885 0.013321158 -0.055378124 0.08869356 0.06365967
0.05473987 -0.016017716 0.036012165 -0.02985844 0.043407425 -0.001669787 0.0015036849 0.0025195135
0.039650254 -0.016422298 -0.048099596 0.033500765 0.014205001 -0.017043855 -0.008294749 0.0067670993
-0.052922957 -0.059167467 -0.00039379759 -0.019030528 0.04175632 -0.007975502 -0.0013450382 0.020097252
0.050488044 -0.027340952 0.044817824 -0.011263261 -0.013113527 0.019721061 -0.010501553 0.06346269
-0.034728125 0.010756792 0.06395578 0.06055764 0.0006849849 -0.048725843 0.02958652 -0.03976556
0.07603036 -0.028629873 0.039533906 0.062336247 -0.00997416 -0.048968125 0.02095514 0.05747233
0.03763148 -0.0014425468 -0.010163415 0.026633192 0.074989244 -0.029406767 -0.031895783 0.033876643
0.0040455298 -0.027636945 0.012356197 0.0066735744 0.037445452 -0.032537404 -0.014512513 0.022513079
-0.026208838 -0.078112245 0.060228642 -0.023518626 -0.010131018 -0.011400925 0.044268385 -0.05259751
-0.030649653 -0.00534476 0.02792461 0.061325997 0.07359739 -0.056796893 -0.0061367536 0.07124655
0.040758386 0.0043437756 0.03156903 0.04906688 -0.02891518 -0.01587792 0.0033615083 -0.022971267
0.075700596 -0.036903605 -0.04831017 -0.006461373 -0.040306136 -0.038900368 0.016395971 -0.00023391895
0.05014652 0.06201625 0.05631736 0.047747966 -0.020317087 -0.025577245 -0.023966994 0.011729585
0.036844045 0.05224981 0.017917352 0.010880752 0.0020046523 -0.04663059 0.03392146 -0.026386775
-0.018063625 -0.03612639 0.01486536 -0.069431275 0.03852826 -0.030636005 0.01407982 -0.049293466
-0.074541055 -0.028069155 -0.02674163 -0.027072217 0.037435737 0.028690416 -0.014294717 0.01872464
-0.052586578 0.00045283625 -0.058973137 -0.017938811 -0.034861483 -0.07732145 -0.027191667 0.031145347
00000000: f2f0 0c3d 5c5b 77bd 9ded a9bd 8e78 e73c
00000010: a139 143d ce3f 4abd dc01 86bc db4a 2bbd
00000020: 639e 8dbd 3121 8abd 55d1 353d 1b2c 8f3d
00000030: 686a 0f3d bffd eabc 6a54 5fbd 2feb 61bd
00000040: 58ba 263d 9634 213d 9908 f03c 9042 53bc
00000050: 7b0f 8dbb 7227 9dba e04d 923d 28de bebd
00000060: f693 8bbd 8ad0 803d 3574 d03c 6733 cc3c
00000070: 7540 a2bb 681c 533d 0580 ba3c 9a5a 623d
00000080: 693f a1bd 9467 a73c b532 6f3d 30d9 803c
00000090: 643a b2bc a2c3 4d3b ead9 51bd f9fd 5b3d
000000a0: 3bb9 953d 68b9 573d a514 403d d866 503c
000000b0: 0aae aebd d8d6 19bd 97a0 3bbd d287 d5bc
000000c0: 9737 34bd d576 56bd d9a2 3f3d a906 ddbc
000000d0: c142 943c acf1 c4bb 590e 0e3d f938 913d
000000e0: 028c e2bc 6f86 7a3d b4d1 68bc b41b 64bd
000000f0: 5733 b0bc 1fe3 b83c d1fd 6f3d 8581 793d
00000100: c46c dabb c02a e63b 8ac3 173d 981f 84bb
00000110: 52f3 2cbd 92b8 193d 0718 1ebd 9f76 63bc
00000120: b9c3 5c3c 3af4 443c c79c 93bd 1651 81bc
00000130: d1a9 94bc effc 443c 82ae 06bd e540 40bb
00000140: f299 5bbd ccb2 26bd a766 643c 3654 d33c
00000150: 001a 48bd d7bf 63bc f213 93bc 0401 e0bc
00000160: dff3 753d 3c93 b7bd a32e 393d 9e35 513d
00000170: 8316 a1bd 7e1b 9fb9 fac9 023d e60e 473c
00000180: 014a ce3c b89f 44bd 7dc2 3b3d 3425 4bbc
00000190: f744 8d3d b3f6 103d 3b0b 083d a843 58bc
000001a0: 6d4e 54bd e31d 49bd b8f7 15bd 1ac9 9e3c
000001b0: d6b0 a63c 9938 69bd 537f 853d d3f5 923c
000001c0: e321 aebd e6d0 6fbd 64a8 84bd 20be 88bd
000001d0: fc40 5a3c 2cd4 62bd f8a4 b53d 0060 823d
000001e0: ea36 603d 9637 83bc 7e81 133d b099 f4bc
000001f0: fccb 313d c1dc daba 4b17 c53a 6c1e 253b
00000200: 4e68 223d 0e88 86bc 1504 45bd 1938 093d
00000210: 18bc 683c 8e9f 8bbc b3e6 07bc 8bbe dd3b
00000220: bec5 58bd 9659 72bd 9e76 ceb9 e9e5 9bbc
00000230: ad08 2b3d aeab 02bc fe4b b0ba fea2 a43c
00000240: 8dcc 4e3d 22fa dfbc e592 373d 8a89 38bc
00000250: 1eda 56bc 108e a13c b50e 2cbc baf8 813d
00000260: 143f 0ebd 413d 303c 3ffb 823d 4a0b 783d
00000270: 8f90 333a c094 47bd 6e5f f23c 36e1 22bd
00000280: ceb5 9b3d 3289 eabc 4eee 213d 4b54 7f3d
00000290: a96a 23bc cd92 48bd 1daa ab3c 1b68 6b3d
000002a0: 7723 1a3d d713 bdba 7484 26bc da2d da3c
000002b0: f693 993d 76e6 f0bc 27a5 02bd 3cc2 0a3d
000002c0: 5d90 843b e066 e2bc a671 4a3c 00ae da3b
000002d0: 6760 193d f145 05bd e4c5 6dbc 596d b83c
000002e0: ebb3 d6bc 50f9 9fbd 4fb2 763d 22aa c0bc
000002f0: 92fc 25bc f2ca 3abc c452 353d 7d70 57bd
00000300: fb14 fbbc 1923 afbb 27c2 e43c f830 7b3d
00000310: 3aba 963d dca3 68bd d216 c9bb b6e9 913d
00000320: 44f2 263d 3b56 8e3b 874e 013d 5afa 483d
00000330: 87df ecbc 6912 82bc c04c 5c3b 3d2e bcbc
00000340: ea08 9b3d 3c28 17bd e3e0 45bd edb9 d3bb
00000350: 0c18 25bd fe55 1fbd d850 863c 2448 75b9
00000360: 7066 4d3d c004 7e3d 08ad 663d 5f93 433d
00000370: 0570 a6bc 5f87 d1bc 6e56 c4bc 722d 403c
00000380: c8e9 163d e603 563d 69c7 923c 2e45 323c
00000390: 7c60 033b b8ff 3ebd 3bf1 0a3d 1429 d8bc
000003a0: 2bfa 93bc 44f9 13bd d78d 733c fc31 8ebd
000003b0: cfcf 1d3d 5cf8 fabc 0caf 663c f2e7 49bd
000003c0: fba8 98bd 49f1 e5bc 4311 dbbc 8ec6 ddbc
000003d0: 3756 193d 2a08 eb3c 6434 6abc 6b64 993c
000003e0: 0665 57bd a76a ed39 d18d 71bd 6af4 92bc
000003f0: eaca 0ebd b55a 9ebd 0fc1 debc 8724 ff3c

fc.bias f4 [3]
-0.071509816 -0.080453485 -0.03873795
00000000: bd73 92bd ccc4 a4bd afab 1ebd
