SimpleRNN_best_model.pt (torch, 132959 bytes, 7 tensors)

embedding.weight f4 [27, 100]
00000000: 7bf9 c33d 8b89 4fbf 7040 e1bf c0dd 44be
00000010: 4f39 5ebf 21b6 d2bd 1ed2 6fbe bfcc 45bf
00000020: 6f72 66bf 3db8 03bf 06b2 7bbe a61d f6be
00000030: ea98 babd 168c 03bf f380 c73e b135 ec3d
00000040: 4377 68bf 6c9a d43f c204 ab3e af1e 9abf
00000050: aaa1 bdbf 2ba6 4640 da38 41be 3934 743f
00000060: ef1f bebd 892d 87bf 4bcf d9be 199f 543f
00000070: 2d1d 913f 82f5 d33e f37e 8bbf 2637 a3bf
00000080: afe9 4a3e f38c f93e cd9c c23f 02f3 623f
00000090: 1a0f ac3e c10d a03f 66b4 393f ebc1 83bf
000000a0: 322f 4ebf bbc1 0e3d 1100 163f c8db 403f
000000b0: 0c6d 1240 9930 443f 7186 f03d f52e ebbf
000000c0: 6b96 2fbb dcc2 d43e 5c59 8dbe 6d61 883f
000000d0: 8d13 3140 e746 dc3d 3dca ec3d 1645 673f
000000e0: 9c0c 3fbf 8e2b 41bf 5407 adbd 419c a5bf
000000f0: 766a 633f 7949 82be 1365 11c0 0e6e 9cbf
00000100: fcae 843f 19f2 51bf c17d b6be 8e2d 093f
00000110: bb73 c93f 4498 873f c310 89bd 3acb 1f3f
00000120: c000 9ebe 3a14 e13e 6e08 623f 8d40 b33a
00000130: 53f3 583d 579e 9abf cee5 363f 9877 ab3f
00000140: c36d 493f 7dc1 823e c3db c6bf 3273 a1be
00000150: c681 c0bf 7017 ebbe 9d3c 76bf ff6c 5fbd
00000160: 9e88 9cbe 6c7e 73bf 19e4 c43f 8dba 9b3d
00000170: f3eb c53f 8780 84be 4bd1 fd3e 9a0b ab3e
00000180: ced0 c2be 341a b1bf 0817 7c3f 6b17 fdbf
00000190: 51aa 813e a6c5 2d3f 8887 3dbf 41fe da3f
000001a0: 12ff 7b3f c302 853f 81df 4ebf a316 6a3e
000001b0: 0208 94bf 3716 883e 0482 f0be 80f8 52bf
000001c0: d472 31be 2f1e c9bc 3173 1b3e 387a b7be
000001d0: ba61 03bf 5ce9 e33e 363a 513c 0be6 9abf
000001e0: 9137 cdbf e1bb cc3e 9a78 bb3e 95f7 72bf
000001f0: 4b12 8c3f aaa8 02bf 3207 29bf 240b e5bf
00000200: f6c7 19bf 4c40 fd3e 0f05 dd3f 3675 23bf
00000210: 6dc4 aabf cf24 633f dab2 6abf edee e03f
00000220: d56d fdbf 0a96 f33e ff0a c7be 09c0 28be
00000230: 8484 a13e 36f7 0d3e 1b72 373f 7f09 e33d
00000240: 024b 9abd 5961 cfbf 0ae4 27bd 747d 38c0
00000250: 2a29 103e 82ba a33e f22a 873e dd71 0040
00000260: 9ec8 9abe 7c85 e73c 8628 353f b9d3 2fbf
00000270: cdd7 b1bf da8c 1a3f 5ca9 39bd bb84 5c3f
00000280: 45bd a1bf aa25 cabf 2b72 24c0 a823 dabf
00000290: b9a7 49bf 0c75 d73e b55c 1bbf e962 d43f
000002a0: a1a7 543f 3273 803f 4eaa f33e 3361 073e
000002b0: c423 d43f 6701 793f 70d9 46bf 77cf 853f
000002c0: 3158 a93f 4f5f 65be dea8 ad3e a663 c9bf
000002d0: 2687 ab3e e4f2 25bf 32ef c2bf 119e 93bd
000002e0: 11ad 3440 1f79 613f 2fd3 f23e 8e55 063f
000002f0: e02f 99bf e31f b2bf 6ee0 3fbf b0e2 273f
00000300: 9c9f 9e3e dd40 8cbf 31ae e8bf e6a6 603f
00000310: d432 be3f 8743 6abf fbc1 9bbe 9926 533f
00000320: 6496 ffbe 8ce2 e8be aaeb f2bd d2d7 5a3f
00000330: dfd9 4a3f 4dff 52bf 6b1e 06bc de64 4e3e
00000340: 6237 793f bc41 243f ddba 81bf f23f 883f
00000350: e541 66bf 4eb4 553f ff0f 47bf 5abd 82bf
00000360: 1e63 dbbe c6a9 7dbf b5ab 23bf 637e 903f
00000370: 6af9 b23f f64f 4cbf 9cb8 c3bd e52b c1be
00000380: 91f0 c7be f342 c8be 1b92 1b3f 4c8d 2bbf
00000390: ca9c 513f fabb ae3d 3a71 e63e f2db 193f
000003a0: b716 dbbf a131 033f 45b6 9ebf ae6c 78bf
000003b0: d23c 453f f9fa f5bf 93a1 fdbe 64c1 0a3f
000003c0: 2564 993f 9d18 b5be 2c9f ddbd f1c8 2bbf
000003d0: 6a6c 473e 8fec 2ebe c1b1 7ebe 97b7 b93e
000003e0: 6d4b 18bd c119 4c3f 58cc 8e3f 7fce 07bf
000003f0: e6e0 bbbe 69ea 4bbe e91e 44bf 6114 49bf
0.09569069 -0.8106925 -1.759779 -0.19225216 -0.86806196 -0.102886446 -0.23419997 -0.7726554
-0.9001836 -0.51453 -0.2457963 -0.48069495 -0.09111197 -0.5138563 0.38965568 0.11533678
-0.9080698 1.6609626 0.33402067 -1.2040614 -1.4814961 3.103892 -0.18869343 0.95392185
-0.092834346 -1.0560771 -0.42540964 0.83055264 1.1337029 0.41398245 -1.0898117 -1.2751205
0.19815706 0.48740348 1.5204102 0.8865205 0.33605272 1.2504197 0.7254089 -1.0293554
-0.80540764 0.034852725 0.5859385 0.7533536 2.2879057 0.76636654 0.11744393 -1.8373705
-0.0026792537 0.41554916 -0.27607238 1.0654732 2.7668183 0.10755711 0.115620114 0.9033979
-0.74628615 -0.75457084 -0.08448663 -1.293831 0.8883432 -0.2544668 -2.271794 -1.2221086
1.0365901 -0.82010037 -0.35642818 0.53585136 1.5738443 1.0593343 -0.0669265 0.62419474
-0.30859947 0.43960744 0.8829411 0.0013675854 0.052966427 -1.2079571 0.71444404 1.3395872
0.7868311 0.25538245 -1.5535816 -0.315332 -1.5039604 -0.4591632 -0.9618624 -0.054547306
-0.3057298 -0.9511478 1.538211 0.07603941 1.5462631 -0.2587931 0.4957374 0.3340729
-0.3804993 -1.3836122 0.9847264 -1.9772772 0.25325254 0.6787971 -0.7403493 1.7108842
0.9843608 1.0391468 -0.8080979 0.22860198 -1.1564944 0.2657945 -0.46974194 -0.8241043
-0.1732896 -0.024550525 0.15180661 -0.35835433 -0.51320994 0.44513977 0.012770226 -1.2101454
-1.6032583 0.3998709 0.3661545 -0.9490903 1.0943083 -0.5103861 -0.66026604 -1.7894025
-0.6007074 0.49463117 1.7267169 -0.63850725 -1.3341194 0.8872804 -0.91679156 1.7572914
-1.9799143 0.47575408 -0.38875577 -0.16479506 0.31546414 0.13863835 0.71658486 0.110857956
-0.07533838 -1.6201583 -0.04098896 -2.882657 0.14078203 0.31978232 0.26399952 2.0069497
-0.30231184 0.028261892 0.7076496 -0.6868244 -1.3893982 0.6037117 -0.04532753 0.8614003
-1.2635885 -1.5792744 -2.5694683 -1.7042131 -0.7877155 0.42081487 -0.60688335 1.6592685
0.8306828 1.0035155 0.4759087 0.13220672 1.6573415 0.97267765 -0.77675533 1.0453938
1.3230039 -0.22399639 0.33917898 -1.5733535 0.33501548 -0.64823747 -1.5229247 -0.07207883
2.8230631 0.8807544 0.47426745 0.52474296 -1.1967735 -1.3915981 -0.7495183 0.6558027
0.30981147 -1.0957295 -1.8178159 0.87754667 1.4859262 -0.9150929 -0.30421433 0.8248077
-0.49919426 -0.45485342 -0.118613556 0.85485566 0.79238695 -0.8242081 -0.008185963 0.20155665
0.9735013 0.641628 -1.0135151 1.0644515 -0.899443 0.8347825 -0.77758783 -1.0214036
-0.42849058 -0.9908718 -0.6393388 1.128857 1.3982365 -0.7980951 -0.09556696 -0.377288
-0.39050725 -0.39113578 0.60769814 -0.67012477 0.81879866 0.085319474 0.4500826 0.60101235
-1.7116307 0.512476 -1.2399374 -0.9704083 0.7704593 -1.9217216 -0.49537334 0.5420134
1.1983687 -0.3537034 -0.10821375 -0.6710349 0.1947495 -0.17082427 -0.24872495 0.3627288
-0.037181307 0.797268 1.1156111 -0.53049463 -0.3669502 -0.19913639 -0.76609665 -0.7854672

rnn.weight_ih_l0 f4 [128, 100]
00000000: cb2a 863d b0bf 5b3d 62bd f9bc 85b4 e23c
00000010: a341 95bd a1fe 963c 3c85 15bc a6b6 623d
00000020: 9437 11bd b619 49bd 92c8 813d eebe 93bd
00000030: c206 373d 6438 7cbd a1c1 893d 487e 66bb
00000040: b0c2 aabd bc22 e93c d1a1 203d d223 26bc
00000050: 9e07 0c3d 9737 afbc 3d69 e23c 9307 083d
00000060: ea55 e9bd 5c33 42bc aba8 aebd dd12 8ebd
00000070: bf8a 443d 31a9 fa3c 464b 453b c65f e5bc
00000080: 402d b5bd fcb7 3dbd 335d a6bd 6bf8 a2bd
00000090: d0b8 99bb 9555 b83c f16e 6a3d 6156 d0bc
000000a0: 441c 14bb 9b38 76bd 7571 ab3b 550d 573d
000000b0: 6a3f 6ebb 581e 84bd 2a6b 13bd c016 eabc
000000c0: ed8a 82bd 86a4 ae3c 7d8a d03d 66a2 55bd
000000d0: 1d23 ccbd 9125 28bd 0e9d 44bd c451 193d
000000e0: 8cf2 4d3c b97f ffbc 8247 06bb 9b43 383d
000000f0: cdf1 9e3c d7aa 363c 7113 203d 6721 8fbd
00000100: 1a12 abbc dfb6 533d 5845 063d 91d4 133d
00000110: 4ffb 3c3d fb14 97bd dc05 193d 46df a5bd
00000120: 8814 59bd f633 56bd 3731 b63d 775d 973b
00000130: 462e 713d cc08 26bd 2b7d 753d 8299 95bd
00000140: 12e3 49bc 987e 023c fee9 ec3c a050 9bbd
00000150: 0bf6 133d 1afb 0abd 9a17 b33d 160f 19bc
00000160: cd16 9dbd 03bf 0ebc 7aa9 1c3d 6c29 473c
00000170: d413 abbd 4cc6 c7bd fcef efbd 5282 be3d
00000180: 1809 9a3d 2b33 8b3d 815a 813b 6693 eb3c
00000190: de0c 8f3d 0ba3 d7bd 0ed1 3b3d 641b aa3d
000001a0: a4b6 a9bd 00a4 8abd 9ba9 e1bc 878a 7bbc
000001b0: 489e 1abd 9ce6 a9bd ac17 11bd 9aea 11bd
000001c0: dfac f93c 3883 883d 2da2 91bd 3b26 5d3d
000001d0: f373 a3bd 0c5c f13c 00e9 963d 126f ba3d
000001e0: b7f2 813d a288 72bd 34d7 bebd 4a46 41bd
000001f0: 055c 1abd e3b8 34bd 7912 87bd 7ffc 9bbd
00000200: 9e9b 763c 8eea 933b 1e9e 913d 9bd3 b63d
00000210: f15c 883d ea2c f83d f8ea 923d 2230 8cbd
00000220: 18f4 16bd 15d7 ca3c 93a5 4ebd 7d70 10bc
00000230: 91d6 66bd 666d d5bd c376 94ba c1e3 563d
00000240: 02da a73c 868e e13c 9014 273d fa4e bc39
00000250: 666a d7bc 061c debb 79d3 be3d f22c f43c
00000260: eb5c 35bd e65a 90bd aced 613d 00cf 5bbd
00000270: 5a17 5ebd 0320 a13d 6080 a4bd f4f1 b73d
00000280: 91b0 06bc 5119 c6bd 65bf 7a3d 2edf a23d
00000290: c060 a33d c307 f33c 741b 0dbd 40b6 46bd
000002a0: 8c98 c43d c8d5 a43d ca96 d8bc 3e70 92bd
000002b0: 0201 c13c 21c7 00bd 2a73 093d ddc1 4ebd
000002c0: ae4b 8f3c ca62 80bd 947e c33c 9f58 b03c
000002d0: 0049 b53c c9ea 463d dc01 aabd 9c1e 8cbd
000002e0: 2448 b8bc 577d c83c 683c 593c f466 c8bc
000002f0: 23f2 e5bd 7d5c b8bc dea4 53bd 2c45 3f3d
00000300: 1fe6 c4bc 8636 04bd 8e18 45bb cb4f d63c
00000310: 6922 0abd 581c 81bd bc0b aebd 1f8d a0bd
00000320: 73b5 bd3c 5890 8cbc 778c 25bd 5684 7d3d
00000330: 2ccd c83c 5bb3 4b3d 53d1 973c 05a2 993d
00000340: e374 1abd cc3d 01bd 87a9 9fbc 6cdd 0a3d
00000350: 16aa 663d 9c2d 15bd 542a 81bb 4506 98bc
00000360: f45d 68bc f86b fe3c edff 13bd 2d64 7e3d
00000370: 9d29 69bd 16ce 7d3c e565 14bd 9a14 a2bd
00000380: d4e0 61bd 53b4 81bd 7c09 7c3d d797 803d
00000390: 44d5 93bd 9cda 30bd deeb a9bc d186 9b3d
000003a0: d11f 36bd 645a da3d 0f6a e4bb b424 6dbd
000003b0: a361 63bc 1c62 8cbd 3117 42bc 09bb d1bd
000003c0: eb72 02bc 17d7 be3d 2445 de3d 2299 cc3c
000003d0: 6c1a c2bb 9136 cbbc 28ee e63b 8fa4 8fbd
000003e0: 7c5f a9bd 21f1 6ebd 8825 c13c 20e5 d2bb
000003f0: 7cc2 e13c 85bd 223a ab8b 8c3b 44eb 693d
0.06551131 0.053649604 -0.030485813 0.027673969 -0.0728791 0.018431963 -0.009126004 0.05534997
-0.035453394 -0.049096785 0.06337084 -0.07214151 0.04468418 -0.061577216 0.06726385 -0.0035170484
-0.08337915 0.028458945 0.03921682 -0.010140376 0.03418695 -0.021388812 0.027638072 0.03321035
-0.1139334 -0.011853065 -0.085282646 -0.06937192 0.04798388 0.030598255 0.003010468 -0.02799977
-0.088465214 -0.04631804 -0.08123245 -0.07957538 -0.004691221 0.022501746 0.05723471 -0.025431814
-0.0022599855 -0.060112577 0.005232031 0.05250295 -0.0036353716 -0.064511 -0.03599087 -0.028575301
-0.06374154 0.021318685 0.101826645 -0.05215683 -0.09967635 -0.04105145 -0.04800134 0.037431493
0.012570035 -0.031188833 -0.00204894 0.04498635 0.019402409 0.01114913 0.03908104 -0.06988793
-0.020882655 0.05168807 0.032780975 0.03609139 0.046138104 -0.073770486 0.037359104 -0.08099227
-0.052998096 -0.052295648 0.08896106 0.004619296 0.05888202 -0.040535733 0.059933823 -0.0730467
-0.012322204 0.007964753 0.02892017 -0.075837374 0.036123317 -0.033930875 0.08744736 -0.009341976
-0.076703645 -0.008712533 0.038247563 0.012155872 -0.08353391 -0.09754619 -0.11715695 0.093022004
0.07521266 0.06796869 0.0039475565 0.028756808 0.06984876 -0.10529145 0.045853667 0.083060056
-0.08286789 -0.06769562 -0.027546695 -0.015352852 -0.037748605 -0.082959384 -0.035422966 -0.035624124
0.03047794 0.06665653 -0.07111011 0.053991538 -0.079811 0.029462837 0.0736866 0.09103216
0.06345122 -0.059212334 -0.093183905 -0.047186173 -0.037685413 -0.044121634 -0.0659532 -0.07616519
0.0150517505 0.004514045 0.071102366 0.08927079 0.06658352 0.12117942 0.07173723 -0.06845118
-0.03685388 0.024760762 -0.050450873 -0.008815882 -0.05635697 -0.10421257 -0.0011326898 0.052463297
0.020489696 0.02753378 0.040791094 0.00035916996 -0.026295852 -0.006778243 0.09317679 0.029806588
-0.044278067 -0.070485875 0.055158302 -0.053664207 -0.05422149 0.07867434 -0.08032298 0.08981696
-0.008220808 -0.096727975 0.061217684 0.079527244 0.07977438 0.029666787 -0.03445001 -0.04851365
0.095994085 0.08048588 -0.02643909 -0.07150315 0.02356005 -0.031439904 0.033557095 -0.05047785
0.017492142 -0.062688425 0.023864068 0.021526633 0.022129536 0.048563752 -0.08301136 -0.06841776
-0.022495337 0.02447383 0.013259031 -0.024463154 -0.112278245 -0.02250504 -0.0516709 0.046696827
-0.024035512 -0.03227856 -0.003007445 0.026161095 -0.033724222 -0.06304234 -0.08498332 -0.07839417
0.02315781 -0.017158672 -0.04041716 0.061893784 0.024511896 0.049731594 0.01853243 0.07501606
-0.037709128 -0.031553075 -0.019490017 0.03390257 0.05631455 -0.03642045 -0.0039418135 -0.018557677
-0.014182556 0.031057343 -0.03613274 0.062107254 -0.05692445 0.015491029 -0.036229987 -0.07914086
-0.055146053 -0.06333222 0.061532483 0.06278961 -0.072184116 -0.043177232 -0.020742353 0.075940736
-0.044463936 0.10661772 -0.006970651 -0.05789633 -0.013878259 -0.068546504 -0.01184635 -0.10240752
-0.007961969 0.09318369 0.10853031 0.024975363 -0.00592356 -0.024806293 0.0070474334 -0.07013809
-0.08270165 -0.058335427 0.023577467 -0.0064360052 0.027558558 0.000620805 0.0042891107 0.057109132

rnn.weight_hh_l0 f4 [128, 128]
00000000: fb3c 53bd d2d0 17bd df11 d5bd e16d ac3d
00000010: 9367 a03d a238 743d e685 01bc 667f 77bc
00000020: 0d65 a6bb 5483 75bc c02f a23d 6884 23bc
00000030: 507f 063e 3d52 dcb9 5565 2cbd b376 e4bc
00000040: 7bf5 27bd 5839 c03d 5927 14bd 4970 64bd
00000050: 530b f1bb 3001 e7bc 31ca 3cbd c20e 833d
00000060: 7c88 f63c 82b7 2b3d 42b8 17bd 905f 3a3c
00000070: b3e2 383d 48b9 84bd 356e 8f3d 57b9 d33c
00000080: ca2d bf3d 24d4 763d 4e02 0dbc 3d4f 21bd
00000090: bd84 68bd ea92 11bc 9973 96bd ea5f 83bd
000000a0: af93 843d 6caf 61bd f8ff 94bd c43d 5c3d
000000b0: 798b 823c e0cb 473b 4c9b 493c 4f74 54bd
000000c0: 366e 8e3c 6b30 5e3d 1c04 26bd c9b7 c9bc
000000d0: 940a 843c 0a58 39bd 3eaf 843d b229 f33c
000000e0: 198e 5e3d 5227 d0bd 0287 80bd 6992 a6bc
000000f0: ca2b 743d 79a0 9d3d 1f97 b6bd c0d4 28bc
00000100: fc23 093d 2109 2c3c ade7 b13a 77d5 833d
00000110: f38a 463c 8dac 4fbd baa4 c2bc a3a6 bf3c
00000120: dd8e 69bd 7af5 22bd a37c a73d f34f 42bd
00000130: 426d edbc 5093 8ebc 2cab 68bb 0192 f03c
00000140: a96b 9fbc 9b82 79bd 5c31 9b3b bfc0 8ebc
00000150: 05b1 093c b7b4 403d f7dc 3a3d 638a 9e3d
00000160: 904c 653d 792e b63d 13bc 263d e953 c23c
00000170: ecb2 083d 4b35 9bbd 42c1 8dbd 51b4 1a3d
00000180: 66d8 af3d b850 6ebd 4569 083d 8fac 023d
00000190: 2b3e 4f3d 96f0 a7bc 1330 883d 1d86 b53d
000001a0: cca5 5abd 9f87 a8bd 373b 833d 00c4 ae3b
000001b0: 6cb2 c23d 034a 6dbd 347a 52bd bea8 e3bc
000001c0: c714 8b3d 5fe5 f43c fc0d ffbc e524 82bc
000001d0: 6f1e 663d fc13 f13c 24f2 883c 5d46 a8bb
000001e0: 987f 87bb b6ba 8d3c bfcd 0d3d ee06 a43d
000001f0: 2874 97bc cdfb 08bd 64e9 bbbd 6453 91bd
00000200: ec3e a1bd a945 5abd 9260 d83b fd3f 87bd
00000210: 9f02 953d 5285 63bd f00c c9ba 3f0f 973c
00000220: d9fe 263d cd0e 8dbd aa57 28bd e4aa 2c3d
00000230: 0cbb 173d 2e4f 7a3c 7dd9 b63b 2590 923d
00000240: fc7b df3b 5f5e 643c 6742 10bd 5e59 3d3b
00000250: 3fb9 febc 35f9 9ebd 2e5c 383d d67c 803d
00000260: e127 efbc eb12 bebc edb1 423c b89f 8ebc
00000270: c102 11bd 750f 56bc bdd7 cd3c 045f 37bd
00000280: d4a4 a6bd e7fe 613d 78c7 cf3d d6d0 883d
00000290: c9f3 c43c 79b1 443d ae02 a73d c729 b5bc
000002a0: 1b3e 103d 522b 64bc 3bad 3c3d 53b7 8cbd
000002b0: 4e68 96bd 3904 593d 1dad 62bb 8889 9b3b
000002c0: 66ca 003d 7032 e23c e401 09bd 87cc c1ba
000002d0: cd44 9d3d 2f3d 66bd 54ba a4bd adfd b9bc
000002e0: 8122 843d 2e90 5ebc 0c1b 16be 0f8a 83bd
000002f0: 3e25 5bbd 3414 ea3c 4951 f2bb c8d6 6e3c
00000300: 757a 93bd 65e6 c43c 3413 a5bd f84c 663c
00000310: 51b8 d83c 51a6 89bd 9c9b 02bd ecf2 3ebc
00000320: 400e 18bc cd1a 553d 22a1 54bd 57f2 11bd
00000330: 2cb4 a1bc 212a 16bd 3546 943c 35ab b7bd
00000340: 30b3 adbd 32a8 503d 96fd 41bd e9a5 843b
00000350: 40f7 05bc 8aa4 b1bd ed3c 45bd cd9d 673d
00000360: 6ad9 453d 6457 c93b 56ba 83ba fa59 9fbc
00000370: 309c aabd 94fa 173d f300 783d 13a3 5a3d
00000380: 387b 013d 9485 eebc 47d8 3b3d a800 273c
00000390: 9e01 4c3d 87e0 fdbc 0110 f9bc c543 bc3a
000003a0: 623d 45bc c5cc 6ebd 578d a5bd 16bc 2abd
000003b0: 39fa aa3d 14b6 28bd 22ea c03c 0348 18bb
000003c0: 22c4 c3bc a840 4d3d 61ea 993d 0c44 0fbd
000003d0: f112 973d 972d 9b3d 550d 4a3d 60b6 e73d
000003e0: 5d4a 8c3d 8756 89bc 8e9e 9f3c a01d 953c
000003f0: b9f1 1f3d 4b66 a93d 45ab 223c 7b36 05bd
-0.051571827 -0.03706438 -0.10403799 0.08419395 0.07832255 0.05962432 -0.007905459 -0.015106058
-0.005077964 -0.014984924 0.07919264 -0.009980299 0.13134503 -0.00042022942 -0.042088825 -0.027888631
-0.041005593 0.093859375 -0.036170337 -0.055771146 -0.0073560863 -0.028198808 -0.046091262 0.06399299
0.030094378 0.041923054 -0.037040956 0.011375323 0.045138072 -0.06480652 0.07003442 0.025845213
0.093349054 0.060260907 -0.0086065065 -0.03938221 -0.056767214 -0.008885125 -0.07346267 -0.064147785
0.06473481 -0.055098936 -0.07275385 0.05376984 0.015935646 0.003048651 0.012305092 -0.051868733
0.017386537 0.054245394 -0.040531263 -0.024623768 0.016118325 -0.045249976 0.06478737 0.029682968
0.054334734 -0.1016375 -0.06275751 -0.020333486 0.059612073 0.07696623 -0.08915543 -0.01030463
0.033481583 0.010500223 0.0013573073 0.064371996 0.012118089 -0.050701667 -0.023760188 0.023394888
-0.05702101 -0.039784886 0.081780694 -0.047439527 -0.028982762 -0.017404228 -0.0035502417 0.029366495
-0.019460516 -0.06091557 0.0047361087 -0.017425893 0.008404021 0.047047343 0.045620885 0.07741239
0.05598122 0.08895583 0.040706705 0.023721652 0.03337376 -0.07578524 -0.069216266 0.03776962
0.085861966 -0.05818245 0.033303518 0.031902846 0.050596397 -0.020500463 0.066497944 0.08863471
-0.053380772 -0.08228993 0.06407779 0.0053334236 0.095066875 -0.05793191 -0.051386073 -0.027790423
0.06791072 0.029894529 -0.031134598 -0.015886733 0.056181367 0.029428475 0.016717024 -0.005135341
-0.0041350834 0.017300945 0.034620043 0.08009134 -0.018488005 -0.03344326 -0.09175375 -0.070959836
-0.078733295 -0.05328909 0.006603309 -0.06604002 0.072758906 -0.055547066 -0.0015338939 0.018439887
0.040770385 -0.06887589 -0.041099228 0.04215516 0.037043616 0.015277667 0.005580126 0.071564
0.0068202 0.013938515 -0.035219576 0.0028892378 -0.031094192 -0.07762376 0.045009784 0.062738106
-0.02919382 -0.02320238 0.011883241 -0.017410144 -0.035403017 -0.013065209 0.025127286 -0.04476835
-0.08136907 0.055174734 0.101454675 0.06680457 0.024042027 0.048020814 0.08154808 -0.022114648
0.03521548 -0.013926344 0.046063643 -0.06870904 -0.07344113 0.052982543 -0.0034588047 0.0047466196
0.031443022 0.027611941 -0.03344907 -0.0014785685 0.07679138 -0.056210693 -0.08043352 -0.02270397
0.064518936 -0.01358418 -0.14658755 -0.06422817 -0.053502314 0.028574087 -0.007394944 0.014577575
-0.07201091 0.024035642 -0.08060303 0.014056437 0.026455076 -0.067211755 -0.031886682 -0.011654597
-0.009280741 0.052027512 -0.05191148 -0.035631504 -0.019739233 -0.03666127 0.018099884 -0.08968202
-0.08481443 0.050941654 -0.04736098 0.0040480983 -0.008176625 -0.086739615 -0.048153806 0.056546975
0.048303045 0.006144451 -0.0010050039 -0.019452084 -0.08330572 0.037104204 0.06054778 0.053378176
0.03161165 -0.02911643 0.045860555 0.010193028 0.04980623 -0.030990852 -0.03040314 0.0014363459
-0.012038561 -0.058300752 -0.08083599 -0.04168328 0.083485074 -0.04118927 0.023549143 -0.0023236282
-0.023897234 0.05011049 0.07515407 -0.034977004 0.0737666 0.07577055 0.04932912 0.11314082
0.06850121 -0.016764892 0.019484784 0.018202603 0.039048884 0.08271464 0.009928529 -0.03252266

rnn.bias_ih_l0 f4 [128]
00000000: a451 3c3d 7e9f 2c3d 83fd 04bc 9988 50bd
00000010: b027 89bc f9bb afbc 436d 663d 410e 22bd
00000020: 76d3 4a3d 4746 afbc ebd2 653d beae b63c
00000030: d301 b63c 2ac8 f1bc f56d 26bd d4be 2a3d
00000040: ee9e 5dbd e0d9 47bd 2131 bdbd 61d5 18bd
00000050: bcfe 8cbc 086b 2c3d 00f5 10bc b18e d6bd
00000060: 1469 133d 48a3 a33d e94b 3bbc fcea 093c
00000070: b6f0 933d 9047 ee3c 7026 073d cd9e 3cbd
00000080: 0312 65bd 25c9 e1bc c4d5 db3c 5d4c fc3c
00000090: 2937 0ebc 5c3d 5ebc 5e32 02bd 819d 193c
000000a0: c9a7 46bd dcd8 243d 38e8 183d 11fd f4bc
000000b0: eb3e 85bd ead6 0f3d f040 95bd 65ba a43d
000000c0: b70d c1bc 089d 17bd 3820 d3bd 2177 3a3d
000000d0: e758 c63c ed87 6b3c 50a7 623d 648e 34bd
000000e0: b34f 073d dedf 853d 221f 773d 7234 9d3c
000000f0: 1f9b 593d 9147 7c3d ebfb 683c a144 ab3c
00000100: 01f5 aa3d f7f0 9e3d 4fa2 6abd 6c06 063c
00000110: b7b7 a23d 607f 7abd 5454 933c 1fc0 40bd
00000120: 2988 7f3d 5c3d 933c c247 813d dfda 773d
00000130: 64a5 b53d 8a75 083d 8fc7 853d a02a 8bbc
00000140: dd19 013d b32c 3cbc 8f34 823d 0f45 66bd
00000150: ad7a 5d3d f8ac 873c 28f1 8fbc 7dc9 843d
00000160: 91ad 86bc 61c6 b83d ab83 8ebd ca4e b8bc
00000170: bbd3 a03c 527a a0bd e30e d2bd 3c51 83bd
00000180: f505 ef3c 9daf b73d c9d4 d53d e769 66bd
00000190: 1435 fa3c ec34 b23d a433 b93c ee58 c5bd
000001a0: 306b 80bd 1089 aabd ee2a 723d 6eb1 37bd
000001b0: 7cb5 c2bc 7650 c0bc 5e9b 51bd 1ffd 163d
000001c0: 2857 1c3d 7233 8cbd 4a0e b93c 870a e33c
000001d0: af4f 973b f07c 6a3d 7303 bfbd e97b e53c
000001e0: a899 f03c 75a9 133c 520d 86bd 293c 493d
000001f0: 4db6 8cbd ec76 07bd 5fa7 a63d da98 4cbc
0.045976296 0.04214429 -0.0081170825 -0.05091152 -0.016742557 -0.021451937 0.056256544 -0.039564375
0.04951807 -0.021395816 0.05610935 0.02230012 0.022217667 -0.029514391 -0.040632207 0.041685894
-0.054106645 -0.048791766 -0.09237886 -0.03731287 -0.01721131 0.04209426 -0.008847475 -0.10476435
0.035988882 0.07990128 -0.011431673 0.008417841 0.07223646 0.029086858 0.03299564 -0.04604988
-0.05592538 -0.027561733 0.02683533 0.030798132 -0.008680143 -0.013564434 -0.031786315 0.009375931
-0.048499856 0.040245876 0.037330836 -0.029905828 -0.06506141 0.035117067 -0.072877765 0.080433644
-0.02356611 -0.03701499 -0.103088796 0.045523766 0.024212314 0.014375669 0.055335343 -0.044081107
0.03303499 0.0653684 0.060332425 0.019190047 0.05312645 0.06159169 0.014220218 0.020906748
0.08347512 0.07760804 -0.057283696 0.008180242 0.07945197 -0.06115663 0.017984547 -0.04705822
0.06238571 0.017973594 0.06312515 0.060511466 0.088694364 0.03331522 0.065322034 -0.016988099
0.031518806 -0.0114852665 0.06357681 -0.056218203 0.05407207 0.01656197 -0.017571047 0.06483743
-0.016440185 0.09022213 -0.069587074 -0.022498507 0.019632211 -0.07835831 -0.10256746 -0.064119786
0.029177645 0.089690425 0.10440976 -0.05625334 0.030542888 0.087015 0.022607632 -0.096361026
-0.062704444 -0.08326924 0.059122972 -0.044846945 -0.02376818 -0.023475867 -0.05117356 0.03686249
0.038169056 -0.0684575 0.022589821 0.02771498 0.0046176533 0.057248056 -0.0932683 0.028013187
0.029370144 0.00901257 -0.065455094 0.04912964 -0.068707086 -0.033072397 0.08137392 -0.0124876145

rnn.bias_hh_l0 f4 [128]
00000000: f8f7 92bc 397a 5e3c c145 693b 6a74 633d
00000010: cb19 26bd d5e6 853d 77e7 b43c 0f5f dabd
00000020: 8962 04bd 6d10 2dbd ac9e 44bd c9cb 3abd
00000030: f7dd 5d3d 9369 963d 4949 e1bb aed6 653d
00000040: 11fa 0338 1507 a33d e342 493c b95a 5f3c
00000050: 3588 853d c4f4 713d b66a cdbc 5c5c a8bd
00000060: 22cf 87bd 577e 01bc 9486 ccbd 8c89 af3c
00000070: 9d6d 193d 4c99 43bd 5cf4 06bd ecdb 95bd
00000080: 90a2 693b 1daf 633d 4e79 8ebd 4876 f4bc
00000090: 689f 63bd 95ba 95bc 4234 b5bd d230 cd3c
000000a0: 8866 7d3d a5bc cbbc 8034 4bbc 97ac 24bd
000000b0: 4863 52bc 987a 3cbd 9a5d 97bd 4d8c 563d
000000c0: 5e6c 883c 43b1 14bd 4a19 9cbd 573c 0abd
000000d0: 6138 563c b2c2 41bc 0148 fc3c b0a4 60bd
000000e0: 344f 5a3d 08b9 c03d ffd7 0abd 9399 953c
000000f0: 4b89 8fbd 8bfb 763c 3189 baba 5ebf 05bd
00000100: ec02 9d3d 5edf da3d 57a9 d13d fac9 813d
00000110: cbcd 51bd bdfd 4fbd 5d89 1f3c bda0 52bd
00000120: 35be abbd 7025 863d 65ba ad3c f01a 053c
00000130: be46 c83d 39de bb3d dafd 193c 8dbc 43bd
00000140: a272 a63c 18c6 873d 3bcb 1b3d 5a2b 623c
00000150: d411 83bd ec07 5d3c b82c 08bd f765 dc3c
00000160: 4c17 39bd 0f1f 273d 3989 3a3d fb49 753c
00000170: 7530 98bd 6a41 9abb a703 cebd 1775 c7bc
00000180: 4d86 31bd 197e 64bd c687 a5bc 8d90 053c
00000190: 50fa 833d 2262 a03d 653a 313d 5114 8b3c
000001a0: c54b 853d f378 b6bd 5f74 bebd 831d e2bc
000001b0: 91d8 b73c 71ca d7bc b139 473d 8aeb d73d
000001c0: 9613 183b 5f42 033d 1a2e 723d ecb4 303d
000001d0: f972 8e3d 1e6c a03d 63fe 603d 9392 7ebd
000001e0: af64 b23d 8ef9 97bd 8c7e 803d e074 0dbb
000001f0: ed08 d1bd 9a32 b1bc ca62 ce3d 5fd3 423d
-0.017940506 0.013578945 0.0035594555 0.055530943 -0.04055194 0.06538168 0.022083027 -0.10662662
-0.032320533 -0.042251993 -0.048002884 -0.0456045 0.05416676 0.073443554 -0.0068751913 0.056112938
3.1465726e-05 0.07960335 0.012284013 0.01363247 0.0652012 0.059071317 -0.025075298 -0.08220741
-0.06631304 -0.007903657 -0.09986606 0.021427892 0.03745805 -0.047753617 -0.032947883 -0.073173374
0.0035649873 0.055586923 -0.06956731 -0.029841557 -0.055571944 -0.018277446 -0.08847858 0.025047693
0.06186536 -0.024870226 -0.012402654 -0.040203657 -0.012841053 -0.046015352 -0.073909 0.052379895
0.016653236 -0.036301862 -0.07622011 -0.03374895 0.013074965 -0.011826204 0.030796053 -0.05484456
0.05329819 0.09410292 -0.033897396 0.018261706 -0.070086084 0.015074621 -0.001423156 -0.032653205
0.07666573 0.10687135 0.10237377 0.06337352 -0.05122165 -0.050779093 0.00973734 -0.051422823
-0.083858885 0.065501094 0.021207044 0.008124098 0.09779118 0.09173245 0.009398902 -0.047787238
0.020318333 0.0662958 0.038035613 0.013804281 -0.06399885 0.013490658 -0.033245772 0.02690409
-0.045188233 0.040801104 0.045541022 0.014971252 -0.074311174 -0.004707505 -0.100592904 -0.024347825
-0.04334097 -0.05578432 -0.020206343 0.008152139 0.06444228 0.07831217 0.04326858 0.016977461
0.065085925 -0.08909788 -0.0929954 -0.027601963 0.022442134 -0.026341649 0.048639003 0.105429724
0.0023205034 0.03204572 0.059125997 0.04314129 0.06955523 0.07833122 0.054930102 -0.062151503
0.0871061 -0.07420646 0.06274137 -0.0021584556 -0.102067806 -0.021630574 0.10077436 0.04756486

fc.weight f4 [3, 128]
00000000: f055 ecb9 bff1 a9ba 5aa1 8dbc 36f9 a43c
00000010: b81e a2bd 7784 0e3a 36e6 de3c 58ad 413d
00000020: bb7b 01bd 8d7c 883d a4a8 4d3c 1f74 6a3c
00000030: 2bcc 0ebd fead f4bb 7aa0 113d 97e2 18bd
00000040: 923a 7cbd 8591 5dba 1f4f 9e3c 3880 14bd
00000050: 9ac0 c3bc 0aba 683c 25b7 97bd 8f44 07bd
00000060: 26ee 6e3b 9a58 c2bc 0413 71bd 8cef 67bc
00000070: e408 1fbd 08c2 11bd 78be 24bc 887d 44bd
00000080: bf33 343c 5ad3 54bd f989 903d 73b1 f5bc
00000090: b6f9 c03c f6ba 553d ee5d 103c 86fe 71bd
000000a0: 44d6 ef3c 7a6f 5d3c a533 90bc 244f 803c
000000b0: 05a4 743d 30ab 913d 2308 643c 1909 90bc
000000c0: a303 99bd 7785 5abc 1ff6 41bd 4556 82bd
000000d0: a72a 33bc 0762 c6bc 0ad1 6b3d c73b 943c
000000e0: 41f5 c83a 97b7 943b c4eb 2ebd da69 023d
000000f0: e9e3 593d 2d02 64bd 3b52 9a3c 974b 3fbd
00000100: ed77 e7bc 29aa 8abd 2ff2 81bc 0ccd 0bbc
00000110: 0014 373b 823e f53c 3ab8 2a3c f61d 90bd
00000120: 2e74 d0bb 77b8 b33c fea1 5a3d a221 6f3d
00000130: b1f1 e9bc dfa4 0c3c e367 88bd 33fb 703b
00000140: 54f7 873c 560b 64bb 297c 043d 08ce 84bd
00000150: ceb1 8e3c a888 1abd b1a8 a2bd 6d80 2dbd
00000160: ba26 4c3c d9a0 41bc d70f b2bb 461e ce3c
00000170: 5043 9abd 27e9 7e3d 93bb b53d d480 c43a
00000180: 295a c9bc 80f6 ae3c bbac 52bd c641 573d
00000190: df01 283d d68e 28bd 3b38 b5bd c8b7 a73d
000001a0: 98a3 e3b9 6921 97bc 0bda ec3c 5217 abbc
000001b0: e77d 913d 6d1e 00bd 1926 31bd 25d7 87bc
000001c0: 925c adbc 2516 56bd fa54 7cbc 2317 9e3d
000001d0: 29f0 81bd e709 9f3d e30e babc e543 1b3d
000001e0: ed82 0abd 1964 16bd 1fc6 7f3d 37b2 1ebd
000001f0: 3eb3 aa3d e31f 4dbb e7bb 833b 86f6 61bd
00000200: 4e08 ffbb a453 103c 755c bf3b 0cc1 10bd
00000210: e2f7 6f3d 26d5 623a 823b f43b 04d8 9abd
00000220: d56a edbb 8ff2 903d c461 fdbb a36a 7c3c
00000230: e27c 30bd 8689 a33d ecf5 163d 1711 153d
00000240: 14e2 90bd fb95 b8bb f089 5bbb 8014 943d
00000250: 8b41 edbc e68b 13bd fda7 94bd 3d19 a0bd
00000260: 6f8b 40bc ed6f f5bc 842d 0dbc d8de f23c
00000270: f067 1fbd 78d6 e23c 0498 59bd 70ad 303d
00000280: 9ae5 fd3c e861 8d3d e0b9 873d f446 b6bc
00000290: d697 1d3d aea7 983d 452b 5cbd 6b4c a23d
000002a0: 482b 47bc 1144 06bc e3b2 9bbc f7ab b43c
000002b0: 9ac8 143d 9e07 9e3d 72d4 523d 09a3 0cbc
000002c0: e302 4d3c 641b 8c3b c68b b7bc bc6f 593d
000002d0: f448 a2bc 615f 9739 0b81 4ebd bd4a d83c
000002e0: 08ec 56bc e97a 003d 3cdb 52bd 6e31 893d
000002f0: 7ebc 723d 4348 3ebd 47a5 a4bd 11a4 663d
00000300: 43e1 8e3d 8d64 37bd bd15 19bc 3e78 96bc
00000310: 8671 2a3c c642 563d f5e7 3bbd 4723 a7bd
00000320: d4fa e0bb 3d90 c83c 1956 203d 3dfb a83d
00000330: a852 913c 3d11 10bc 3622 0d3d 417d c8bb
00000340: 79eb b13c 7ed7 17bc 1795 9fbb 95b3 bfbb
00000350: b41a 253c c64d 8c3d e290 a03b 01e5 91bd
00000360: 9b05 7dbd fcce 3b3c 0c1d 903d 4ae5 a83c
00000370: 23d9 df3c e0e9 6a3d da96 913c 78e1 77bc
00000380: c739 b0bc 75ee eb3c 0120 ff3c 8e3b 7b3c
00000390: 4d4d 183d ed43 cc3c 95e0 d83c 491e 81bd
000003a0: 7da1 1cbc 5140 483d f756 a6ba dec1 39bc
000003b0: dc12 603d eed7 99bc 4050 873d d090 38bc
000003c0: a901 773d cd78 8e3d 0c3d 0a3d a523 4abd
000003d0: 9625 1fbd d3f5 8c3d 3810 a4bc e0e4 1a3d
000003e0: 5466 85bd 39ec 3dbc 5754 1a3d 941d febc
000003f0: 4eca 9c3d 00c9 fcbb 9361 3ebd 7187 b93b
-0.00045077456 -0.0012965723 -0.017288852 0.020138364 -0.079160154 0.0005436609 0.027209383 0.047284454
-0.03161214 0.06664381 0.012552414 0.014309912 -0.03486268 -0.0074670305 0.035553433 -0.037325468
-0.061579295 -0.0008452165 0.019324837 -0.03625509 -0.02389555 0.014204511 -0.07407979 -0.033024367
0.0036457865 -0.02372389 -0.058856025 -0.0141562335 -0.038826838 -0.035585433 -0.010055177 -0.04797128
0.010998665 -0.051959373 0.07057566 -0.029991841 0.023556571 0.052180253 0.008811457 -0.059080623
0.029276974 0.013515348 -0.017602751 0.015662737 0.059726734 0.071127295 0.013917956 -0.017582463
-0.07471397 -0.013337485 -0.04735386 -0.06364111 -0.010935462 -0.024216665 0.057572402 0.01809491
0.001533188 0.004538487 -0.042705312 0.03183923 0.053195868 -0.055666137 0.018838039 -0.046702947
-0.028255427 -0.06770737 -0.015862552 -0.008532774 0.0027935505 0.029937033 0.0104199 -0.070369646
-0.006361506 0.021938546 0.053377144 0.058381684 -0.02855763 0.00858423 -0.0666044 0.003677082
0.016597427 -0.0034796796 0.03234497 -0.0648461 0.017418768 -0.03772798 -0.079423316 -0.042358804
0.012460405 -0.011818134 -0.005434017 0.02516092 -0.0753237 0.06223407 0.088736676 0.0014992007
-0.024579125 0.021357775 -0.05143426 0.05255296 0.04101741 -0.041151844 -0.08848616 0.0818935
-0.000434187 -0.018448548 0.028912565 -0.020885143 0.07104092 -0.031279016 -0.043249223 -0.016582081
-0.021162305 -0.052267212 -0.015401119 0.07719257 -0.06344635 0.077655606 -0.022712177 0.037906546
-0.033816267 -0.036716554 0.062444802 -0.038744178 0.08334969 -0.0031299524 0.0040202024 -0.055166744
-0.0077829724 0.008809004 0.005839879 -0.035340354 0.05858601 0.00086529774 0.007453383 -0.07560733
-0.0072454014 0.070775144 -0.007732602 0.015406284 -0.043087848 0.07985215 0.036855623 0.03639325
-0.07074371 -0.0056331134 -0.0033498965 0.072304726 -0.028961917 -0.03602209 -0.07258604 -0.07817314
-0.011751994 -0.029960597 -0.008616809 0.029647276 -0.038917482 0.027690157 -0.05312349 0.043134153
0.030993272 0.0690344 0.0662725 -0.02225063 0.03847488 0.07453857 -0.053752203 0.07924732
-0.012156315 -0.008194939 -0.019006198 0.022054655 0.03632412 0.077162966 0.051472135 -0.0085837925
0.012512895 0.004275726 -0.022405516 0.053085074 -0.019810177 0.00028872027 -0.050416034 0.026402825
-0.013117798 0.031367216 -0.05147861 0.06698881 0.05926179 -0.046455633 -0.08039337 0.05630881
0.06976559 -0.044773627 -0.009343562 -0.018367883 0.010403043 0.052309774 -0.04587551 -0.081610255
-0.0068658385 0.02448284 0.03914461 0.08251045 0.017739609 -0.008793172 0.034456454 -0.006118447
0.021718727 -0.009267686 -0.004870068 -0.0058502653 0.010077167 0.068507716 0.004900084 -0.07123757
-0.061772924 0.011462923 0.0703679 0.020617146 0.027325219 0.057351947 0.017772127 -0.0151294395
-0.021511925 0.028800229 0.03114319 0.015334023 0.037183095 0.024934733 0.026474277 -0.063046046
-0.009559986 0.048889462 -0.0012690712 -0.011337725 0.054705486 -0.018779721 0.06607103 -0.011264995
0.060304318 0.06956635 0.033749625 -0.0493504 -0.038854204 0.06882825 -0.020027265 0.03781593
-0.06513658 -0.011591964 0.03767809 -0.031019963 0.07655774 -0.0077143908 -0.046479773 0.005661898

fc.bias f4 [3]
00000000: 7e6a 123c fa13 4abd 1906 a4bd
0.0089365225 -0.049335457 -0.080089755
